…
I1202 03:08:50.105994 2760188864 net.cpp:322] The NetState phase (0) differed from the phase (1) specified by a rule in layer accuracy
I1202 03:08:50.106001 2760188864 net.cpp:58] Initializing net from parameters: 
name: "LeNet"
state {
  phase: TRAIN
  level: 0
  stage: ""
}
layer {
  name: "math"
  type: "Data"
  top: "data"
  top: "label"
  include {
    phase: TRAIN
  }
  transform_param {
    mean_file: "examples/imagenet/math_mean.binaryproto"
  }
  data_param {
    source: "examples/imagenet/math_train_lmdb"
    batch_size: 64
    backend: LMDB
  }
}
layer {
  name: "conv1"
  type: "Convolution"
  bottom: "data"
  top: "conv1"
  param {
    lr_mult: 1
  }
  convolution_param {
    num_output: 20
    kernel_size: 5
    stride: 1
    weight_filler {
      type: "gaussian"
      std: 0.0001
    }
    bias_filler {
      type: "constant"
    }
  }
}
layer {
  name: "pool1"
  type: "Pooling"
  bottom: "conv1"
  top: "pool1"
  pooling_param {
    pool: MAX
    kernel_size: 2
    stride: 2
  }
}
layer {
  name: "bn1"
  type: "BatchNorm"
  bottom: "pool1"
  top: "bn1"
  batch_norm_param {
    use_global_stats: false
  }
}
layer {
  name: "tanh1"
  type: "TanH"
  bottom: "bn1"
  top: "tanh1"
}
layer {
  name: "conv2"
  type: "Convolution"
  bottom: "tanh1"
  top: "conv2"
  param {
    lr_mult: 1
  }
  convolution_param {
    num_output: 50
    kernel_size: 5
    stride: 1
    weight_filler {
      type: "gaussian"
      std: 0.01
    }
    bias_filler {
      type: "constant"
    }
  }
}
layer {
  name: "bn2"
  type: "BatchNorm"
  bottom: "conv2"
  top: "bn2"
  batch_norm_param {
    use_global_stats: false
  }
}
layer {
  name: "tanh2"
  type: "TanH"
  bottom: "bn2"
  top: "tanh2"
}
layer {
  name: "pool2"
  type: "Pooling"
  bottom: "tanh2"
  top: "pool2"
  pooling_param {
    pool: MAX
    kernel_size: 2
    stride: 2
  }
}
layer {
  name: "ip1"
  type: "InnerProduct"
  bottom: "pool2"
  top: "ip1"
  param {
    lr_mult: 1
  }
  param {
    lr_mult: 2
  }
  inner_product_param {
    num_output: 500
    weight_filler {
      type: "gaussian"
      std: 0.01
    }
    bias_filler {
      type: "constant"
    }
  }
}
layer {
  name: "ip2"
  type: "InnerProduct"
  bottom: "ip1"
  top: "ip2"
  param {
    lr_mult: 1
  }
  param {
    lr_mult: 2
  }
  inner_product_param {
    num_output: 19
    weight_filler {
      type: "gaussian"
      std: 0.01
    }
    bias_filler {
      type: "constant"
    }
  }
}
layer {
  name: "loss"
  type: "SoftmaxWithLoss"
  bottom: "ip2"
  bottom: "label"
  top: "loss"
}
I1202 03:08:50.106168 2760188864 layer_factory.hpp:77] Creating layer math
I1202 03:08:50.111726 2760188864 net.cpp:100] Creating Layer math
I1202 03:08:50.111769 2760188864 net.cpp:408] math -> data
I1202 03:08:50.111810 2760188864 net.cpp:408] math -> label
I1202 03:08:50.111841 2760188864 data_transformer.cpp:25] Loading mean file from: examples/imagenet/math_mean.binaryproto
I1202 03:08:50.113451 60289024 db_lmdb.cpp:35] Opened lmdb examples/imagenet/math_train_lmdb
I1202 03:08:50.114902 2760188864 data_layer.cpp:41] output data size: 64,3,32,72
I1202 03:08:50.119302 2760188864 net.cpp:150] Setting up math
I1202 03:08:50.119362 2760188864 net.cpp:157] Top shape: 64 3 32 72 (442368)
I1202 03:08:50.119374 2760188864 net.cpp:157] Top shape: 64 (64)
I1202 03:08:50.119379 2760188864 net.cpp:165] Memory required for data: 1769728
I1202 03:08:50.119392 2760188864 layer_factory.hpp:77] Creating layer conv1
I1202 03:08:50.119411 2760188864 net.cpp:100] Creating Layer conv1
I1202 03:08:50.119417 2760188864 net.cpp:434] conv1 <- data
I1202 03:08:50.119426 2760188864 net.cpp:408] conv1 -> conv1
I1202 03:08:50.119582 2760188864 net.cpp:150] Setting up conv1
I1202 03:08:50.119592 2760188864 net.cpp:157] Top shape: 64 20 28 68 (2437120)
I1202 03:08:50.119601 2760188864 net.cpp:165] Memory required for data: 11518208
I1202 03:08:50.119612 2760188864 layer_factory.hpp:77] Creating layer pool1
I1202 03:08:50.119622 2760188864 net.cpp:100] Creating Layer pool1
I1202 03:08:50.119627 2760188864 net.cpp:434] pool1 <- conv1
I1202 03:08:50.119634 2760188864 net.cpp:408] pool1 -> pool1
I1202 03:08:50.119647 2760188864 net.cpp:150] Setting up pool1
I1202 03:08:50.119652 2760188864 net.cpp:157] Top shape: 64 20 14 34 (609280)
I1202 03:08:50.119662 2760188864 net.cpp:165] Memory required for data: 13955328
I1202 03:08:50.119668 2760188864 layer_factory.hpp:77] Creating layer bn1
I1202 03:08:50.119674 2760188864 net.cpp:100] Creating Layer bn1
I1202 03:08:50.119680 2760188864 net.cpp:434] bn1 <- pool1
I1202 03:08:50.119690 2760188864 net.cpp:408] bn1 -> bn1
I1202 03:08:50.119720 2760188864 net.cpp:150] Setting up bn1
I1202 03:08:50.119727 2760188864 net.cpp:157] Top shape: 64 20 14 34 (609280)
I1202 03:08:50.119735 2760188864 net.cpp:165] Memory required for data: 16392448
I1202 03:08:50.119746 2760188864 layer_factory.hpp:77] Creating layer tanh1
I1202 03:08:50.119753 2760188864 net.cpp:100] Creating Layer tanh1
I1202 03:08:50.119760 2760188864 net.cpp:434] tanh1 <- bn1
I1202 03:08:50.119788 2760188864 net.cpp:408] tanh1 -> tanh1
I1202 03:08:50.119799 2760188864 net.cpp:150] Setting up tanh1
I1202 03:08:50.119806 2760188864 net.cpp:157] Top shape: 64 20 14 34 (609280)
I1202 03:08:50.119812 2760188864 net.cpp:165] Memory required for data: 18829568
I1202 03:08:50.119817 2760188864 layer_factory.hpp:77] Creating layer conv2
I1202 03:08:50.119827 2760188864 net.cpp:100] Creating Layer conv2
I1202 03:08:50.119833 2760188864 net.cpp:434] conv2 <- tanh1
I1202 03:08:50.119843 2760188864 net.cpp:408] conv2 -> conv2
I1202 03:08:50.120357 2760188864 net.cpp:150] Setting up conv2
I1202 03:08:50.120367 2760188864 net.cpp:157] Top shape: 64 50 10 30 (960000)
I1202 03:08:50.120373 2760188864 net.cpp:165] Memory required for data: 22669568
I1202 03:08:50.120381 2760188864 layer_factory.hpp:77] Creating layer bn2
I1202 03:08:50.120393 2760188864 net.cpp:100] Creating Layer bn2
I1202 03:08:50.120419 2760188864 net.cpp:434] bn2 <- conv2
I1202 03:08:50.120448 2760188864 net.cpp:408] bn2 -> bn2
I1202 03:08:50.120483 2760188864 net.cpp:150] Setting up bn2
I1202 03:08:50.120493 2760188864 net.cpp:157] Top shape: 64 50 10 30 (960000)
I1202 03:08:50.120503 2760188864 net.cpp:165] Memory required for data: 26509568
I1202 03:08:50.120517 2760188864 layer_factory.hpp:77] Creating layer tanh2
I1202 03:08:50.120527 2760188864 net.cpp:100] Creating Layer tanh2
I1202 03:08:50.120534 2760188864 net.cpp:434] tanh2 <- bn2
I1202 03:08:50.120543 2760188864 net.cpp:408] tanh2 -> tanh2
I1202 03:08:50.120560 2760188864 net.cpp:150] Setting up tanh2
I1202 03:08:50.120568 2760188864 net.cpp:157] Top shape: 64 50 10 30 (960000)
I1202 03:08:50.120575 2760188864 net.cpp:165] Memory required for data: 30349568
I1202 03:08:50.120580 2760188864 layer_factory.hpp:77] Creating layer pool2
I1202 03:08:50.120590 2760188864 net.cpp:100] Creating Layer pool2
I1202 03:08:50.120597 2760188864 net.cpp:434] pool2 <- tanh2
I1202 03:08:50.120627 2760188864 net.cpp:408] pool2 -> pool2
I1202 03:08:50.120643 2760188864 net.cpp:150] Setting up pool2
I1202 03:08:50.120651 2760188864 net.cpp:157] Top shape: 64 50 5 15 (240000)
I1202 03:08:50.120657 2760188864 net.cpp:165] Memory required for data: 31309568
I1202 03:08:50.120684 2760188864 layer_factory.hpp:77] Creating layer ip1
I1202 03:08:50.120697 2760188864 net.cpp:100] Creating Layer ip1
I1202 03:08:50.120703 2760188864 net.cpp:434] ip1 <- pool2
I1202 03:08:50.120712 2760188864 net.cpp:408] ip1 -> ip1
I1202 03:08:50.151017 2760188864 net.cpp:150] Setting up ip1
I1202 03:08:50.151041 2760188864 net.cpp:157] Top shape: 64 500 (32000)
I1202 03:08:50.151047 2760188864 net.cpp:165] Memory required for data: 31437568
I1202 03:08:50.151054 2760188864 layer_factory.hpp:77] Creating layer ip2
I1202 03:08:50.151067 2760188864 net.cpp:100] Creating Layer ip2
I1202 03:08:50.151069 2760188864 net.cpp:434] ip2 <- ip1
I1202 03:08:50.151075 2760188864 net.cpp:408] ip2 -> ip2
I1202 03:08:50.151206 2760188864 net.cpp:150] Setting up ip2
I1202 03:08:50.151211 2760188864 net.cpp:157] Top shape: 64 19 (1216)
I1202 03:08:50.151219 2760188864 net.cpp:165] Memory required for data: 31442432
I1202 03:08:50.151224 2760188864 layer_factory.hpp:77] Creating layer loss
I1202 03:08:50.151243 2760188864 net.cpp:100] Creating Layer loss
I1202 03:08:50.151252 2760188864 net.cpp:434] loss <- ip2
I1202 03:08:50.151257 2760188864 net.cpp:434] loss <- label
I1202 03:08:50.151267 2760188864 net.cpp:408] loss -> loss
…
I1202 03:08:50.151738 2760188864 solver.cpp:181] Creating test net (#0) specified by net file: examples/mnist/lenet_train_math_test_batchnorm.prototxt
I1202 03:08:50.151780 2760188864 net.cpp:322] The NetState phase (1) differed from the phase (0) specified by a rule in layer math
I1202 03:08:50.151799 2760188864 net.cpp:58] Initializing net from parameters: 
name: "LeNet"
state {
  phase: TEST
}
layer {
  name: "math"
  type: "Data"
  top: "data"
  top: "label"
  include {
    phase: TEST
  }
  transform_param {
    mean_file: "examples/imagenet/math_mean.binaryproto"
  }
  data_param {
    source: "examples/imagenet/math_val_lmdb"
    batch_size: 100
    backend: LMDB
  }
}
layer {
  name: "conv1"
  type: "Convolution"
  bottom: "data"
  top: "conv1"
  param {
    lr_mult: 1
  }
  convolution_param {
    num_output: 20
    kernel_size: 5
    stride: 1
    weight_filler {
      type: "gaussian"
      std: 0.0001
    }
    bias_filler {
      type: "constant"
    }
  }
}
layer {
  name: "pool1"
  type: "Pooling"
  bottom: "conv1"
  top: "pool1"
  pooling_param {
    pool: MAX
    kernel_size: 2
    stride: 2
  }
}
layer {
  name: "bn1"
  type: "BatchNorm"
  bottom: "pool1"
  top: "bn1"
  batch_norm_param {
    use_global_stats: false
  }
}
layer {
  name: "tanh1"
  type: "TanH"
  bottom: "bn1"
  top: "tanh1"
}
layer {
  name: "conv2"
  type: "Convolution"
  bottom: "tanh1"
  top: "conv2"
  param {
    lr_mult: 1
  }
  convolution_param {
    num_output: 50
    kernel_size: 5
    stride: 1
    weight_filler {
      type: "gaussian"
      std: 0.01
    }
    bias_filler {
      type: "constant"
    }
  }
}
layer {
  name: "bn2"
  type: "BatchNorm"
  bottom: "conv2"
  top: "bn2"
  batch_norm_param {
    use_global_stats: false
  }
}
layer {
  name: "tanh2"
  type: "TanH"
  bottom: "bn2"
  top: "tanh2"
}
layer {
  name: "pool2"
  type: "Pooling"
  bottom: "tanh2"
  top: "pool2"
  pooling_param {
    pool: MAX
    kernel_size: 2
    stride: 2
  }
}
layer {
  name: "ip1"
  type: "InnerProduct"
  bottom: "pool2"
  top: "ip1"
  param {
    lr_mult: 1
  }
  param {
    lr_mult: 2
  }
  inner_product_param {
    num_output: 500
    weight_filler {
      type: "gaussian"
      std: 0.01
    }
    bias_filler {
      type: "constant"
    }
  }
}
layer {
  name: "ip2"
  type: "InnerProduct"
  bottom: "ip1"
  top: "ip2"
  param {
    lr_mult: 1
  }
  param {
    lr_mult: 2
  }
  inner_product_param {
    num_output: 19
    weight_filler {
      type: "gaussian"
      std: 0.01
    }
    bias_filler {
      type: "constant"
    }
  }
}
layer {
  name: "accuracy"
  type: "Accuracy"
  bottom: "ip2"
  bottom: "label"
  top: "accuracy"
  include {
    phase: TEST
  }
}
layer {
  name: "loss"
  type: "SoftmaxWithLoss"
  bottom: "ip2"
  bottom: "label"
  top: "loss"
}
I1202 03:08:50.151999 2760188864 layer_factory.hpp:77] Creating layer math
I1202 03:08:50.152118 2760188864 net.cpp:100] Creating Layer math
I1202 03:08:50.152129 2760188864 net.cpp:408] math -> data
I1202 03:08:50.152143 2760188864 net.cpp:408] math -> label
I1202 03:08:50.152155 2760188864 data_transformer.cpp:25] Loading mean file from: examples/imagenet/math_mean.binaryproto
I1202 03:08:50.152868 61362176 db_lmdb.cpp:35] Opened lmdb examples/imagenet/math_val_lmdb
I1202 03:08:50.153573 2760188864 data_layer.cpp:41] output data size: 100,3,32,72
I1202 03:08:50.159396 2760188864 net.cpp:150] Setting up math
I1202 03:08:50.159426 2760188864 net.cpp:157] Top shape: 100 3 32 72 (691200)
I1202 03:08:50.159437 2760188864 net.cpp:157] Top shape: 100 (100)
I1202 03:08:50.159445 2760188864 net.cpp:165] Memory required for data: 2765200
I1202 03:08:50.159452 2760188864 layer_factory.hpp:77] Creating layer label_math_1_split
I1202 03:08:50.159471 2760188864 net.cpp:100] Creating Layer label_math_1_split
I1202 03:08:50.159478 2760188864 net.cpp:434] label_math_1_split <- label
I1202 03:08:50.159488 2760188864 net.cpp:408] label_math_1_split -> label_math_1_split_0
I1202 03:08:50.159500 2760188864 net.cpp:408] label_math_1_split -> label_math_1_split_1
I1202 03:08:50.159514 2760188864 net.cpp:150] Setting up label_math_1_split
I1202 03:08:50.159520 2760188864 net.cpp:157] Top shape: 100 (100)
I1202 03:08:50.159528 2760188864 net.cpp:157] Top shape: 100 (100)
I1202 03:08:50.159533 2760188864 net.cpp:165] Memory required for data: 2766000
I1202 03:08:50.159539 2760188864 layer_factory.hpp:77] Creating layer conv1
I1202 03:08:50.159557 2760188864 net.cpp:100] Creating Layer conv1
I1202 03:08:50.159602 2760188864 net.cpp:434] conv1 <- data
I1202 03:08:50.159617 2760188864 net.cpp:408] conv1 -> conv1
I1202 03:08:50.159688 2760188864 net.cpp:150] Setting up conv1
I1202 03:08:50.159696 2760188864 net.cpp:157] Top shape: 100 20 28 68 (3808000)
I1202 03:08:50.159704 2760188864 net.cpp:165] Memory required for data: 17998000
I1202 03:08:50.159715 2760188864 layer_factory.hpp:77] Creating layer pool1
I1202 03:08:50.159723 2760188864 net.cpp:100] Creating Layer pool1
I1202 03:08:50.159729 2760188864 net.cpp:434] pool1 <- conv1
I1202 03:08:50.159736 2760188864 net.cpp:408] pool1 -> pool1
I1202 03:08:50.159749 2760188864 net.cpp:150] Setting up pool1
I1202 03:08:50.159783 2760188864 net.cpp:157] Top shape: 100 20 14 34 (952000)
I1202 03:08:50.159791 2760188864 net.cpp:165] Memory required for data: 21806000
I1202 03:08:50.159797 2760188864 layer_factory.hpp:77] Creating layer bn1
I1202 03:08:50.159806 2760188864 net.cpp:100] Creating Layer bn1
I1202 03:08:50.159811 2760188864 net.cpp:434] bn1 <- pool1
I1202 03:08:50.159818 2760188864 net.cpp:408] bn1 -> bn1
I1202 03:08:50.159839 2760188864 net.cpp:150] Setting up bn1
I1202 03:08:50.159844 2760188864 net.cpp:157] Top shape: 100 20 14 34 (952000)
I1202 03:08:50.159852 2760188864 net.cpp:165] Memory required for data: 25614000
I1202 03:08:50.159863 2760188864 layer_factory.hpp:77] Creating layer tanh1
I1202 03:08:50.159871 2760188864 net.cpp:100] Creating Layer tanh1
I1202 03:08:50.159876 2760188864 net.cpp:434] tanh1 <- bn1
I1202 03:08:50.159883 2760188864 net.cpp:408] tanh1 -> tanh1
I1202 03:08:50.159893 2760188864 net.cpp:150] Setting up tanh1
I1202 03:08:50.159898 2760188864 net.cpp:157] Top shape: 100 20 14 34 (952000)
I1202 03:08:50.159904 2760188864 net.cpp:165] Memory required for data: 29422000
I1202 03:08:50.159909 2760188864 layer_factory.hpp:77] Creating layer conv2
I1202 03:08:50.159919 2760188864 net.cpp:100] Creating Layer conv2
I1202 03:08:50.159925 2760188864 net.cpp:434] conv2 <- tanh1
I1202 03:08:50.159934 2760188864 net.cpp:408] conv2 -> conv2
I1202 03:08:50.160488 2760188864 net.cpp:150] Setting up conv2
I1202 03:08:50.160504 2760188864 net.cpp:157] Top shape: 100 50 10 30 (1500000)
I1202 03:08:50.160523 2760188864 net.cpp:165] Memory required for data: 35422000
I1202 03:08:50.160532 2760188864 layer_factory.hpp:77] Creating layer bn2
I1202 03:08:50.160540 2760188864 net.cpp:100] Creating Layer bn2
I1202 03:08:50.160547 2760188864 net.cpp:434] bn2 <- conv2
I1202 03:08:50.160553 2760188864 net.cpp:408] bn2 -> bn2
I1202 03:08:50.160574 2760188864 net.cpp:150] Setting up bn2
I1202 03:08:50.160579 2760188864 net.cpp:157] Top shape: 100 50 10 30 (1500000)
I1202 03:08:50.160586 2760188864 net.cpp:165] Memory required for data: 41422000
I1202 03:08:50.160598 2760188864 layer_factory.hpp:77] Creating layer tanh2
I1202 03:08:50.160607 2760188864 net.cpp:100] Creating Layer tanh2
I1202 03:08:50.160614 2760188864 net.cpp:434] tanh2 <- bn2
I1202 03:08:50.160620 2760188864 net.cpp:408] tanh2 -> tanh2
I1202 03:08:50.160629 2760188864 net.cpp:150] Setting up tanh2
I1202 03:08:50.160634 2760188864 net.cpp:157] Top shape: 100 50 10 30 (1500000)
I1202 03:08:50.160642 2760188864 net.cpp:165] Memory required for data: 47422000
I1202 03:08:50.160647 2760188864 layer_factory.hpp:77] Creating layer pool2
I1202 03:08:50.160655 2760188864 net.cpp:100] Creating Layer pool2
I1202 03:08:50.160660 2760188864 net.cpp:434] pool2 <- tanh2
I1202 03:08:50.160667 2760188864 net.cpp:408] pool2 -> pool2
I1202 03:08:50.160679 2760188864 net.cpp:150] Setting up pool2
I1202 03:08:50.160684 2760188864 net.cpp:157] Top shape: 100 50 5 15 (375000)
I1202 03:08:50.160691 2760188864 net.cpp:165] Memory required for data: 48922000
I1202 03:08:50.160696 2760188864 layer_factory.hpp:77] Creating layer ip1
I1202 03:08:50.160707 2760188864 net.cpp:100] Creating Layer ip1
I1202 03:08:50.160738 2760188864 net.cpp:434] ip1 <- pool2
I1202 03:08:50.160751 2760188864 net.cpp:408] ip1 -> ip1
I1202 03:08:50.187687 2760188864 net.cpp:150] Setting up ip1
I1202 03:08:50.187708 2760188864 net.cpp:157] Top shape: 100 500 (50000)
I1202 03:08:50.187713 2760188864 net.cpp:165] Memory required for data: 49122000
I1202 03:08:50.187721 2760188864 layer_factory.hpp:77] Creating layer ip2
I1202 03:08:50.187731 2760188864 net.cpp:100] Creating Layer ip2
I1202 03:08:50.187736 2760188864 net.cpp:434] ip2 <- ip1
I1202 03:08:50.187741 2760188864 net.cpp:408] ip2 -> ip2
I1202 03:08:50.187933 2760188864 net.cpp:150] Setting up ip2
I1202 03:08:50.187944 2760188864 net.cpp:157] Top shape: 100 19 (1900)
I1202 03:08:50.187952 2760188864 net.cpp:165] Memory required for data: 49129600
I1202 03:08:50.187960 2760188864 layer_factory.hpp:77] Creating layer ip2_ip2_0_split
I1202 03:08:50.188052 2760188864 net.cpp:100] Creating Layer ip2_ip2_0_split
I1202 03:08:50.188068 2760188864 net.cpp:434] ip2_ip2_0_split <- ip2
I1202 03:08:50.188078 2760188864 net.cpp:408] ip2_ip2_0_split -> ip2_ip2_0_split_0
I1202 03:08:50.188091 2760188864 net.cpp:408] ip2_ip2_0_split -> ip2_ip2_0_split_1
I1202 03:08:50.188104 2760188864 net.cpp:150] Setting up ip2_ip2_0_split
I1202 03:08:50.188112 2760188864 net.cpp:157] Top shape: 100 19 (1900)
I1202 03:08:50.188117 2760188864 net.cpp:157] Top shape: 100 19 (1900)
I1202 03:08:50.188123 2760188864 net.cpp:165] Memory required for data: 49144800
I1202 03:08:50.188130 2760188864 layer_factory.hpp:77] Creating layer accuracy
I1202 03:08:50.188141 2760188864 net.cpp:100] Creating Layer accuracy
I1202 03:08:50.188148 2760188864 net.cpp:434] accuracy <- ip2_ip2_0_split_0
I1202 03:08:50.188155 2760188864 net.cpp:434] accuracy <- label_math_1_split_0
I1202 03:08:50.188165 2760188864 net.cpp:408] accuracy -> accuracy
…
