…
I1201 19:45:46.318912 2760188864 net.cpp:322] The NetState phase (0) differed from the phase (1) specified by a rule in layer accuracy
I1201 19:45:46.318920 2760188864 net.cpp:58] Initializing net from parameters: 
name: "LeNet"
state {
  phase: TRAIN
  level: 0
  stage: ""
}
layer {
  name: "math"
  type: "Data"
  top: "data"
  top: "label"
  include {
    phase: TRAIN
  }
  transform_param {
    mean_file: "examples/imagenet/math_mean.binaryproto"
  }
  data_param {
    source: "examples/imagenet/math_train_lmdb"
    batch_size: 64
    backend: LMDB
  }
}
layer {
  name: "conv1"
  type: "Convolution"
  bottom: "data"
  top: "conv1"
  param {
    lr_mult: 1
  }
  convolution_param {
    num_output: 20
    kernel_size: 5
    stride: 1
    weight_filler {
      type: "gaussian"
      std: 0.0001
    }
  }
}
layer {
  name: "pool1"
  type: "Pooling"
  bottom: "conv1"
  top: "pool1"
  pooling_param {
    pool: MAX
    kernel_size: 2
    stride: 2
  }
}
layer {
  name: "bn1"
  type: "BatchNorm"
  bottom: "pool1"
  top: "bn1"
}
layer {
  name: "Sigmoid1"
  type: "Sigmoid"
  bottom: "bn1"
  top: "Sigmoid1"
}
layer {
  name: "conv2"
  type: "Convolution"
  bottom: "Sigmoid1"
  top: "conv2"
  param {
    lr_mult: 1
  }
  convolution_param {
    num_output: 50
    kernel_size: 5
    stride: 1
    weight_filler {
      type: "gaussian"
      std: 0.01
    }
  }
}
layer {
  name: "bn2"
  type: "BatchNorm"
  bottom: "conv2"
  top: "bn2"
}
layer {
  name: "Sigmoid2"
  type: "Sigmoid"
  bottom: "bn2"
  top: "Sigmoid2"
}
layer {
  name: "pool2"
  type: "Pooling"
  bottom: "Sigmoid2"
  top: "pool2"
  pooling_param {
    pool: AVE
    kernel_size: 2
    stride: 2
  }
}
layer {
  name: "ip1"
  type: "InnerProduct"
  bottom: "pool2"
  top: "ip1"
  param {
    lr_mult: 1
    decay_mult: 1
  }
  param {
    lr_mult: 1
    decay_mult: 0
  }
  inner_product_param {
    num_output: 19
    weight_filler {
      type: "gaussian"
      std: 0.01
    }
    bias_filler {
      type: "constant"
    }
  }
}
layer {
  name: "loss"
  type: "SoftmaxWithLoss"
  bottom: "ip1"
  bottom: "label"
  top: "loss"
}
I1201 19:45:46.319067 2760188864 layer_factory.hpp:77] Creating layer math
I1201 19:45:46.326911 2760188864 net.cpp:100] Creating Layer math
I1201 19:45:46.326949 2760188864 net.cpp:408] math -> data
I1201 19:45:46.326985 2760188864 net.cpp:408] math -> label
I1201 19:45:46.327010 2760188864 data_transformer.cpp:25] Loading mean file from: examples/imagenet/math_mean.binaryproto
I1201 19:45:46.327035 242659328 db_lmdb.cpp:35] Opened lmdb examples/imagenet/math_train_lmdb
I1201 19:45:46.328270 2760188864 data_layer.cpp:41] output data size: 64,3,32,72
I1201 19:45:46.331724 2760188864 net.cpp:150] Setting up math
I1201 19:45:46.331756 2760188864 net.cpp:157] Top shape: 64 3 32 72 (442368)
I1201 19:45:46.331769 2760188864 net.cpp:157] Top shape: 64 (64)
I1201 19:45:46.331778 2760188864 net.cpp:165] Memory required for data: 1769728
I1201 19:45:46.331791 2760188864 layer_factory.hpp:77] Creating layer conv1
I1201 19:45:46.331815 2760188864 net.cpp:100] Creating Layer conv1
I1201 19:45:46.331822 2760188864 net.cpp:434] conv1 <- data
I1201 19:45:46.331861 2760188864 net.cpp:408] conv1 -> conv1
I1201 19:45:46.332106 2760188864 net.cpp:150] Setting up conv1
I1201 19:45:46.332120 2760188864 net.cpp:157] Top shape: 64 20 28 68 (2437120)
I1201 19:45:46.332129 2760188864 net.cpp:165] Memory required for data: 11518208
I1201 19:45:46.332140 2760188864 layer_factory.hpp:77] Creating layer pool1
I1201 19:45:46.332157 2760188864 net.cpp:100] Creating Layer pool1
I1201 19:45:46.332165 2760188864 net.cpp:434] pool1 <- conv1
I1201 19:45:46.332171 2760188864 net.cpp:408] pool1 -> pool1
I1201 19:45:46.332187 2760188864 net.cpp:150] Setting up pool1
I1201 19:45:46.332192 2760188864 net.cpp:157] Top shape: 64 20 14 34 (609280)
I1201 19:45:46.332200 2760188864 net.cpp:165] Memory required for data: 13955328
I1201 19:45:46.332206 2760188864 layer_factory.hpp:77] Creating layer bn1
I1201 19:45:46.332213 2760188864 net.cpp:100] Creating Layer bn1
I1201 19:45:46.332219 2760188864 net.cpp:434] bn1 <- pool1
I1201 19:45:46.332226 2760188864 net.cpp:408] bn1 -> bn1
I1201 19:45:46.332259 2760188864 net.cpp:150] Setting up bn1
I1201 19:45:46.332267 2760188864 net.cpp:157] Top shape: 64 20 14 34 (609280)
I1201 19:45:46.332275 2760188864 net.cpp:165] Memory required for data: 16392448
I1201 19:45:46.332289 2760188864 layer_factory.hpp:77] Creating layer Sigmoid1
I1201 19:45:46.332307 2760188864 net.cpp:100] Creating Layer Sigmoid1
I1201 19:45:46.332314 2760188864 net.cpp:434] Sigmoid1 <- bn1
I1201 19:45:46.332322 2760188864 net.cpp:408] Sigmoid1 -> Sigmoid1
I1201 19:45:46.332334 2760188864 net.cpp:150] Setting up Sigmoid1
I1201 19:45:46.332341 2760188864 net.cpp:157] Top shape: 64 20 14 34 (609280)
I1201 19:45:46.332348 2760188864 net.cpp:165] Memory required for data: 18829568
I1201 19:45:46.332355 2760188864 layer_factory.hpp:77] Creating layer conv2
I1201 19:45:46.332368 2760188864 net.cpp:100] Creating Layer conv2
I1201 19:45:46.332376 2760188864 net.cpp:434] conv2 <- Sigmoid1
I1201 19:45:46.332384 2760188864 net.cpp:408] conv2 -> conv2
I1201 19:45:46.332883 2760188864 net.cpp:150] Setting up conv2
I1201 19:45:46.332898 2760188864 net.cpp:157] Top shape: 64 50 10 30 (960000)
I1201 19:45:46.332907 2760188864 net.cpp:165] Memory required for data: 22669568
I1201 19:45:46.332918 2760188864 layer_factory.hpp:77] Creating layer bn2
I1201 19:45:46.332933 2760188864 net.cpp:100] Creating Layer bn2
I1201 19:45:46.332942 2760188864 net.cpp:434] bn2 <- conv2
I1201 19:45:46.332952 2760188864 net.cpp:408] bn2 -> bn2
I1201 19:45:46.332979 2760188864 net.cpp:150] Setting up bn2
I1201 19:45:46.332986 2760188864 net.cpp:157] Top shape: 64 50 10 30 (960000)
I1201 19:45:46.332994 2760188864 net.cpp:165] Memory required for data: 26509568
I1201 19:45:46.333009 2760188864 layer_factory.hpp:77] Creating layer Sigmoid2
I1201 19:45:46.333044 2760188864 net.cpp:100] Creating Layer Sigmoid2
I1201 19:45:46.333053 2760188864 net.cpp:434] Sigmoid2 <- bn2
I1201 19:45:46.333063 2760188864 net.cpp:408] Sigmoid2 -> Sigmoid2
I1201 19:45:46.333077 2760188864 net.cpp:150] Setting up Sigmoid2
I1201 19:45:46.333084 2760188864 net.cpp:157] Top shape: 64 50 10 30 (960000)
I1201 19:45:46.333093 2760188864 net.cpp:165] Memory required for data: 30349568
I1201 19:45:46.333101 2760188864 layer_factory.hpp:77] Creating layer pool2
I1201 19:45:46.333111 2760188864 net.cpp:100] Creating Layer pool2
I1201 19:45:46.333117 2760188864 net.cpp:434] pool2 <- Sigmoid2
I1201 19:45:46.333125 2760188864 net.cpp:408] pool2 -> pool2
I1201 19:45:46.333138 2760188864 net.cpp:150] Setting up pool2
I1201 19:45:46.333144 2760188864 net.cpp:157] Top shape: 64 50 5 15 (240000)
I1201 19:45:46.333156 2760188864 net.cpp:165] Memory required for data: 31309568
I1201 19:45:46.333163 2760188864 layer_factory.hpp:77] Creating layer ip1
I1201 19:45:46.333171 2760188864 net.cpp:100] Creating Layer ip1
I1201 19:45:46.333178 2760188864 net.cpp:434] ip1 <- pool2
I1201 19:45:46.333191 2760188864 net.cpp:408] ip1 -> ip1
I1201 19:45:46.335396 2760188864 net.cpp:150] Setting up ip1
I1201 19:45:46.335460 2760188864 net.cpp:157] Top shape: 64 19 (1216)
I1201 19:45:46.335645 2760188864 net.cpp:165] Memory required for data: 31314432
I1201 19:45:46.335670 2760188864 layer_factory.hpp:77] Creating layer loss
I1201 19:45:46.335716 2760188864 net.cpp:100] Creating Layer loss
I1201 19:45:46.335727 2760188864 net.cpp:434] loss <- ip1
I1201 19:45:46.335738 2760188864 net.cpp:434] loss <- label
I1201 19:45:46.335757 2760188864 net.cpp:408] loss -> loss
…
I1201 19:45:46.336597 2760188864 solver.cpp:181] Creating test net (#0) specified by net file: examples/mnist/lenet_train_math_test_batchnorm.prototxt
I1201 19:45:46.336639 2760188864 net.cpp:322] The NetState phase (1) differed from the phase (0) specified by a rule in layer math
I1201 19:45:46.336661 2760188864 net.cpp:58] Initializing net from parameters: 
name: "LeNet"
state {
  phase: TEST
}
layer {
  name: "math"
  type: "Data"
  top: "data"
  top: "label"
  include {
    phase: TEST
  }
  transform_param {
    mean_file: "examples/imagenet/math_mean.binaryproto"
  }
  data_param {
    source: "examples/imagenet/math_val_lmdb"
    batch_size: 100
    backend: LMDB
  }
}
layer {
  name: "conv1"
  type: "Convolution"
  bottom: "data"
  top: "conv1"
  param {
    lr_mult: 1
  }
  convolution_param {
    num_output: 20
    kernel_size: 5
    stride: 1
    weight_filler {
      type: "gaussian"
      std: 0.0001
    }
  }
}
layer {
  name: "pool1"
  type: "Pooling"
  bottom: "conv1"
  top: "pool1"
  pooling_param {
    pool: MAX
    kernel_size: 2
    stride: 2
  }
}
layer {
  name: "bn1"
  type: "BatchNorm"
  bottom: "pool1"
  top: "bn1"
}
layer {
  name: "Sigmoid1"
  type: "Sigmoid"
  bottom: "bn1"
  top: "Sigmoid1"
}
layer {
  name: "conv2"
  type: "Convolution"
  bottom: "Sigmoid1"
  top: "conv2"
  param {
    lr_mult: 1
  }
  convolution_param {
    num_output: 50
    kernel_size: 5
    stride: 1
    weight_filler {
      type: "gaussian"
      std: 0.01
    }
  }
}
layer {
  name: "bn2"
  type: "BatchNorm"
  bottom: "conv2"
  top: "bn2"
}
layer {
  name: "Sigmoid2"
  type: "Sigmoid"
  bottom: "bn2"
  top: "Sigmoid2"
}
layer {
  name: "pool2"
  type: "Pooling"
  bottom: "Sigmoid2"
  top: "pool2"
  pooling_param {
    pool: AVE
    kernel_size: 2
    stride: 2
  }
}
layer {
  name: "ip1"
  type: "InnerProduct"
  bottom: "pool2"
  top: "ip1"
  param {
    lr_mult: 1
    decay_mult: 1
  }
  param {
    lr_mult: 1
    decay_mult: 0
  }
  inner_product_param {
    num_output: 19
    weight_filler {
      type: "gaussian"
      std: 0.01
    }
    bias_filler {
      type: "constant"
    }
  }
}
layer {
  name: "accuracy"
  type: "Accuracy"
  bottom: "ip1"
  bottom: "label"
  top: "accuracy"
  include {
    phase: TEST
  }
}
layer {
  name: "loss"
  type: "SoftmaxWithLoss"
  bottom: "ip1"
  bottom: "label"
  top: "loss"
}
I1201 19:45:46.336931 2760188864 layer_factory.hpp:77] Creating layer math
I1201 19:45:46.337152 2760188864 net.cpp:100] Creating Layer math
I1201 19:45:46.337169 2760188864 net.cpp:408] math -> data
I1201 19:45:46.337199 2760188864 net.cpp:408] math -> label
I1201 19:45:46.337213 2760188864 data_transformer.cpp:25] Loading mean file from: examples/imagenet/math_mean.binaryproto
I1201 19:45:46.337517 243732480 db_lmdb.cpp:35] Opened lmdb examples/imagenet/math_val_lmdb
I1201 19:45:46.337658 2760188864 data_layer.cpp:41] output data size: 100,3,32,72
I1201 19:45:46.343286 2760188864 net.cpp:150] Setting up math
I1201 19:45:46.343317 2760188864 net.cpp:157] Top shape: 100 3 32 72 (691200)
I1201 19:45:46.343330 2760188864 net.cpp:157] Top shape: 100 (100)
I1201 19:45:46.343338 2760188864 net.cpp:165] Memory required for data: 2765200
I1201 19:45:46.343346 2760188864 layer_factory.hpp:77] Creating layer label_math_1_split
I1201 19:45:46.343364 2760188864 net.cpp:100] Creating Layer label_math_1_split
I1201 19:45:46.343374 2760188864 net.cpp:434] label_math_1_split <- label
I1201 19:45:46.343381 2760188864 net.cpp:408] label_math_1_split -> label_math_1_split_0
I1201 19:45:46.343396 2760188864 net.cpp:408] label_math_1_split -> label_math_1_split_1
I1201 19:45:46.343410 2760188864 net.cpp:150] Setting up label_math_1_split
I1201 19:45:46.343415 2760188864 net.cpp:157] Top shape: 100 (100)
I1201 19:45:46.343422 2760188864 net.cpp:157] Top shape: 100 (100)
I1201 19:45:46.343428 2760188864 net.cpp:165] Memory required for data: 2766000
I1201 19:45:46.343436 2760188864 layer_factory.hpp:77] Creating layer conv1
I1201 19:45:46.343448 2760188864 net.cpp:100] Creating Layer conv1
I1201 19:45:46.343456 2760188864 net.cpp:434] conv1 <- data
I1201 19:45:46.343467 2760188864 net.cpp:408] conv1 -> conv1
I1201 19:45:46.343536 2760188864 net.cpp:150] Setting up conv1
I1201 19:45:46.343545 2760188864 net.cpp:157] Top shape: 100 20 28 68 (3808000)
I1201 19:45:46.343554 2760188864 net.cpp:165] Memory required for data: 17998000
I1201 19:45:46.343566 2760188864 layer_factory.hpp:77] Creating layer pool1
I1201 19:45:46.343580 2760188864 net.cpp:100] Creating Layer pool1
I1201 19:45:46.343586 2760188864 net.cpp:434] pool1 <- conv1
I1201 19:45:46.343596 2760188864 net.cpp:408] pool1 -> pool1
I1201 19:45:46.343611 2760188864 net.cpp:150] Setting up pool1
I1201 19:45:46.343617 2760188864 net.cpp:157] Top shape: 100 20 14 34 (952000)
I1201 19:45:46.343626 2760188864 net.cpp:165] Memory required for data: 21806000
I1201 19:45:46.343633 2760188864 layer_factory.hpp:77] Creating layer bn1
I1201 19:45:46.343643 2760188864 net.cpp:100] Creating Layer bn1
I1201 19:45:46.343649 2760188864 net.cpp:434] bn1 <- pool1
I1201 19:45:46.343658 2760188864 net.cpp:408] bn1 -> bn1
I1201 19:45:46.343684 2760188864 net.cpp:150] Setting up bn1
I1201 19:45:46.343691 2760188864 net.cpp:157] Top shape: 100 20 14 34 (952000)
I1201 19:45:46.343699 2760188864 net.cpp:165] Memory required for data: 25614000
I1201 19:45:46.343713 2760188864 layer_factory.hpp:77] Creating layer Sigmoid1
I1201 19:45:46.343721 2760188864 net.cpp:100] Creating Layer Sigmoid1
I1201 19:45:46.343727 2760188864 net.cpp:434] Sigmoid1 <- bn1
I1201 19:45:46.343739 2760188864 net.cpp:408] Sigmoid1 -> Sigmoid1
I1201 19:45:46.343750 2760188864 net.cpp:150] Setting up Sigmoid1
I1201 19:45:46.343755 2760188864 net.cpp:157] Top shape: 100 20 14 34 (952000)
I1201 19:45:46.343762 2760188864 net.cpp:165] Memory required for data: 29422000
I1201 19:45:46.343770 2760188864 layer_factory.hpp:77] Creating layer conv2
I1201 19:45:46.343783 2760188864 net.cpp:100] Creating Layer conv2
I1201 19:45:46.343789 2760188864 net.cpp:434] conv2 <- Sigmoid1
I1201 19:45:46.343798 2760188864 net.cpp:408] conv2 -> conv2
I1201 19:45:46.344295 2760188864 net.cpp:150] Setting up conv2
I1201 19:45:46.344308 2760188864 net.cpp:157] Top shape: 100 50 10 30 (1500000)
I1201 19:45:46.344317 2760188864 net.cpp:165] Memory required for data: 35422000
I1201 19:45:46.344327 2760188864 layer_factory.hpp:77] Creating layer bn2
I1201 19:45:46.344337 2760188864 net.cpp:100] Creating Layer bn2
I1201 19:45:46.344344 2760188864 net.cpp:434] bn2 <- conv2
I1201 19:45:46.344352 2760188864 net.cpp:408] bn2 -> bn2
I1201 19:45:46.344377 2760188864 net.cpp:150] Setting up bn2
I1201 19:45:46.344383 2760188864 net.cpp:157] Top shape: 100 50 10 30 (1500000)
I1201 19:45:46.344391 2760188864 net.cpp:165] Memory required for data: 41422000
I1201 19:45:46.344404 2760188864 layer_factory.hpp:77] Creating layer Sigmoid2
I1201 19:45:46.344419 2760188864 net.cpp:100] Creating Layer Sigmoid2
I1201 19:45:46.344426 2760188864 net.cpp:434] Sigmoid2 <- bn2
I1201 19:45:46.344435 2760188864 net.cpp:408] Sigmoid2 -> Sigmoid2
I1201 19:45:46.344446 2760188864 net.cpp:150] Setting up Sigmoid2
I1201 19:45:46.344454 2760188864 net.cpp:157] Top shape: 100 50 10 30 (1500000)
I1201 19:45:46.344461 2760188864 net.cpp:165] Memory required for data: 47422000
I1201 19:45:46.344467 2760188864 layer_factory.hpp:77] Creating layer pool2
I1201 19:45:46.344476 2760188864 net.cpp:100] Creating Layer pool2
I1201 19:45:46.344483 2760188864 net.cpp:434] pool2 <- Sigmoid2
I1201 19:45:46.344492 2760188864 net.cpp:408] pool2 -> pool2
I1201 19:45:46.344504 2760188864 net.cpp:150] Setting up pool2
I1201 19:45:46.344511 2760188864 net.cpp:157] Top shape: 100 50 5 15 (375000)
I1201 19:45:46.344519 2760188864 net.cpp:165] Memory required for data: 48922000
I1201 19:45:46.344527 2760188864 layer_factory.hpp:77] Creating layer ip1
I1201 19:45:46.344573 2760188864 net.cpp:100] Creating Layer ip1
I1201 19:45:46.344585 2760188864 net.cpp:434] ip1 <- pool2
I1201 19:45:46.344596 2760188864 net.cpp:408] ip1 -> ip1
I1201 19:45:46.345868 2760188864 net.cpp:150] Setting up ip1
I1201 19:45:46.345888 2760188864 net.cpp:157] Top shape: 100 19 (1900)
I1201 19:45:46.345898 2760188864 net.cpp:165] Memory required for data: 48929600
I1201 19:45:46.345908 2760188864 layer_factory.hpp:77] Creating layer ip1_ip1_0_split
I1201 19:45:46.345921 2760188864 net.cpp:100] Creating Layer ip1_ip1_0_split
I1201 19:45:46.345929 2760188864 net.cpp:434] ip1_ip1_0_split <- ip1
I1201 19:45:46.345938 2760188864 net.cpp:408] ip1_ip1_0_split -> ip1_ip1_0_split_0
I1201 19:45:46.345953 2760188864 net.cpp:408] ip1_ip1_0_split -> ip1_ip1_0_split_1
I1201 19:45:46.345968 2760188864 net.cpp:150] Setting up ip1_ip1_0_split
I1201 19:45:46.345974 2760188864 net.cpp:157] Top shape: 100 19 (1900)
I1201 19:45:46.345983 2760188864 net.cpp:157] Top shape: 100 19 (1900)
I1201 19:45:46.345990 2760188864 net.cpp:165] Memory required for data: 48944800
I1201 19:45:46.345999 2760188864 layer_factory.hpp:77] Creating layer accuracy
I1201 19:45:46.346009 2760188864 net.cpp:100] Creating Layer accuracy
I1201 19:45:46.346015 2760188864 net.cpp:434] accuracy <- ip1_ip1_0_split_0
I1201 19:45:46.346024 2760188864 net.cpp:434] accuracy <- label_math_1_split_0
I1201 19:45:46.346040 2760188864 net.cpp:408] accuracy -> accuracy
…
