…
I1202 02:00:43.572383 2760188864 upgrade_proto.cpp:80] Successfully upgraded batch norm layers using deprecated params.
I1202 02:00:43.572449 2760188864 net.cpp:322] The NetState phase (1) differed from the phase (0) specified by a rule in layer math
I1202 02:00:43.572474 2760188864 net.cpp:58] Initializing net from parameters: 
name: "LeNet"
state {
  phase: TEST
  level: 0
  stage: ""
}
layer {
  name: "data"
  type: "Data"
  top: "data"
  top: "label"
  transform_param {
    mean_file: "examples/imagenet/math_mean.binaryproto"
  }
  data_param {
    source: "examples/imagenet/math_test_lmdb"
    batch_size: 100
    backend: LMDB
  }
}
layer {
  name: "conv1"
  type: "Convolution"
  bottom: "data"
  top: "conv1"
  param {
    lr_mult: 1
  }
  convolution_param {
    num_output: 20
    kernel_size: 5
    stride: 1
    weight_filler {
      type: "gaussian"
      std: 0.0001
    }
    bias_filler {
      type: "constant"
    }
  }
}
layer {
  name: "pool1"
  type: "Pooling"
  bottom: "conv1"
  top: "pool1"
  pooling_param {
    pool: MAX
    kernel_size: 2
    stride: 2
  }
}
layer {
  name: "bn1"
  type: "BatchNorm"
  bottom: "pool1"
  top: "bn1"
  batch_norm_param {
    use_global_stats: true
  }
}
layer {
  name: "tanh1"
  type: "TanH"
  bottom: "bn1"
  top: "tanh1"
}
layer {
  name: "conv2"
  type: "Convolution"
  bottom: "tanh1"
  top: "conv2"
  param {
    lr_mult: 1
  }
  convolution_param {
    num_output: 50
    kernel_size: 5
    stride: 1
    weight_filler {
      type: "gaussian"
      std: 0.01
    }
    bias_filler {
      type: "constant"
    }
  }
}
layer {
  name: "bn2"
  type: "BatchNorm"
  bottom: "conv2"
  top: "bn2"
  batch_norm_param {
    use_global_stats: true
  }
}
layer {
  name: "tanh2"
  type: "TanH"
  bottom: "bn2"
  top: "tanh2"
}
layer {
  name: "pool2"
  type: "Pooling"
  bottom: "tanh2"
  top: "pool2"
  pooling_param {
    pool: MAX
    kernel_size: 2
    stride: 2
  }
}
layer {
  name: "ip1"
  type: "InnerProduct"
  bottom: "pool2"
  top: "ip1"
  param {
    lr_mult: 1
  }
  param {
    lr_mult: 2
  }
  inner_product_param {
    num_output: 500
    weight_filler {
      type: "gaussian"
      std: 0.01
    }
    bias_filler {
      type: "constant"
    }
  }
}
layer {
  name: "ip2"
  type: "InnerProduct"
  bottom: "ip1"
  top: "ip2"
  param {
    lr_mult: 1
  }
  param {
    lr_mult: 2
  }
  inner_product_param {
    num_output: 19
    weight_filler {
      type: "gaussian"
      std: 0.01
    }
    bias_filler {
      type: "constant"
    }
  }
}
layer {
  name: "accuracy"
  type: "Accuracy"
  bottom: "ip2"
  bottom: "label"
  top: "accuracy"
}
layer {
  name: "loss"
  type: "SoftmaxWithLoss"
  bottom: "ip2"
  bottom: "label"
  top: "loss"
}
I1202 02:00:43.572774 2760188864 layer_factory.hpp:77] Creating layer data
I1202 02:00:43.577585 2760188864 net.cpp:100] Creating Layer data
I1202 02:00:43.577612 2760188864 net.cpp:408] data -> data
I1202 02:00:43.577639 2760188864 net.cpp:408] data -> label
I1202 02:00:43.577666 2760188864 data_transformer.cpp:25] Loading mean file from: examples/imagenet/math_mean.binaryproto
I1202 02:00:43.577800 42987520 db_lmdb.cpp:35] Opened lmdb examples/imagenet/math_test_lmdb
I1202 02:00:43.577919 2760188864 data_layer.cpp:41] output data size: 100,3,32,72
I1202 02:00:43.584025 2760188864 net.cpp:150] Setting up data
I1202 02:00:43.584059 2760188864 net.cpp:157] Top shape: 100 3 32 72 (691200)
I1202 02:00:43.584070 2760188864 net.cpp:157] Top shape: 100 (100)
I1202 02:00:43.584076 2760188864 net.cpp:165] Memory required for data: 2765200
I1202 02:00:43.584089 2760188864 layer_factory.hpp:77] Creating layer label_data_1_split
I1202 02:00:43.584106 2760188864 net.cpp:100] Creating Layer label_data_1_split
I1202 02:00:43.584115 2760188864 net.cpp:434] label_data_1_split <- label
I1202 02:00:43.584122 2760188864 net.cpp:408] label_data_1_split -> label_data_1_split_0
I1202 02:00:43.584134 2760188864 net.cpp:408] label_data_1_split -> label_data_1_split_1
I1202 02:00:43.584192 2760188864 net.cpp:150] Setting up label_data_1_split
I1202 02:00:43.584197 2760188864 net.cpp:157] Top shape: 100 (100)
I1202 02:00:43.584203 2760188864 net.cpp:157] Top shape: 100 (100)
I1202 02:00:43.584209 2760188864 net.cpp:165] Memory required for data: 2766000
I1202 02:00:43.584252 2760188864 layer_factory.hpp:77] Creating layer conv1
I1202 02:00:43.584273 2760188864 net.cpp:100] Creating Layer conv1
I1202 02:00:43.584305 2760188864 net.cpp:434] conv1 <- data
I1202 02:00:43.584319 2760188864 net.cpp:408] conv1 -> conv1
I1202 02:00:43.584455 2760188864 net.cpp:150] Setting up conv1
I1202 02:00:43.584466 2760188864 net.cpp:157] Top shape: 100 20 28 68 (3808000)
I1202 02:00:43.584476 2760188864 net.cpp:165] Memory required for data: 17998000
I1202 02:00:43.584488 2760188864 layer_factory.hpp:77] Creating layer pool1
I1202 02:00:43.584499 2760188864 net.cpp:100] Creating Layer pool1
I1202 02:00:43.584507 2760188864 net.cpp:434] pool1 <- conv1
I1202 02:00:43.584519 2760188864 net.cpp:408] pool1 -> pool1
I1202 02:00:43.584535 2760188864 net.cpp:150] Setting up pool1
I1202 02:00:43.584542 2760188864 net.cpp:157] Top shape: 100 20 14 34 (952000)
I1202 02:00:43.584549 2760188864 net.cpp:165] Memory required for data: 21806000
I1202 02:00:43.584555 2760188864 layer_factory.hpp:77] Creating layer bn1
I1202 02:00:43.584568 2760188864 net.cpp:100] Creating Layer bn1
I1202 02:00:43.584573 2760188864 net.cpp:434] bn1 <- pool1
I1202 02:00:43.584580 2760188864 net.cpp:408] bn1 -> bn1
I1202 02:00:43.584627 2760188864 net.cpp:150] Setting up bn1
I1202 02:00:43.584637 2760188864 net.cpp:157] Top shape: 100 20 14 34 (952000)
I1202 02:00:43.584646 2760188864 net.cpp:165] Memory required for data: 25614000
I1202 02:00:43.584662 2760188864 layer_factory.hpp:77] Creating layer tanh1
I1202 02:00:43.584672 2760188864 net.cpp:100] Creating Layer tanh1
I1202 02:00:43.584679 2760188864 net.cpp:434] tanh1 <- bn1
I1202 02:00:43.584688 2760188864 net.cpp:408] tanh1 -> tanh1
I1202 02:00:43.584709 2760188864 net.cpp:150] Setting up tanh1
I1202 02:00:43.584717 2760188864 net.cpp:157] Top shape: 100 20 14 34 (952000)
I1202 02:00:43.584724 2760188864 net.cpp:165] Memory required for data: 29422000
I1202 02:00:43.584730 2760188864 layer_factory.hpp:77] Creating layer conv2
I1202 02:00:43.584743 2760188864 net.cpp:100] Creating Layer conv2
I1202 02:00:43.584750 2760188864 net.cpp:434] conv2 <- tanh1
I1202 02:00:43.584807 2760188864 net.cpp:408] conv2 -> conv2
I1202 02:00:43.585396 2760188864 net.cpp:150] Setting up conv2
I1202 02:00:43.585408 2760188864 net.cpp:157] Top shape: 100 50 10 30 (1500000)
I1202 02:00:43.585418 2760188864 net.cpp:165] Memory required for data: 35422000
I1202 02:00:43.585427 2760188864 layer_factory.hpp:77] Creating layer bn2
I1202 02:00:43.585438 2760188864 net.cpp:100] Creating Layer bn2
I1202 02:00:43.585444 2760188864 net.cpp:434] bn2 <- conv2
I1202 02:00:43.585453 2760188864 net.cpp:408] bn2 -> bn2
I1202 02:00:43.585479 2760188864 net.cpp:150] Setting up bn2
I1202 02:00:43.585486 2760188864 net.cpp:157] Top shape: 100 50 10 30 (1500000)
I1202 02:00:43.585494 2760188864 net.cpp:165] Memory required for data: 41422000
I1202 02:00:43.585508 2760188864 layer_factory.hpp:77] Creating layer tanh2
I1202 02:00:43.585517 2760188864 net.cpp:100] Creating Layer tanh2
I1202 02:00:43.585525 2760188864 net.cpp:434] tanh2 <- bn2
I1202 02:00:43.585530 2760188864 net.cpp:408] tanh2 -> tanh2
I1202 02:00:43.585541 2760188864 net.cpp:150] Setting up tanh2
I1202 02:00:43.585546 2760188864 net.cpp:157] Top shape: 100 50 10 30 (1500000)
I1202 02:00:43.585553 2760188864 net.cpp:165] Memory required for data: 47422000
I1202 02:00:43.585559 2760188864 layer_factory.hpp:77] Creating layer pool2
I1202 02:00:43.585613 2760188864 net.cpp:100] Creating Layer pool2
I1202 02:00:43.585620 2760188864 net.cpp:434] pool2 <- tanh2
I1202 02:00:43.585628 2760188864 net.cpp:408] pool2 -> pool2
I1202 02:00:43.585639 2760188864 net.cpp:150] Setting up pool2
I1202 02:00:43.585645 2760188864 net.cpp:157] Top shape: 100 50 5 15 (375000)
I1202 02:00:43.585676 2760188864 net.cpp:165] Memory required for data: 48922000
I1202 02:00:43.585683 2760188864 layer_factory.hpp:77] Creating layer ip1
I1202 02:00:43.585692 2760188864 net.cpp:100] Creating Layer ip1
I1202 02:00:43.585698 2760188864 net.cpp:434] ip1 <- pool2
I1202 02:00:43.585705 2760188864 net.cpp:408] ip1 -> ip1
I1202 02:00:43.610157 2760188864 net.cpp:150] Setting up ip1
I1202 02:00:43.610185 2760188864 net.cpp:157] Top shape: 100 500 (50000)
I1202 02:00:43.610191 2760188864 net.cpp:165] Memory required for data: 49122000
I1202 02:00:43.610199 2760188864 layer_factory.hpp:77] Creating layer ip2
I1202 02:00:43.610211 2760188864 net.cpp:100] Creating Layer ip2
I1202 02:00:43.610215 2760188864 net.cpp:434] ip2 <- ip1
I1202 02:00:43.610222 2760188864 net.cpp:408] ip2 -> ip2
I1202 02:00:43.610360 2760188864 net.cpp:150] Setting up ip2
I1202 02:00:43.610365 2760188864 net.cpp:157] Top shape: 100 19 (1900)
I1202 02:00:43.610373 2760188864 net.cpp:165] Memory required for data: 49129600
I1202 02:00:43.610378 2760188864 layer_factory.hpp:77] Creating layer ip2_ip2_0_split
I1202 02:00:43.610388 2760188864 net.cpp:100] Creating Layer ip2_ip2_0_split
I1202 02:00:43.610394 2760188864 net.cpp:434] ip2_ip2_0_split <- ip2
I1202 02:00:43.610401 2760188864 net.cpp:408] ip2_ip2_0_split -> ip2_ip2_0_split_0
I1202 02:00:43.610412 2760188864 net.cpp:408] ip2_ip2_0_split -> ip2_ip2_0_split_1
I1202 02:00:43.610424 2760188864 net.cpp:150] Setting up ip2_ip2_0_split
I1202 02:00:43.610430 2760188864 net.cpp:157] Top shape: 100 19 (1900)
I1202 02:00:43.610437 2760188864 net.cpp:157] Top shape: 100 19 (1900)
I1202 02:00:43.610445 2760188864 net.cpp:165] Memory required for data: 49144800
I1202 02:00:43.610452 2760188864 layer_factory.hpp:77] Creating layer accuracy
I1202 02:00:43.610460 2760188864 net.cpp:100] Creating Layer accuracy
I1202 02:00:43.610467 2760188864 net.cpp:434] accuracy <- ip2_ip2_0_split_0
I1202 02:00:43.610476 2760188864 net.cpp:434] accuracy <- label_data_1_split_0
I1202 02:00:43.610483 2760188864 net.cpp:408] accuracy -> accuracy
…
