…
I1202 01:58:42.754905 2760188864 upgrade_proto.cpp:77] Attempting to upgrade batch norm layers using deprecated params: examples/mnist/lenet_test.prototxt
I1202 01:58:42.754945 2760188864 upgrade_proto.cpp:80] Successfully upgraded batch norm layers using deprecated params.
I1202 01:58:42.755040 2760188864 net.cpp:58] Initializing net from parameters: 
name: "LeNet"
state {
  phase: TEST
  level: 0
  stage: ""
}
layer {
  name: "data"
  type: "Data"
  top: "data"
  top: "label"
  transform_param {
    mean_file: "examples/imagenet/math_mean.binaryproto"
  }
  data_param {
    source: "examples/imagenet/math_test_lmdb"
    batch_size: 100
    backend: LMDB
  }
}
layer {
  name: "conv1"
  type: "Convolution"
  bottom: "data"
  top: "conv1"
  param {
    lr_mult: 1
  }
  convolution_param {
    num_output: 20
    kernel_size: 5
    stride: 1
    weight_filler {
      type: "gaussian"
      std: 0.0001
    }
    bias_filler {
      type: "constant"
    }
  }
}
layer {
  name: "pool1"
  type: "Pooling"
  bottom: "conv1"
  top: "pool1"
  pooling_param {
    pool: MAX
    kernel_size: 2
    stride: 2
  }
}
layer {
  name: "bn1"
  type: "BatchNorm"
  bottom: "pool1"
  top: "bn1"
  batch_norm_param {
    use_global_stats: true
  }
}
layer {
  name: "tanh1"
  type: "TanH"
  bottom: "bn1"
  top: "tanh1"
}
layer {
  name: "conv2"
  type: "Convolution"
  bottom: "tanh1"
  top: "conv2"
  param {
    lr_mult: 1
  }
  convolution_param {
    num_output: 50
    kernel_size: 5
    stride: 1
    weight_filler {
      type: "gaussian"
      std: 0.01
    }
    bias_filler {
      type: "constant"
    }
  }
}
layer {
  name: "bn2"
  type: "BatchNorm"
  bottom: "conv2"
  top: "bn2"
  batch_norm_param {
    use_global_stats: true
  }
}
layer {
  name: "tanh2"
  type: "TanH"
  bottom: "bn2"
  top: "tanh2"
}
layer {
  name: "pool2"
  type: "Pooling"
  bottom: "tanh2"
  top: "pool2"
  pooling_param {
    pool: MAX
    kernel_size: 2
    stride: 2
  }
}
layer {
  name: "ip1"
  type: "InnerProduct"
  bottom: "pool2"
  top: "ip1"
  param {
    lr_mult: 1
  }
  param {
    lr_mult: 2
  }
  inner_product_param {
    num_output: 500
    weight_filler {
      type: "gaussian"
      std: 0.01
    }
    bias_filler {
      type: "constant"
    }
  }
}
layer {
  name: "ip2"
  type: "InnerProduct"
  bottom: "ip1"
  top: "ip2"
  param {
    lr_mult: 1
  }
  param {
    lr_mult: 2
  }
  inner_product_param {
    num_output: 19
    weight_filler {
      type: "gaussian"
      std: 0.01
    }
    bias_filler {
      type: "constant"
    }
  }
}
layer {
  name: "accuracy"
  type: "Accuracy"
  bottom: "ip2"
  bottom: "label"
  top: "accuracy"
}
layer {
  name: "loss"
  type: "SoftmaxWithLoss"
  bottom: "ip2"
  bottom: "label"
  top: "loss"
}
I1202 01:58:42.755352 2760188864 layer_factory.hpp:77] Creating layer data
I1202 01:58:42.762272 2760188864 net.cpp:100] Creating Layer data
I1202 01:58:42.762298 2760188864 net.cpp:408] data -> data
I1202 01:58:42.762327 2760188864 net.cpp:408] data -> label
I1202 01:58:42.762348 2760188864 data_transformer.cpp:25] Loading mean file from: examples/imagenet/math_mean.binaryproto
I1202 01:58:42.763037 167333888 db_lmdb.cpp:35] Opened lmdb examples/imagenet/math_test_lmdb
I1202 01:58:42.765537 2760188864 data_layer.cpp:41] output data size: 100,3,32,72
I1202 01:58:42.771278 2760188864 net.cpp:150] Setting up data
I1202 01:58:42.771308 2760188864 net.cpp:157] Top shape: 100 3 32 72 (691200)
I1202 01:58:42.771323 2760188864 net.cpp:157] Top shape: 100 (100)
I1202 01:58:42.771337 2760188864 net.cpp:165] Memory required for data: 2765200
I1202 01:58:42.771354 2760188864 layer_factory.hpp:77] Creating layer label_data_1_split
I1202 01:58:42.771384 2760188864 net.cpp:100] Creating Layer label_data_1_split
I1202 01:58:42.771396 2760188864 net.cpp:434] label_data_1_split <- label
I1202 01:58:42.771405 2760188864 net.cpp:408] label_data_1_split -> label_data_1_split_0
I1202 01:58:42.771422 2760188864 net.cpp:408] label_data_1_split -> label_data_1_split_1
I1202 01:58:42.771438 2760188864 net.cpp:150] Setting up label_data_1_split
I1202 01:58:42.771445 2760188864 net.cpp:157] Top shape: 100 (100)
I1202 01:58:42.771478 2760188864 net.cpp:157] Top shape: 100 (100)
I1202 01:58:42.771486 2760188864 net.cpp:165] Memory required for data: 2766000
I1202 01:58:42.771492 2760188864 layer_factory.hpp:77] Creating layer conv1
I1202 01:58:42.771507 2760188864 net.cpp:100] Creating Layer conv1
I1202 01:58:42.771513 2760188864 net.cpp:434] conv1 <- data
I1202 01:58:42.771522 2760188864 net.cpp:408] conv1 -> conv1
I1202 01:58:42.771656 2760188864 net.cpp:150] Setting up conv1
I1202 01:58:42.771663 2760188864 net.cpp:157] Top shape: 100 20 28 68 (3808000)
I1202 01:58:42.771672 2760188864 net.cpp:165] Memory required for data: 17998000
I1202 01:58:42.771682 2760188864 layer_factory.hpp:77] Creating layer pool1
I1202 01:58:42.771690 2760188864 net.cpp:100] Creating Layer pool1
I1202 01:58:42.771695 2760188864 net.cpp:434] pool1 <- conv1
I1202 01:58:42.771703 2760188864 net.cpp:408] pool1 -> pool1
I1202 01:58:42.771721 2760188864 net.cpp:150] Setting up pool1
I1202 01:58:42.771728 2760188864 net.cpp:157] Top shape: 100 20 14 34 (952000)
I1202 01:58:42.771790 2760188864 net.cpp:165] Memory required for data: 21806000
I1202 01:58:42.771802 2760188864 layer_factory.hpp:77] Creating layer bn1
I1202 01:58:42.771814 2760188864 net.cpp:100] Creating Layer bn1
I1202 01:58:42.771821 2760188864 net.cpp:434] bn1 <- pool1
I1202 01:58:42.771829 2760188864 net.cpp:408] bn1 -> bn1
I1202 01:58:42.771857 2760188864 net.cpp:150] Setting up bn1
I1202 01:58:42.771862 2760188864 net.cpp:157] Top shape: 100 20 14 34 (952000)
I1202 01:58:42.771888 2760188864 net.cpp:165] Memory required for data: 25614000
I1202 01:58:42.771910 2760188864 layer_factory.hpp:77] Creating layer tanh1
I1202 01:58:42.771920 2760188864 net.cpp:100] Creating Layer tanh1
I1202 01:58:42.771926 2760188864 net.cpp:434] tanh1 <- bn1
I1202 01:58:42.771934 2760188864 net.cpp:408] tanh1 -> tanh1
I1202 01:58:42.771945 2760188864 net.cpp:150] Setting up tanh1
I1202 01:58:42.771951 2760188864 net.cpp:157] Top shape: 100 20 14 34 (952000)
I1202 01:58:42.771960 2760188864 net.cpp:165] Memory required for data: 29422000
I1202 01:58:42.771965 2760188864 layer_factory.hpp:77] Creating layer conv2
I1202 01:58:42.771976 2760188864 net.cpp:100] Creating Layer conv2
I1202 01:58:42.771982 2760188864 net.cpp:434] conv2 <- tanh1
I1202 01:58:42.771994 2760188864 net.cpp:408] conv2 -> conv2
I1202 01:58:42.772560 2760188864 net.cpp:150] Setting up conv2
I1202 01:58:42.772575 2760188864 net.cpp:157] Top shape: 100 50 10 30 (1500000)
I1202 01:58:42.772585 2760188864 net.cpp:165] Memory required for data: 35422000
I1202 01:58:42.772718 2760188864 layer_factory.hpp:77] Creating layer bn2
I1202 01:58:42.772734 2760188864 net.cpp:100] Creating Layer bn2
I1202 01:58:42.772742 2760188864 net.cpp:434] bn2 <- conv2
I1202 01:58:42.772750 2760188864 net.cpp:408] bn2 -> bn2
I1202 01:58:42.772822 2760188864 net.cpp:150] Setting up bn2
I1202 01:58:42.772830 2760188864 net.cpp:157] Top shape: 100 50 10 30 (1500000)
I1202 01:58:42.772836 2760188864 net.cpp:165] Memory required for data: 41422000
I1202 01:58:42.772850 2760188864 layer_factory.hpp:77] Creating layer tanh2
I1202 01:58:42.772860 2760188864 net.cpp:100] Creating Layer tanh2
I1202 01:58:42.772864 2760188864 net.cpp:434] tanh2 <- bn2
I1202 01:58:42.772872 2760188864 net.cpp:408] tanh2 -> tanh2
I1202 01:58:42.772881 2760188864 net.cpp:150] Setting up tanh2
I1202 01:58:42.772887 2760188864 net.cpp:157] Top shape: 100 50 10 30 (1500000)
I1202 01:58:42.772893 2760188864 net.cpp:165] Memory required for data: 47422000
I1202 01:58:42.772899 2760188864 layer_factory.hpp:77] Creating layer pool2
I1202 01:58:42.772907 2760188864 net.cpp:100] Creating Layer pool2
I1202 01:58:42.772913 2760188864 net.cpp:434] pool2 <- tanh2
I1202 01:58:42.772920 2760188864 net.cpp:408] pool2 -> pool2
I1202 01:58:42.772931 2760188864 net.cpp:150] Setting up pool2
I1202 01:58:42.772936 2760188864 net.cpp:157] Top shape: 100 50 5 15 (375000)
I1202 01:58:42.772943 2760188864 net.cpp:165] Memory required for data: 48922000
I1202 01:58:42.772949 2760188864 layer_factory.hpp:77] Creating layer ip1
I1202 01:58:42.772985 2760188864 net.cpp:100] Creating Layer ip1
I1202 01:58:42.772991 2760188864 net.cpp:434] ip1 <- pool2
I1202 01:58:42.773000 2760188864 net.cpp:408] ip1 -> ip1
I1202 01:58:42.804464 2760188864 net.cpp:150] Setting up ip1
I1202 01:58:42.804496 2760188864 net.cpp:157] Top shape: 100 500 (50000)
I1202 01:58:42.804503 2760188864 net.cpp:165] Memory required for data: 49122000
I1202 01:58:42.804515 2760188864 layer_factory.hpp:77] Creating layer ip2
I1202 01:58:42.804530 2760188864 net.cpp:100] Creating Layer ip2
I1202 01:58:42.804536 2760188864 net.cpp:434] ip2 <- ip1
I1202 01:58:42.804546 2760188864 net.cpp:408] ip2 -> ip2
I1202 01:58:42.804749 2760188864 net.cpp:150] Setting up ip2
I1202 01:58:42.804759 2760188864 net.cpp:157] Top shape: 100 19 (1900)
I1202 01:58:42.804766 2760188864 net.cpp:165] Memory required for data: 49129600
I1202 01:58:42.804775 2760188864 layer_factory.hpp:77] Creating layer ip2_ip2_0_split
I1202 01:58:42.804785 2760188864 net.cpp:100] Creating Layer ip2_ip2_0_split
I1202 01:58:42.804790 2760188864 net.cpp:434] ip2_ip2_0_split <- ip2
I1202 01:58:42.804798 2760188864 net.cpp:408] ip2_ip2_0_split -> ip2_ip2_0_split_0
I1202 01:58:42.804810 2760188864 net.cpp:408] ip2_ip2_0_split -> ip2_ip2_0_split_1
I1202 01:58:42.804822 2760188864 net.cpp:150] Setting up ip2_ip2_0_split
I1202 01:58:42.804829 2760188864 net.cpp:157] Top shape: 100 19 (1900)
I1202 01:58:42.804837 2760188864 net.cpp:157] Top shape: 100 19 (1900)
I1202 01:58:42.804844 2760188864 net.cpp:165] Memory required for data: 49144800
I1202 01:58:42.804850 2760188864 layer_factory.hpp:77] Creating layer accuracy
I1202 01:58:42.804859 2760188864 net.cpp:100] Creating Layer accuracy
I1202 01:58:42.804867 2760188864 net.cpp:434] accuracy <- ip2_ip2_0_split_0
I1202 01:58:42.804873 2760188864 net.cpp:434] accuracy <- label_data_1_split_0
I1202 01:58:42.804883 2760188864 net.cpp:408] accuracy -> accuracy
…
