…
I1202 01:09:54.217123 2760188864 net.cpp:322] The NetState phase (0) differed from the phase (1) specified by a rule in layer accuracy
I1202 01:09:54.217133 2760188864 net.cpp:58] Initializing net from parameters: 
name: "LeNet"
state {
  phase: TRAIN
  level: 0
  stage: ""
}
layer {
  name: "math"
  type: "Data"
  top: "data"
  top: "label"
  include {
    phase: TRAIN
  }
  transform_param {
    mean_file: "examples/imagenet/math_mean.binaryproto"
  }
  data_param {
    source: "examples/imagenet/math_train_lmdb"
    batch_size: 64
    backend: LMDB
  }
}
layer {
  name: "conv1"
  type: "Convolution"
  bottom: "data"
  top: "conv1"
  param {
    lr_mult: 1
  }
  convolution_param {
    num_output: 20
    kernel_size: 5
    stride: 1
    weight_filler {
      type: "gaussian"
      std: 0.0001
    }
    bias_filler {
      type: "constant"
    }
  }
}
layer {
  name: "pool1"
  type: "Pooling"
  bottom: "conv1"
  top: "pool1"
  pooling_param {
    pool: MAX
    kernel_size: 2
    stride: 2
  }
}
layer {
  name: "bn1"
  type: "BatchNorm"
  bottom: "pool1"
  top: "bn1"
}
layer {
  name: "tanh1"
  type: "TanH"
  bottom: "bn1"
  top: "tanh1"
}
layer {
  name: "conv2"
  type: "Convolution"
  bottom: "tanh1"
  top: "conv2"
  param {
    lr_mult: 1
  }
  convolution_param {
    num_output: 50
    kernel_size: 5
    stride: 1
    weight_filler {
      type: "gaussian"
      std: 0.01
    }
    bias_filler {
      type: "constant"
    }
  }
}
layer {
  name: "bn2"
  type: "BatchNorm"
  bottom: "conv2"
  top: "bn2"
}
layer {
  name: "tanh2"
  type: "TanH"
  bottom: "bn2"
  top: "tanh2"
}
layer {
  name: "pool2"
  type: "Pooling"
  bottom: "tanh2"
  top: "pool2"
  pooling_param {
    pool: MAX
    kernel_size: 2
    stride: 2
  }
}
layer {
  name: "ip1"
  type: "InnerProduct"
  bottom: "pool2"
  top: "ip1"
  param {
    lr_mult: 1
  }
  param {
    lr_mult: 2
  }
  inner_product_param {
    num_output: 500
    weight_filler {
      type: "gaussian"
      std: 0.01
    }
    bias_filler {
      type: "constant"
    }
  }
}
layer {
  name: "ip2"
  type: "InnerProduct"
  bottom: "ip1"
  top: "ip2"
  param {
    lr_mult: 1
  }
  param {
    lr_mult: 2
  }
  inner_product_param {
    num_output: 19
    weight_filler {
      type: "gaussian"
      std: 0.01
    }
    bias_filler {
      type: "constant"
    }
  }
}
layer {
  name: "loss"
  type: "SoftmaxWithLoss"
  bottom: "ip2"
  bottom: "label"
  top: "loss"
}
I1202 01:09:54.217293 2760188864 layer_factory.hpp:77] Creating layer math
I1202 01:09:54.225137 2760188864 net.cpp:100] Creating Layer math
I1202 01:09:54.225170 2760188864 net.cpp:408] math -> data
I1202 01:09:54.225198 2760188864 net.cpp:408] math -> label
I1202 01:09:54.225217 2760188864 data_transformer.cpp:25] Loading mean file from: examples/imagenet/math_mean.binaryproto
I1202 01:09:54.225360 218935296 db_lmdb.cpp:35] Opened lmdb examples/imagenet/math_train_lmdb
I1202 01:09:54.225581 2760188864 data_layer.cpp:41] output data size: 64,3,32,72
I1202 01:09:54.229219 2760188864 net.cpp:150] Setting up math
I1202 01:09:54.229249 2760188864 net.cpp:157] Top shape: 64 3 32 72 (442368)
I1202 01:09:54.229297 2760188864 net.cpp:157] Top shape: 64 (64)
I1202 01:09:54.229305 2760188864 net.cpp:165] Memory required for data: 1769728
I1202 01:09:54.229320 2760188864 layer_factory.hpp:77] Creating layer conv1
I1202 01:09:54.229342 2760188864 net.cpp:100] Creating Layer conv1
I1202 01:09:54.229348 2760188864 net.cpp:434] conv1 <- data
I1202 01:09:54.229358 2760188864 net.cpp:408] conv1 -> conv1
I1202 01:09:54.229526 2760188864 net.cpp:150] Setting up conv1
I1202 01:09:54.229542 2760188864 net.cpp:157] Top shape: 64 20 28 68 (2437120)
I1202 01:09:54.229552 2760188864 net.cpp:165] Memory required for data: 11518208
I1202 01:09:54.229564 2760188864 layer_factory.hpp:77] Creating layer pool1
I1202 01:09:54.229576 2760188864 net.cpp:100] Creating Layer pool1
I1202 01:09:54.229583 2760188864 net.cpp:434] pool1 <- conv1
I1202 01:09:54.229596 2760188864 net.cpp:408] pool1 -> pool1
I1202 01:09:54.229646 2760188864 net.cpp:150] Setting up pool1
I1202 01:09:54.229655 2760188864 net.cpp:157] Top shape: 64 20 14 34 (609280)
I1202 01:09:54.229662 2760188864 net.cpp:165] Memory required for data: 13955328
I1202 01:09:54.229668 2760188864 layer_factory.hpp:77] Creating layer bn1
I1202 01:09:54.229677 2760188864 net.cpp:100] Creating Layer bn1
I1202 01:09:54.229683 2760188864 net.cpp:434] bn1 <- pool1
I1202 01:09:54.229691 2760188864 net.cpp:408] bn1 -> bn1
I1202 01:09:54.229723 2760188864 net.cpp:150] Setting up bn1
I1202 01:09:54.229729 2760188864 net.cpp:157] Top shape: 64 20 14 34 (609280)
I1202 01:09:54.229737 2760188864 net.cpp:165] Memory required for data: 16392448
I1202 01:09:54.229750 2760188864 layer_factory.hpp:77] Creating layer tanh1
I1202 01:09:54.229759 2760188864 net.cpp:100] Creating Layer tanh1
I1202 01:09:54.229765 2760188864 net.cpp:434] tanh1 <- bn1
I1202 01:09:54.229771 2760188864 net.cpp:408] tanh1 -> tanh1
I1202 01:09:54.229804 2760188864 net.cpp:150] Setting up tanh1
I1202 01:09:54.229813 2760188864 net.cpp:157] Top shape: 64 20 14 34 (609280)
I1202 01:09:54.229823 2760188864 net.cpp:165] Memory required for data: 18829568
I1202 01:09:54.229830 2760188864 layer_factory.hpp:77] Creating layer conv2
I1202 01:09:54.229845 2760188864 net.cpp:100] Creating Layer conv2
I1202 01:09:54.229851 2760188864 net.cpp:434] conv2 <- tanh1
I1202 01:09:54.229861 2760188864 net.cpp:408] conv2 -> conv2
I1202 01:09:54.230427 2760188864 net.cpp:150] Setting up conv2
I1202 01:09:54.230443 2760188864 net.cpp:157] Top shape: 64 50 10 30 (960000)
I1202 01:09:54.230454 2760188864 net.cpp:165] Memory required for data: 22669568
I1202 01:09:54.230465 2760188864 layer_factory.hpp:77] Creating layer bn2
I1202 01:09:54.230476 2760188864 net.cpp:100] Creating Layer bn2
I1202 01:09:54.230484 2760188864 net.cpp:434] bn2 <- conv2
I1202 01:09:54.230494 2760188864 net.cpp:408] bn2 -> bn2
I1202 01:09:54.230521 2760188864 net.cpp:150] Setting up bn2
I1202 01:09:54.230530 2760188864 net.cpp:157] Top shape: 64 50 10 30 (960000)
I1202 01:09:54.230537 2760188864 net.cpp:165] Memory required for data: 26509568
I1202 01:09:54.230551 2760188864 layer_factory.hpp:77] Creating layer tanh2
I1202 01:09:54.230561 2760188864 net.cpp:100] Creating Layer tanh2
I1202 01:09:54.230568 2760188864 net.cpp:434] tanh2 <- bn2
I1202 01:09:54.230581 2760188864 net.cpp:408] tanh2 -> tanh2
I1202 01:09:54.230630 2760188864 net.cpp:150] Setting up tanh2
I1202 01:09:54.230639 2760188864 net.cpp:157] Top shape: 64 50 10 30 (960000)
I1202 01:09:54.230648 2760188864 net.cpp:165] Memory required for data: 30349568
I1202 01:09:54.230654 2760188864 layer_factory.hpp:77] Creating layer pool2
I1202 01:09:54.230665 2760188864 net.cpp:100] Creating Layer pool2
I1202 01:09:54.230671 2760188864 net.cpp:434] pool2 <- tanh2
I1202 01:09:54.230680 2760188864 net.cpp:408] pool2 -> pool2
I1202 01:09:54.230693 2760188864 net.cpp:150] Setting up pool2
I1202 01:09:54.230701 2760188864 net.cpp:157] Top shape: 64 50 5 15 (240000)
I1202 01:09:54.230710 2760188864 net.cpp:165] Memory required for data: 31309568
I1202 01:09:54.230715 2760188864 layer_factory.hpp:77] Creating layer ip1
I1202 01:09:54.230801 2760188864 net.cpp:100] Creating Layer ip1
I1202 01:09:54.230810 2760188864 net.cpp:434] ip1 <- pool2
I1202 01:09:54.230819 2760188864 net.cpp:408] ip1 -> ip1
I1202 01:09:54.262029 2760188864 net.cpp:150] Setting up ip1
I1202 01:09:54.262060 2760188864 net.cpp:157] Top shape: 64 500 (32000)
I1202 01:09:54.262073 2760188864 net.cpp:165] Memory required for data: 31437568
I1202 01:09:54.262089 2760188864 layer_factory.hpp:77] Creating layer ip2
I1202 01:09:54.262118 2760188864 net.cpp:100] Creating Layer ip2
I1202 01:09:54.262130 2760188864 net.cpp:434] ip2 <- ip1
I1202 01:09:54.262145 2760188864 net.cpp:408] ip2 -> ip2
I1202 01:09:54.262352 2760188864 net.cpp:150] Setting up ip2
I1202 01:09:54.262367 2760188864 net.cpp:157] Top shape: 64 19 (1216)
I1202 01:09:54.262375 2760188864 net.cpp:165] Memory required for data: 31442432
I1202 01:09:54.262385 2760188864 layer_factory.hpp:77] Creating layer loss
I1202 01:09:54.262404 2760188864 net.cpp:100] Creating Layer loss
I1202 01:09:54.262413 2760188864 net.cpp:434] loss <- ip2
I1202 01:09:54.262420 2760188864 net.cpp:434] loss <- label
I1202 01:09:54.262435 2760188864 net.cpp:408] loss -> loss
…
I1202 01:09:54.263047 2760188864 solver.cpp:181] Creating test net (#0) specified by net file: examples/mnist/lenet_train_math_test_batchnorm.prototxt
I1202 01:09:54.263093 2760188864 net.cpp:322] The NetState phase (1) differed from the phase (0) specified by a rule in layer math
I1202 01:09:54.263113 2760188864 net.cpp:58] Initializing net from parameters: 
name: "LeNet"
state {
  phase: TEST
}
layer {
  name: "math"
  type: "Data"
  top: "data"
  top: "label"
  include {
    phase: TEST
  }
  transform_param {
    mean_file: "examples/imagenet/math_mean.binaryproto"
  }
  data_param {
    source: "examples/imagenet/math_val_lmdb"
    batch_size: 100
    backend: LMDB
  }
}
layer {
  name: "conv1"
  type: "Convolution"
  bottom: "data"
  top: "conv1"
  param {
    lr_mult: 1
  }
  convolution_param {
    num_output: 20
    kernel_size: 5
    stride: 1
    weight_filler {
      type: "gaussian"
      std: 0.0001
    }
    bias_filler {
      type: "constant"
    }
  }
}
layer {
  name: "pool1"
  type: "Pooling"
  bottom: "conv1"
  top: "pool1"
  pooling_param {
    pool: MAX
    kernel_size: 2
    stride: 2
  }
}
layer {
  name: "bn1"
  type: "BatchNorm"
  bottom: "pool1"
  top: "bn1"
}
layer {
  name: "tanh1"
  type: "TanH"
  bottom: "bn1"
  top: "tanh1"
}
layer {
  name: "conv2"
  type: "Convolution"
  bottom: "tanh1"
  top: "conv2"
  param {
    lr_mult: 1
  }
  convolution_param {
    num_output: 50
    kernel_size: 5
    stride: 1
    weight_filler {
      type: "gaussian"
      std: 0.01
    }
    bias_filler {
      type: "constant"
    }
  }
}
layer {
  name: "bn2"
  type: "BatchNorm"
  bottom: "conv2"
  top: "bn2"
}
layer {
  name: "tanh2"
  type: "TanH"
  bottom: "bn2"
  top: "tanh2"
}
layer {
  name: "pool2"
  type: "Pooling"
  bottom: "tanh2"
  top: "pool2"
  pooling_param {
    pool: MAX
    kernel_size: 2
    stride: 2
  }
}
layer {
  name: "ip1"
  type: "InnerProduct"
  bottom: "pool2"
  top: "ip1"
  param {
    lr_mult: 1
  }
  param {
    lr_mult: 2
  }
  inner_product_param {
    num_output: 500
    weight_filler {
      type: "gaussian"
      std: 0.01
    }
    bias_filler {
      type: "constant"
    }
  }
}
layer {
  name: "ip2"
  type: "InnerProduct"
  bottom: "ip1"
  top: "ip2"
  param {
    lr_mult: 1
  }
  param {
    lr_mult: 2
  }
  inner_product_param {
    num_output: 19
    weight_filler {
      type: "gaussian"
      std: 0.01
    }
    bias_filler {
      type: "constant"
    }
  }
}
layer {
  name: "accuracy"
  type: "Accuracy"
  bottom: "ip2"
  bottom: "label"
  top: "accuracy"
  include {
    phase: TEST
  }
}
layer {
  name: "loss"
  type: "SoftmaxWithLoss"
  bottom: "ip2"
  bottom: "label"
  top: "loss"
}
I1202 01:09:54.263401 2760188864 layer_factory.hpp:77] Creating layer math
I1202 01:09:54.263556 2760188864 net.cpp:100] Creating Layer math
I1202 01:09:54.263571 2760188864 net.cpp:408] math -> data
I1202 01:09:54.263587 2760188864 net.cpp:408] math -> label
I1202 01:09:54.263603 2760188864 data_transformer.cpp:25] Loading mean file from: examples/imagenet/math_mean.binaryproto
I1202 01:09:54.264927 220008448 db_lmdb.cpp:35] Opened lmdb examples/imagenet/math_val_lmdb
I1202 01:09:54.264991 2760188864 data_layer.cpp:41] output data size: 100,3,32,72
I1202 01:09:54.272812 2760188864 net.cpp:150] Setting up math
I1202 01:09:54.272845 2760188864 net.cpp:157] Top shape: 100 3 32 72 (691200)
I1202 01:09:54.272856 2760188864 net.cpp:157] Top shape: 100 (100)
I1202 01:09:54.272866 2760188864 net.cpp:165] Memory required for data: 2765200
I1202 01:09:54.272876 2760188864 layer_factory.hpp:77] Creating layer label_math_1_split
I1202 01:09:54.272897 2760188864 net.cpp:100] Creating Layer label_math_1_split
I1202 01:09:54.272904 2760188864 net.cpp:434] label_math_1_split <- label
I1202 01:09:54.272913 2760188864 net.cpp:408] label_math_1_split -> label_math_1_split_0
I1202 01:09:54.272924 2760188864 net.cpp:408] label_math_1_split -> label_math_1_split_1
I1202 01:09:54.272938 2760188864 net.cpp:150] Setting up label_math_1_split
I1202 01:09:54.272943 2760188864 net.cpp:157] Top shape: 100 (100)
I1202 01:09:54.272950 2760188864 net.cpp:157] Top shape: 100 (100)
I1202 01:09:54.272955 2760188864 net.cpp:165] Memory required for data: 2766000
I1202 01:09:54.272961 2760188864 layer_factory.hpp:77] Creating layer conv1
I1202 01:09:54.272975 2760188864 net.cpp:100] Creating Layer conv1
I1202 01:09:54.272980 2760188864 net.cpp:434] conv1 <- data
I1202 01:09:54.272989 2760188864 net.cpp:408] conv1 -> conv1
I1202 01:09:54.273057 2760188864 net.cpp:150] Setting up conv1
I1202 01:09:54.273066 2760188864 net.cpp:157] Top shape: 100 20 28 68 (3808000)
I1202 01:09:54.273075 2760188864 net.cpp:165] Memory required for data: 17998000
I1202 01:09:54.273087 2760188864 layer_factory.hpp:77] Creating layer pool1
I1202 01:09:54.273099 2760188864 net.cpp:100] Creating Layer pool1
I1202 01:09:54.273107 2760188864 net.cpp:434] pool1 <- conv1
I1202 01:09:54.273115 2760188864 net.cpp:408] pool1 -> pool1
I1202 01:09:54.273131 2760188864 net.cpp:150] Setting up pool1
I1202 01:09:54.273138 2760188864 net.cpp:157] Top shape: 100 20 14 34 (952000)
I1202 01:09:54.273147 2760188864 net.cpp:165] Memory required for data: 21806000
I1202 01:09:54.273154 2760188864 layer_factory.hpp:77] Creating layer bn1
I1202 01:09:54.273191 2760188864 net.cpp:100] Creating Layer bn1
I1202 01:09:54.273200 2760188864 net.cpp:434] bn1 <- pool1
I1202 01:09:54.273207 2760188864 net.cpp:408] bn1 -> bn1
I1202 01:09:54.273236 2760188864 net.cpp:150] Setting up bn1
I1202 01:09:54.273243 2760188864 net.cpp:157] Top shape: 100 20 14 34 (952000)
I1202 01:09:54.273250 2760188864 net.cpp:165] Memory required for data: 25614000
I1202 01:09:54.273263 2760188864 layer_factory.hpp:77] Creating layer tanh1
I1202 01:09:54.273272 2760188864 net.cpp:100] Creating Layer tanh1
I1202 01:09:54.273277 2760188864 net.cpp:434] tanh1 <- bn1
I1202 01:09:54.273284 2760188864 net.cpp:408] tanh1 -> tanh1
I1202 01:09:54.273295 2760188864 net.cpp:150] Setting up tanh1
I1202 01:09:54.273301 2760188864 net.cpp:157] Top shape: 100 20 14 34 (952000)
I1202 01:09:54.273310 2760188864 net.cpp:165] Memory required for data: 29422000
I1202 01:09:54.273315 2760188864 layer_factory.hpp:77] Creating layer conv2
I1202 01:09:54.273327 2760188864 net.cpp:100] Creating Layer conv2
I1202 01:09:54.273334 2760188864 net.cpp:434] conv2 <- tanh1
I1202 01:09:54.273344 2760188864 net.cpp:408] conv2 -> conv2
I1202 01:09:54.273864 2760188864 net.cpp:150] Setting up conv2
I1202 01:09:54.273880 2760188864 net.cpp:157] Top shape: 100 50 10 30 (1500000)
I1202 01:09:54.273890 2760188864 net.cpp:165] Memory required for data: 35422000
I1202 01:09:54.273900 2760188864 layer_factory.hpp:77] Creating layer bn2
I1202 01:09:54.273912 2760188864 net.cpp:100] Creating Layer bn2
I1202 01:09:54.273921 2760188864 net.cpp:434] bn2 <- conv2
I1202 01:09:54.273928 2760188864 net.cpp:408] bn2 -> bn2
I1202 01:09:54.273963 2760188864 net.cpp:150] Setting up bn2
I1202 01:09:54.273975 2760188864 net.cpp:157] Top shape: 100 50 10 30 (1500000)
I1202 01:09:54.273985 2760188864 net.cpp:165] Memory required for data: 41422000
I1202 01:09:54.273998 2760188864 layer_factory.hpp:77] Creating layer tanh2
I1202 01:09:54.274008 2760188864 net.cpp:100] Creating Layer tanh2
I1202 01:09:54.274015 2760188864 net.cpp:434] tanh2 <- bn2
I1202 01:09:54.274022 2760188864 net.cpp:408] tanh2 -> tanh2
I1202 01:09:54.274034 2760188864 net.cpp:150] Setting up tanh2
I1202 01:09:54.274039 2760188864 net.cpp:157] Top shape: 100 50 10 30 (1500000)
I1202 01:09:54.274045 2760188864 net.cpp:165] Memory required for data: 47422000
I1202 01:09:54.274051 2760188864 layer_factory.hpp:77] Creating layer pool2
I1202 01:09:54.274060 2760188864 net.cpp:100] Creating Layer pool2
I1202 01:09:54.274065 2760188864 net.cpp:434] pool2 <- tanh2
I1202 01:09:54.274072 2760188864 net.cpp:408] pool2 -> pool2
I1202 01:09:54.274083 2760188864 net.cpp:150] Setting up pool2
I1202 01:09:54.274088 2760188864 net.cpp:157] Top shape: 100 50 5 15 (375000)
I1202 01:09:54.274096 2760188864 net.cpp:165] Memory required for data: 48922000
I1202 01:09:54.274101 2760188864 layer_factory.hpp:77] Creating layer ip1
I1202 01:09:54.274111 2760188864 net.cpp:100] Creating Layer ip1
I1202 01:09:54.274116 2760188864 net.cpp:434] ip1 <- pool2
I1202 01:09:54.274124 2760188864 net.cpp:408] ip1 -> ip1
I1202 01:09:54.301784 2760188864 net.cpp:150] Setting up ip1
I1202 01:09:54.301827 2760188864 net.cpp:157] Top shape: 100 500 (50000)
I1202 01:09:54.301872 2760188864 net.cpp:165] Memory required for data: 49122000
I1202 01:09:54.301892 2760188864 layer_factory.hpp:77] Creating layer ip2
I1202 01:09:54.301908 2760188864 net.cpp:100] Creating Layer ip2
I1202 01:09:54.301918 2760188864 net.cpp:434] ip2 <- ip1
I1202 01:09:54.301940 2760188864 net.cpp:408] ip2 -> ip2
I1202 01:09:54.302203 2760188864 net.cpp:150] Setting up ip2
I1202 01:09:54.302234 2760188864 net.cpp:157] Top shape: 100 19 (1900)
I1202 01:09:54.302255 2760188864 net.cpp:165] Memory required for data: 49129600
I1202 01:09:54.302275 2760188864 layer_factory.hpp:77] Creating layer ip2_ip2_0_split
I1202 01:09:54.302304 2760188864 net.cpp:100] Creating Layer ip2_ip2_0_split
I1202 01:09:54.302369 2760188864 net.cpp:434] ip2_ip2_0_split <- ip2
I1202 01:09:54.302392 2760188864 net.cpp:408] ip2_ip2_0_split -> ip2_ip2_0_split_0
I1202 01:09:54.302515 2760188864 net.cpp:408] ip2_ip2_0_split -> ip2_ip2_0_split_1
I1202 01:09:54.302557 2760188864 net.cpp:150] Setting up ip2_ip2_0_split
I1202 01:09:54.302572 2760188864 net.cpp:157] Top shape: 100 19 (1900)
I1202 01:09:54.302584 2760188864 net.cpp:157] Top shape: 100 19 (1900)
I1202 01:09:54.302592 2760188864 net.cpp:165] Memory required for data: 49144800
I1202 01:09:54.302599 2760188864 layer_factory.hpp:77] Creating layer accuracy
I1202 01:09:54.302614 2760188864 net.cpp:100] Creating Layer accuracy
I1202 01:09:54.302639 2760188864 net.cpp:434] accuracy <- ip2_ip2_0_split_0
I1202 01:09:54.302670 2760188864 net.cpp:434] accuracy <- label_math_1_split_0
I1202 01:09:54.302703 2760188864 net.cpp:408] accuracy -> accuracy
…
