…
I1130 19:45:21.965597 2760188864 net.cpp:322] The NetState phase (0) differed from the phase (1) specified by a rule in layer mnist
I1130 19:45:21.965618 2760188864 net.cpp:322] The NetState phase (0) differed from the phase (1) specified by a rule in layer accuracy
I1130 19:45:21.965627 2760188864 net.cpp:58] Initializing net from parameters: 
name: "LeNet"
state {
  phase: TRAIN
  level: 0
  stage: ""
}
layer {
  name: "mnist"
  type: "Data"
  top: "data"
  top: "label"
  include {
    phase: TRAIN
  }
  transform_param {
    scale: 0.00390625
  }
  data_param {
    source: "examples/imagenet/math_train_lmdb"
    batch_size: 64
    backend: LMDB
  }
}
layer {
  name: "conv1"
  type: "Convolution"
  bottom: "data"
  top: "conv1"
  param {
    lr_mult: 1
  }
  param {
    lr_mult: 2
  }
  convolution_param {
    num_output: 20
    kernel_size: 5
    stride: 1
    weight_filler {
      type: "xavier"
    }
    bias_filler {
      type: "constant"
    }
  }
}
layer {
  name: "pool1"
  type: "Pooling"
  bottom: "conv1"
  top: "pool1"
  pooling_param {
    pool: MAX
    kernel_size: 2
    stride: 2
  }
}
layer {
  name: "conv2"
  type: "Convolution"
  bottom: "pool1"
  top: "conv2"
  param {
    lr_mult: 1
  }
  param {
    lr_mult: 2
  }
  convolution_param {
    num_output: 50
    kernel_size: 5
    stride: 1
    weight_filler {
      type: "xavier"
    }
    bias_filler {
      type: "constant"
    }
  }
}
layer {
  name: "pool2"
  type: "Pooling"
  bottom: "conv2"
  top: "pool2"
  pooling_param {
    pool: MAX
    kernel_size: 2
    stride: 2
  }
}
layer {
  name: "ip1"
  type: "InnerProduct"
  bottom: "pool2"
  top: "ip1"
  param {
    lr_mult: 1
  }
  param {
    lr_mult: 2
  }
  inner_product_param {
    num_output: 500
    weight_filler {
      type: "xavier"
    }
    bias_filler {
      type: "constant"
    }
  }
}
layer {
  name: "relu1"
  type: "ReLU"
  bottom: "ip1"
  top: "ip1"
}
layer {
  name: "ip2"
  type: "InnerProduct"
  bottom: "ip1"
  top: "ip2"
  param {
    lr_mult: 1
  }
  param {
    lr_mult: 2
  }
  inner_product_param {
    num_output: 19
    weight_filler {
      type: "xavier"
    }
    bias_filler {
      type: "constant"
    }
  }
}
layer {
  name: "loss"
  type: "SoftmaxWithLoss"
  bottom: "ip2"
  bottom: "label"
  top: "loss"
}
I1130 19:45:21.965793 2760188864 layer_factory.hpp:77] Creating layer mnist
I1130 19:45:21.972633 2760188864 net.cpp:100] Creating Layer mnist
I1130 19:45:21.972662 2760188864 net.cpp:408] mnist -> data
I1130 19:45:21.972690 2760188864 net.cpp:408] mnist -> label
I1130 19:45:21.972851 164999168 db_lmdb.cpp:35] Opened lmdb examples/imagenet/math_train_lmdb
I1130 19:45:21.972957 2760188864 data_layer.cpp:41] output data size: 64,3,32,72
I1130 19:45:21.976178 2760188864 net.cpp:150] Setting up mnist
I1130 19:45:21.976207 2760188864 net.cpp:157] Top shape: 64 3 32 72 (442368)
I1130 19:45:21.976217 2760188864 net.cpp:157] Top shape: 64 (64)
I1130 19:45:21.976223 2760188864 net.cpp:165] Memory required for data: 1769728
I1130 19:45:21.976236 2760188864 layer_factory.hpp:77] Creating layer conv1
I1130 19:45:21.976258 2760188864 net.cpp:100] Creating Layer conv1
I1130 19:45:21.976266 2760188864 net.cpp:434] conv1 <- data
I1130 19:45:21.976279 2760188864 net.cpp:408] conv1 -> conv1
I1130 19:45:21.976397 2760188864 net.cpp:150] Setting up conv1
I1130 19:45:21.976407 2760188864 net.cpp:157] Top shape: 64 20 28 68 (2437120)
I1130 19:45:21.976414 2760188864 net.cpp:165] Memory required for data: 11518208
I1130 19:45:21.976426 2760188864 layer_factory.hpp:77] Creating layer pool1
I1130 19:45:21.976457 2760188864 net.cpp:100] Creating Layer pool1
I1130 19:45:21.976465 2760188864 net.cpp:434] pool1 <- conv1
I1130 19:45:21.976475 2760188864 net.cpp:408] pool1 -> pool1
I1130 19:45:21.976490 2760188864 net.cpp:150] Setting up pool1
I1130 19:45:21.976496 2760188864 net.cpp:157] Top shape: 64 20 14 34 (609280)
I1130 19:45:21.976505 2760188864 net.cpp:165] Memory required for data: 13955328
I1130 19:45:21.976511 2760188864 layer_factory.hpp:77] Creating layer conv2
I1130 19:45:21.976523 2760188864 net.cpp:100] Creating Layer conv2
I1130 19:45:21.976531 2760188864 net.cpp:434] conv2 <- pool1
I1130 19:45:21.976541 2760188864 net.cpp:408] conv2 -> conv2
I1130 19:45:21.976912 2760188864 net.cpp:150] Setting up conv2
I1130 19:45:21.976922 2760188864 net.cpp:157] Top shape: 64 50 10 30 (960000)
I1130 19:45:21.976929 2760188864 net.cpp:165] Memory required for data: 17795328
I1130 19:45:21.976940 2760188864 layer_factory.hpp:77] Creating layer pool2
I1130 19:45:21.976950 2760188864 net.cpp:100] Creating Layer pool2
I1130 19:45:21.976958 2760188864 net.cpp:434] pool2 <- conv2
I1130 19:45:21.976966 2760188864 net.cpp:408] pool2 -> pool2
I1130 19:45:21.976979 2760188864 net.cpp:150] Setting up pool2
I1130 19:45:21.976986 2760188864 net.cpp:157] Top shape: 64 50 5 15 (240000)
I1130 19:45:21.976994 2760188864 net.cpp:165] Memory required for data: 18755328
I1130 19:45:21.977000 2760188864 layer_factory.hpp:77] Creating layer ip1
I1130 19:45:21.977011 2760188864 net.cpp:100] Creating Layer ip1
I1130 19:45:21.977018 2760188864 net.cpp:434] ip1 <- pool2
I1130 19:45:21.977027 2760188864 net.cpp:408] ip1 -> ip1
I1130 19:45:21.994618 2760188864 net.cpp:150] Setting up ip1
I1130 19:45:21.994647 2760188864 net.cpp:157] Top shape: 64 500 (32000)
I1130 19:45:21.994657 2760188864 net.cpp:165] Memory required for data: 18883328
I1130 19:45:21.994673 2760188864 layer_factory.hpp:77] Creating layer relu1
I1130 19:45:21.994691 2760188864 net.cpp:100] Creating Layer relu1
I1130 19:45:21.994699 2760188864 net.cpp:434] relu1 <- ip1
I1130 19:45:21.994709 2760188864 net.cpp:395] relu1 -> ip1 (in-place)
I1130 19:45:21.994720 2760188864 net.cpp:150] Setting up relu1
I1130 19:45:21.994727 2760188864 net.cpp:157] Top shape: 64 500 (32000)
I1130 19:45:21.994735 2760188864 net.cpp:165] Memory required for data: 19011328
I1130 19:45:21.994741 2760188864 layer_factory.hpp:77] Creating layer ip2
I1130 19:45:21.994752 2760188864 net.cpp:100] Creating Layer ip2
I1130 19:45:21.994758 2760188864 net.cpp:434] ip2 <- ip1
I1130 19:45:21.994767 2760188864 net.cpp:408] ip2 -> ip2
I1130 19:45:21.994920 2760188864 net.cpp:150] Setting up ip2
I1130 19:45:21.994928 2760188864 net.cpp:157] Top shape: 64 19 (1216)
I1130 19:45:21.994935 2760188864 net.cpp:165] Memory required for data: 19016192
I1130 19:45:21.994943 2760188864 layer_factory.hpp:77] Creating layer loss
I1130 19:45:21.994957 2760188864 net.cpp:100] Creating Layer loss
I1130 19:45:21.994964 2760188864 net.cpp:434] loss <- ip2
I1130 19:45:21.994971 2760188864 net.cpp:434] loss <- label
I1130 19:45:21.994982 2760188864 net.cpp:408] loss -> loss
…
I1130 19:45:21.995471 2760188864 solver.cpp:181] Creating test net (#0) specified by net file: examples/mnist/lenet_train_math_test.prototxt
I1130 19:45:21.995510 2760188864 net.cpp:322] The NetState phase (1) differed from the phase (0) specified by a rule in layer mnist
I1130 19:45:21.995532 2760188864 net.cpp:58] Initializing net from parameters: 
name: "LeNet"
state {
  phase: TEST
}
layer {
  name: "mnist"
  type: "Data"
  top: "data"
  top: "label"
  include {
    phase: TEST
  }
  transform_param {
    scale: 0.00390625
  }
  data_param {
    source: "examples/imagenet/math_test_lmdb"
    batch_size: 100
    backend: LMDB
  }
}
layer {
  name: "conv1"
  type: "Convolution"
  bottom: "data"
  top: "conv1"
  param {
    lr_mult: 1
  }
  param {
    lr_mult: 2
  }
  convolution_param {
    num_output: 20
    kernel_size: 5
    stride: 1
    weight_filler {
      type: "xavier"
    }
    bias_filler {
      type: "constant"
    }
  }
}
layer {
  name: "pool1"
  type: "Pooling"
  bottom: "conv1"
  top: "pool1"
  pooling_param {
    pool: MAX
    kernel_size: 2
    stride: 2
  }
}
layer {
  name: "conv2"
  type: "Convolution"
  bottom: "pool1"
  top: "conv2"
  param {
    lr_mult: 1
  }
  param {
    lr_mult: 2
  }
  convolution_param {
    num_output: 50
    kernel_size: 5
    stride: 1
    weight_filler {
      type: "xavier"
    }
    bias_filler {
      type: "constant"
    }
  }
}
layer {
  name: "pool2"
  type: "Pooling"
  bottom: "conv2"
  top: "pool2"
  pooling_param {
    pool: MAX
    kernel_size: 2
    stride: 2
  }
}
layer {
  name: "ip1"
  type: "InnerProduct"
  bottom: "pool2"
  top: "ip1"
  param {
    lr_mult: 1
  }
  param {
    lr_mult: 2
  }
  inner_product_param {
    num_output: 500
    weight_filler {
      type: "xavier"
    }
    bias_filler {
      type: "constant"
    }
  }
}
layer {
  name: "relu1"
  type: "ReLU"
  bottom: "ip1"
  top: "ip1"
}
layer {
  name: "ip2"
  type: "InnerProduct"
  bottom: "ip1"
  top: "ip2"
  param {
    lr_mult: 1
  }
  param {
    lr_mult: 2
  }
  inner_product_param {
    num_output: 19
    weight_filler {
      type: "xavier"
    }
    bias_filler {
      type: "constant"
    }
  }
}
layer {
  name: "accuracy"
  type: "Accuracy"
  bottom: "ip2"
  bottom: "label"
  top: "accuracy"
  include {
    phase: TEST
  }
}
layer {
  name: "loss"
  type: "SoftmaxWithLoss"
  bottom: "ip2"
  bottom: "label"
  top: "loss"
}
I1130 19:45:21.995712 2760188864 layer_factory.hpp:77] Creating layer mnist
I1130 19:45:21.995858 2760188864 net.cpp:100] Creating Layer mnist
I1130 19:45:21.995869 2760188864 net.cpp:408] mnist -> data
I1130 19:45:21.995882 2760188864 net.cpp:408] mnist -> label
I1130 19:45:21.995944 166072320 db_lmdb.cpp:35] Opened lmdb examples/imagenet/math_test_lmdb
I1130 19:45:21.995995 2760188864 data_layer.cpp:41] output data size: 100,3,32,72
I1130 19:45:22.000800 2760188864 net.cpp:150] Setting up mnist
I1130 19:45:22.000828 2760188864 net.cpp:157] Top shape: 100 3 32 72 (691200)
I1130 19:45:22.000838 2760188864 net.cpp:157] Top shape: 100 (100)
I1130 19:45:22.000844 2760188864 net.cpp:165] Memory required for data: 2765200
I1130 19:45:22.000852 2760188864 layer_factory.hpp:77] Creating layer label_mnist_1_split
I1130 19:45:22.000869 2760188864 net.cpp:100] Creating Layer label_mnist_1_split
I1130 19:45:22.000876 2760188864 net.cpp:434] label_mnist_1_split <- label
I1130 19:45:22.000887 2760188864 net.cpp:408] label_mnist_1_split -> label_mnist_1_split_0
I1130 19:45:22.000901 2760188864 net.cpp:408] label_mnist_1_split -> label_mnist_1_split_1
I1130 19:45:22.000913 2760188864 net.cpp:150] Setting up label_mnist_1_split
I1130 19:45:22.000919 2760188864 net.cpp:157] Top shape: 100 (100)
I1130 19:45:22.000926 2760188864 net.cpp:157] Top shape: 100 (100)
I1130 19:45:22.000932 2760188864 net.cpp:165] Memory required for data: 2766000
I1130 19:45:22.000972 2760188864 layer_factory.hpp:77] Creating layer conv1
I1130 19:45:22.000988 2760188864 net.cpp:100] Creating Layer conv1
I1130 19:45:22.000993 2760188864 net.cpp:434] conv1 <- data
I1130 19:45:22.001003 2760188864 net.cpp:408] conv1 -> conv1
I1130 19:45:22.001068 2760188864 net.cpp:150] Setting up conv1
I1130 19:45:22.001075 2760188864 net.cpp:157] Top shape: 100 20 28 68 (3808000)
I1130 19:45:22.001083 2760188864 net.cpp:165] Memory required for data: 17998000
I1130 19:45:22.001094 2760188864 layer_factory.hpp:77] Creating layer pool1
I1130 19:45:22.001103 2760188864 net.cpp:100] Creating Layer pool1
I1130 19:45:22.001109 2760188864 net.cpp:434] pool1 <- conv1
I1130 19:45:22.001116 2760188864 net.cpp:408] pool1 -> pool1
I1130 19:45:22.001129 2760188864 net.cpp:150] Setting up pool1
I1130 19:45:22.001135 2760188864 net.cpp:157] Top shape: 100 20 14 34 (952000)
I1130 19:45:22.001143 2760188864 net.cpp:165] Memory required for data: 21806000
I1130 19:45:22.001149 2760188864 layer_factory.hpp:77] Creating layer conv2
I1130 19:45:22.001166 2760188864 net.cpp:100] Creating Layer conv2
I1130 19:45:22.001173 2760188864 net.cpp:434] conv2 <- pool1
I1130 19:45:22.001181 2760188864 net.cpp:408] conv2 -> conv2
I1130 19:45:22.001569 2760188864 net.cpp:150] Setting up conv2
I1130 19:45:22.001576 2760188864 net.cpp:157] Top shape: 100 50 10 30 (1500000)
I1130 19:45:22.001585 2760188864 net.cpp:165] Memory required for data: 27806000
I1130 19:45:22.001593 2760188864 layer_factory.hpp:77] Creating layer pool2
I1130 19:45:22.001601 2760188864 net.cpp:100] Creating Layer pool2
I1130 19:45:22.001607 2760188864 net.cpp:434] pool2 <- conv2
I1130 19:45:22.001615 2760188864 net.cpp:408] pool2 -> pool2
I1130 19:45:22.001626 2760188864 net.cpp:150] Setting up pool2
I1130 19:45:22.001631 2760188864 net.cpp:157] Top shape: 100 50 5 15 (375000)
I1130 19:45:22.001639 2760188864 net.cpp:165] Memory required for data: 29306000
I1130 19:45:22.001646 2760188864 layer_factory.hpp:77] Creating layer ip1
I1130 19:45:22.001655 2760188864 net.cpp:100] Creating Layer ip1
I1130 19:45:22.001662 2760188864 net.cpp:434] ip1 <- pool2
I1130 19:45:22.001672 2760188864 net.cpp:408] ip1 -> ip1
I1130 19:45:22.022785 2760188864 net.cpp:150] Setting up ip1
I1130 19:45:22.022831 2760188864 net.cpp:157] Top shape: 100 500 (50000)
I1130 19:45:22.022848 2760188864 net.cpp:165] Memory required for data: 29506000
I1130 19:45:22.022869 2760188864 layer_factory.hpp:77] Creating layer relu1
I1130 19:45:22.022886 2760188864 net.cpp:100] Creating Layer relu1
I1130 19:45:22.022898 2760188864 net.cpp:434] relu1 <- ip1
I1130 19:45:22.022922 2760188864 net.cpp:395] relu1 -> ip1 (in-place)
I1130 19:45:22.022938 2760188864 net.cpp:150] Setting up relu1
I1130 19:45:22.022946 2760188864 net.cpp:157] Top shape: 100 500 (50000)
I1130 19:45:22.022953 2760188864 net.cpp:165] Memory required for data: 29706000
I1130 19:45:22.022970 2760188864 layer_factory.hpp:77] Creating layer ip2
I1130 19:45:22.022989 2760188864 net.cpp:100] Creating Layer ip2
I1130 19:45:22.023000 2760188864 net.cpp:434] ip2 <- ip1
I1130 19:45:22.023012 2760188864 net.cpp:408] ip2 -> ip2
I1130 19:45:22.023219 2760188864 net.cpp:150] Setting up ip2
I1130 19:45:22.023227 2760188864 net.cpp:157] Top shape: 100 19 (1900)
I1130 19:45:22.023236 2760188864 net.cpp:165] Memory required for data: 29713600
I1130 19:45:22.023248 2760188864 layer_factory.hpp:77] Creating layer ip2_ip2_0_split
I1130 19:45:22.023259 2760188864 net.cpp:100] Creating Layer ip2_ip2_0_split
I1130 19:45:22.023267 2760188864 net.cpp:434] ip2_ip2_0_split <- ip2
I1130 19:45:22.023290 2760188864 net.cpp:408] ip2_ip2_0_split -> ip2_ip2_0_split_0
I1130 19:45:22.023308 2760188864 net.cpp:408] ip2_ip2_0_split -> ip2_ip2_0_split_1
I1130 19:45:22.023320 2760188864 net.cpp:150] Setting up ip2_ip2_0_split
I1130 19:45:22.023327 2760188864 net.cpp:157] Top shape: 100 19 (1900)
I1130 19:45:22.023335 2760188864 net.cpp:157] Top shape: 100 19 (1900)
I1130 19:45:22.023341 2760188864 net.cpp:165] Memory required for data: 29728800
I1130 19:45:22.023406 2760188864 layer_factory.hpp:77] Creating layer accuracy
I1130 19:45:22.023429 2760188864 net.cpp:100] Creating Layer accuracy
I1130 19:45:22.023442 2760188864 net.cpp:434] accuracy <- ip2_ip2_0_split_0
I1130 19:45:22.023452 2760188864 net.cpp:434] accuracy <- label_mnist_1_split_0
I1130 19:45:22.023463 2760188864 net.cpp:408] accuracy -> accuracy
…
