…
I1201 10:28:11.839130 2760188864 upgrade_proto.cpp:77] Attempting to upgrade batch norm layers using deprecated params: examples/mnist/lenet_test.prototxt
I1201 10:28:11.839159 2760188864 upgrade_proto.cpp:80] Successfully upgraded batch norm layers using deprecated params.
I1201 10:28:11.839233 2760188864 net.cpp:58] Initializing net from parameters: 
name: "LeNet_norm1"
state {
  phase: TEST
  level: 0
  stage: ""
}
layer {
  name: "math"
  type: "Data"
  top: "data"
  top: "label"
  include {
    phase: TEST
  }
  transform_param {
    scale: 0.00390625
  }
  data_param {
    source: "examples/imagenet/math_test_lmdb"
    batch_size: 100
    backend: LMDB
  }
}
layer {
  name: "conv1"
  type: "Convolution"
  bottom: "data"
  top: "conv1"
  param {
    lr_mult: 1
  }
  convolution_param {
    num_output: 20
    kernel_size: 5
    stride: 1
    weight_filler {
      type: "gaussian"
      std: 0.0001
    }
  }
}
layer {
  name: "pool1"
  type: "Pooling"
  bottom: "conv1"
  top: "pool1"
  pooling_param {
    pool: MAX
    kernel_size: 2
    stride: 2
  }
}
layer {
  name: "bn1"
  type: "BatchNorm"
  bottom: "pool1"
  top: "bn1"
}
layer {
  name: "Sigmoid1"
  type: "Sigmoid"
  bottom: "bn1"
  top: "Sigmoid1"
}
layer {
  name: "conv2"
  type: "Convolution"
  bottom: "Sigmoid1"
  top: "conv2"
  param {
    lr_mult: 1
  }
  convolution_param {
    num_output: 50
    kernel_size: 5
    stride: 1
    weight_filler {
      type: "gaussian"
      std: 0.01
    }
  }
}
layer {
  name: "bn2"
  type: "BatchNorm"
  bottom: "conv2"
  top: "bn2"
}
layer {
  name: "Sigmoid2"
  type: "Sigmoid"
  bottom: "bn2"
  top: "Sigmoid2"
}
layer {
  name: "pool2"
  type: "Pooling"
  bottom: "Sigmoid2"
  top: "pool2"
  pooling_param {
    pool: MAX
    kernel_size: 2
    stride: 2
  }
}
layer {
  name: "ip1"
  type: "InnerProduct"
  bottom: "pool2"
  top: "ip1"
  param {
    lr_mult: 1
  }
  param {
    lr_mult: 2
  }
  inner_product_param {
    num_output: 19
    weight_filler {
      type: "gaussian"
      std: 0.01
    }
    bias_filler {
      type: "constant"
    }
  }
}
layer {
  name: "accuracy"
  type: "Accuracy"
  bottom: "ip1"
  bottom: "label"
  top: "accuracy"
  include {
    phase: TEST
  }
}
layer {
  name: "loss"
  type: "SoftmaxWithLoss"
  bottom: "ip1"
  bottom: "label"
  top: "loss"
}
I1201 10:28:11.839524 2760188864 layer_factory.hpp:77] Creating layer math
I1201 10:28:11.846395 2760188864 net.cpp:100] Creating Layer math
I1201 10:28:11.846429 2760188864 net.cpp:408] math -> data
I1201 10:28:11.846462 2760188864 net.cpp:408] math -> label
I1201 10:28:11.846577 18472960 db_lmdb.cpp:35] Opened lmdb examples/imagenet/math_test_lmdb
I1201 10:28:11.846688 2760188864 data_layer.cpp:41] output data size: 100,3,32,72
I1201 10:28:11.852274 2760188864 net.cpp:150] Setting up math
I1201 10:28:11.852303 2760188864 net.cpp:157] Top shape: 100 3 32 72 (691200)
I1201 10:28:11.852316 2760188864 net.cpp:157] Top shape: 100 (100)
I1201 10:28:11.852325 2760188864 net.cpp:165] Memory required for data: 2765200
I1201 10:28:11.852339 2760188864 layer_factory.hpp:77] Creating layer label_math_1_split
I1201 10:28:11.852358 2760188864 net.cpp:100] Creating Layer label_math_1_split
I1201 10:28:11.852367 2760188864 net.cpp:434] label_math_1_split <- label
I1201 10:28:11.852376 2760188864 net.cpp:408] label_math_1_split -> label_math_1_split_0
I1201 10:28:11.852391 2760188864 net.cpp:408] label_math_1_split -> label_math_1_split_1
I1201 10:28:11.852406 2760188864 net.cpp:150] Setting up label_math_1_split
I1201 10:28:11.852413 2760188864 net.cpp:157] Top shape: 100 (100)
I1201 10:28:11.852421 2760188864 net.cpp:157] Top shape: 100 (100)
I1201 10:28:11.852427 2760188864 net.cpp:165] Memory required for data: 2766000
I1201 10:28:11.852433 2760188864 layer_factory.hpp:77] Creating layer conv1
I1201 10:28:11.852452 2760188864 net.cpp:100] Creating Layer conv1
I1201 10:28:11.852459 2760188864 net.cpp:434] conv1 <- data
I1201 10:28:11.852468 2760188864 net.cpp:408] conv1 -> conv1
I1201 10:28:11.852609 2760188864 net.cpp:150] Setting up conv1
I1201 10:28:11.852620 2760188864 net.cpp:157] Top shape: 100 20 28 68 (3808000)
I1201 10:28:11.852665 2760188864 net.cpp:165] Memory required for data: 17998000
I1201 10:28:11.852685 2760188864 layer_factory.hpp:77] Creating layer pool1
I1201 10:28:11.852696 2760188864 net.cpp:100] Creating Layer pool1
I1201 10:28:11.852704 2760188864 net.cpp:434] pool1 <- conv1
I1201 10:28:11.852713 2760188864 net.cpp:408] pool1 -> pool1
I1201 10:28:11.852728 2760188864 net.cpp:150] Setting up pool1
I1201 10:28:11.852735 2760188864 net.cpp:157] Top shape: 100 20 14 34 (952000)
I1201 10:28:11.852743 2760188864 net.cpp:165] Memory required for data: 21806000
I1201 10:28:11.852749 2760188864 layer_factory.hpp:77] Creating layer bn1
I1201 10:28:11.852759 2760188864 net.cpp:100] Creating Layer bn1
I1201 10:28:11.852768 2760188864 net.cpp:434] bn1 <- pool1
I1201 10:28:11.852777 2760188864 net.cpp:408] bn1 -> bn1
I1201 10:28:11.852810 2760188864 net.cpp:150] Setting up bn1
I1201 10:28:11.852818 2760188864 net.cpp:157] Top shape: 100 20 14 34 (952000)
I1201 10:28:11.852826 2760188864 net.cpp:165] Memory required for data: 25614000
I1201 10:28:11.852841 2760188864 layer_factory.hpp:77] Creating layer Sigmoid1
I1201 10:28:11.852855 2760188864 net.cpp:100] Creating Layer Sigmoid1
I1201 10:28:11.852862 2760188864 net.cpp:434] Sigmoid1 <- bn1
I1201 10:28:11.852870 2760188864 net.cpp:408] Sigmoid1 -> Sigmoid1
I1201 10:28:11.852881 2760188864 net.cpp:150] Setting up Sigmoid1
I1201 10:28:11.852887 2760188864 net.cpp:157] Top shape: 100 20 14 34 (952000)
I1201 10:28:11.852895 2760188864 net.cpp:165] Memory required for data: 29422000
I1201 10:28:11.852901 2760188864 layer_factory.hpp:77] Creating layer conv2
I1201 10:28:11.852912 2760188864 net.cpp:100] Creating Layer conv2
I1201 10:28:11.852919 2760188864 net.cpp:434] conv2 <- Sigmoid1
I1201 10:28:11.852928 2760188864 net.cpp:408] conv2 -> conv2
I1201 10:28:11.853420 2760188864 net.cpp:150] Setting up conv2
I1201 10:28:11.853433 2760188864 net.cpp:157] Top shape: 100 50 10 30 (1500000)
I1201 10:28:11.853443 2760188864 net.cpp:165] Memory required for data: 35422000
I1201 10:28:11.853453 2760188864 layer_factory.hpp:77] Creating layer bn2
I1201 10:28:11.853463 2760188864 net.cpp:100] Creating Layer bn2
I1201 10:28:11.853471 2760188864 net.cpp:434] bn2 <- conv2
I1201 10:28:11.853479 2760188864 net.cpp:408] bn2 -> bn2
I1201 10:28:11.853508 2760188864 net.cpp:150] Setting up bn2
I1201 10:28:11.853516 2760188864 net.cpp:157] Top shape: 100 50 10 30 (1500000)
I1201 10:28:11.853525 2760188864 net.cpp:165] Memory required for data: 41422000
I1201 10:28:11.853538 2760188864 layer_factory.hpp:77] Creating layer Sigmoid2
I1201 10:28:11.853550 2760188864 net.cpp:100] Creating Layer Sigmoid2
I1201 10:28:11.853557 2760188864 net.cpp:434] Sigmoid2 <- bn2
I1201 10:28:11.853567 2760188864 net.cpp:408] Sigmoid2 -> Sigmoid2
I1201 10:28:11.853577 2760188864 net.cpp:150] Setting up Sigmoid2
I1201 10:28:11.853585 2760188864 net.cpp:157] Top shape: 100 50 10 30 (1500000)
I1201 10:28:11.853592 2760188864 net.cpp:165] Memory required for data: 47422000
I1201 10:28:11.853598 2760188864 layer_factory.hpp:77] Creating layer pool2
I1201 10:28:11.853607 2760188864 net.cpp:100] Creating Layer pool2
I1201 10:28:11.853615 2760188864 net.cpp:434] pool2 <- Sigmoid2
I1201 10:28:11.853622 2760188864 net.cpp:408] pool2 -> pool2
I1201 10:28:11.853636 2760188864 net.cpp:150] Setting up pool2
I1201 10:28:11.853642 2760188864 net.cpp:157] Top shape: 100 50 5 15 (375000)
I1201 10:28:11.853651 2760188864 net.cpp:165] Memory required for data: 48922000
I1201 10:28:11.853657 2760188864 layer_factory.hpp:77] Creating layer ip1
I1201 10:28:11.853670 2760188864 net.cpp:100] Creating Layer ip1
I1201 10:28:11.853677 2760188864 net.cpp:434] ip1 <- pool2
I1201 10:28:11.853688 2760188864 net.cpp:408] ip1 -> ip1
I1201 10:28:11.855000 2760188864 net.cpp:150] Setting up ip1
I1201 10:28:11.855015 2760188864 net.cpp:157] Top shape: 100 19 (1900)
I1201 10:28:11.855023 2760188864 net.cpp:165] Memory required for data: 48929600
I1201 10:28:11.855033 2760188864 layer_factory.hpp:77] Creating layer ip1_ip1_0_split
I1201 10:28:11.855078 2760188864 net.cpp:100] Creating Layer ip1_ip1_0_split
I1201 10:28:11.855087 2760188864 net.cpp:434] ip1_ip1_0_split <- ip1
I1201 10:28:11.855101 2760188864 net.cpp:408] ip1_ip1_0_split -> ip1_ip1_0_split_0
I1201 10:28:11.855113 2760188864 net.cpp:408] ip1_ip1_0_split -> ip1_ip1_0_split_1
I1201 10:28:11.855126 2760188864 net.cpp:150] Setting up ip1_ip1_0_split
I1201 10:28:11.855132 2760188864 net.cpp:157] Top shape: 100 19 (1900)
I1201 10:28:11.855139 2760188864 net.cpp:157] Top shape: 100 19 (1900)
I1201 10:28:11.855146 2760188864 net.cpp:165] Memory required for data: 48944800
I1201 10:28:11.855152 2760188864 layer_factory.hpp:77] Creating layer accuracy
I1201 10:28:11.855161 2760188864 net.cpp:100] Creating Layer accuracy
I1201 10:28:11.855168 2760188864 net.cpp:434] accuracy <- ip1_ip1_0_split_0
I1201 10:28:11.855175 2760188864 net.cpp:434] accuracy <- label_math_1_split_0
I1201 10:28:11.855185 2760188864 net.cpp:408] accuracy -> accuracy
…
