…
I1201 09:29:39.264590 2760188864 net.cpp:322] The NetState phase (0) differed from the phase (1) specified by a rule in layer math
I1201 09:29:39.264606 2760188864 net.cpp:322] The NetState phase (0) differed from the phase (1) specified by a rule in layer accuracy
I1201 09:29:39.264614 2760188864 net.cpp:58] Initializing net from parameters: 
name: "LeNet_batchnorm"
state {
  phase: TRAIN
  level: 0
  stage: ""
}
layer {
  name: "math"
  type: "Data"
  top: "data"
  top: "label"
  include {
    phase: TRAIN
  }
  transform_param {
    scale: 0.00390625
  }
  data_param {
    source: "examples/imagenet/math_train_lmdb"
    batch_size: 64
    backend: LMDB
  }
}
layer {
  name: "conv1"
  type: "Convolution"
  bottom: "data"
  top: "conv1"
  param {
    lr_mult: 1
  }
  convolution_param {
    num_output: 20
    kernel_size: 5
    stride: 1
    weight_filler {
      type: "gaussian"
      std: 0.0001
    }
  }
}
layer {
  name: "pool1"
  type: "Pooling"
  bottom: "conv1"
  top: "pool1"
  pooling_param {
    pool: MAX
    kernel_size: 2
    stride: 2
  }
}
layer {
  name: "bn1"
  type: "BatchNorm"
  bottom: "pool1"
  top: "bn1"
}
layer {
  name: "Sigmoid1"
  type: "Sigmoid"
  bottom: "bn1"
  top: "Sigmoid1"
}
layer {
  name: "conv2"
  type: "Convolution"
  bottom: "Sigmoid1"
  top: "conv2"
  param {
    lr_mult: 1
  }
  convolution_param {
    num_output: 50
    kernel_size: 5
    stride: 1
    weight_filler {
      type: "gaussian"
      std: 0.01
    }
  }
}
layer {
  name: "bn2"
  type: "BatchNorm"
  bottom: "conv2"
  top: "bn2"
}
layer {
  name: "Sigmoid2"
  type: "Sigmoid"
  bottom: "bn2"
  top: "Sigmoid2"
}
layer {
  name: "pool2"
  type: "Pooling"
  bottom: "Sigmoid2"
  top: "pool2"
  pooling_param {
    pool: MAX
    kernel_size: 2
    stride: 2
  }
}
layer {
  name: "ip1"
  type: "InnerProduct"
  bottom: "pool2"
  top: "ip1"
  param {
    lr_mult: 1
  }
  param {
    lr_mult: 2
  }
  inner_product_param {
    num_output: 19
    weight_filler {
      type: "gaussian"
      std: 0.01
    }
    bias_filler {
      type: "constant"
    }
  }
}
layer {
  name: "loss"
  type: "SoftmaxWithLoss"
  bottom: "ip1"
  bottom: "label"
  top: "loss"
}
I1201 09:29:39.264777 2760188864 layer_factory.hpp:77] Creating layer math
I1201 09:29:39.271615 2760188864 net.cpp:100] Creating Layer math
I1201 09:29:39.271639 2760188864 net.cpp:408] math -> data
I1201 09:29:39.271666 2760188864 net.cpp:408] math -> label
I1201 09:29:39.271826 226701312 db_lmdb.cpp:35] Opened lmdb examples/imagenet/math_train_lmdb
I1201 09:29:39.271955 2760188864 data_layer.cpp:41] output data size: 64,3,32,72
I1201 09:29:39.275732 2760188864 net.cpp:150] Setting up math
I1201 09:29:39.275763 2760188864 net.cpp:157] Top shape: 64 3 32 72 (442368)
I1201 09:29:39.275776 2760188864 net.cpp:157] Top shape: 64 (64)
I1201 09:29:39.275785 2760188864 net.cpp:165] Memory required for data: 1769728
I1201 09:29:39.275799 2760188864 layer_factory.hpp:77] Creating layer conv1
I1201 09:29:39.275818 2760188864 net.cpp:100] Creating Layer conv1
I1201 09:29:39.275825 2760188864 net.cpp:434] conv1 <- data
I1201 09:29:39.275836 2760188864 net.cpp:408] conv1 -> conv1
I1201 09:29:39.275985 2760188864 net.cpp:150] Setting up conv1
I1201 09:29:39.275997 2760188864 net.cpp:157] Top shape: 64 20 28 68 (2437120)
I1201 09:29:39.276039 2760188864 net.cpp:165] Memory required for data: 11518208
I1201 09:29:39.276054 2760188864 layer_factory.hpp:77] Creating layer pool1
I1201 09:29:39.276067 2760188864 net.cpp:100] Creating Layer pool1
I1201 09:29:39.276074 2760188864 net.cpp:434] pool1 <- conv1
I1201 09:29:39.276083 2760188864 net.cpp:408] pool1 -> pool1
I1201 09:29:39.276098 2760188864 net.cpp:150] Setting up pool1
I1201 09:29:39.276105 2760188864 net.cpp:157] Top shape: 64 20 14 34 (609280)
I1201 09:29:39.276113 2760188864 net.cpp:165] Memory required for data: 13955328
I1201 09:29:39.276120 2760188864 layer_factory.hpp:77] Creating layer bn1
I1201 09:29:39.276130 2760188864 net.cpp:100] Creating Layer bn1
I1201 09:29:39.276137 2760188864 net.cpp:434] bn1 <- pool1
I1201 09:29:39.276149 2760188864 net.cpp:408] bn1 -> bn1
I1201 09:29:39.276190 2760188864 net.cpp:150] Setting up bn1
I1201 09:29:39.276197 2760188864 net.cpp:157] Top shape: 64 20 14 34 (609280)
I1201 09:29:39.276206 2760188864 net.cpp:165] Memory required for data: 16392448
I1201 09:29:39.276221 2760188864 layer_factory.hpp:77] Creating layer Sigmoid1
I1201 09:29:39.276233 2760188864 net.cpp:100] Creating Layer Sigmoid1
I1201 09:29:39.276240 2760188864 net.cpp:434] Sigmoid1 <- bn1
I1201 09:29:39.276248 2760188864 net.cpp:408] Sigmoid1 -> Sigmoid1
I1201 09:29:39.276259 2760188864 net.cpp:150] Setting up Sigmoid1
I1201 09:29:39.276265 2760188864 net.cpp:157] Top shape: 64 20 14 34 (609280)
I1201 09:29:39.276274 2760188864 net.cpp:165] Memory required for data: 18829568
I1201 09:29:39.276280 2760188864 layer_factory.hpp:77] Creating layer conv2
I1201 09:29:39.276293 2760188864 net.cpp:100] Creating Layer conv2
I1201 09:29:39.276299 2760188864 net.cpp:434] conv2 <- Sigmoid1
I1201 09:29:39.276312 2760188864 net.cpp:408] conv2 -> conv2
I1201 09:29:39.276799 2760188864 net.cpp:150] Setting up conv2
I1201 09:29:39.276810 2760188864 net.cpp:157] Top shape: 64 50 10 30 (960000)
I1201 09:29:39.276820 2760188864 net.cpp:165] Memory required for data: 22669568
I1201 09:29:39.276830 2760188864 layer_factory.hpp:77] Creating layer bn2
I1201 09:29:39.276844 2760188864 net.cpp:100] Creating Layer bn2
I1201 09:29:39.276851 2760188864 net.cpp:434] bn2 <- conv2
I1201 09:29:39.276860 2760188864 net.cpp:408] bn2 -> bn2
I1201 09:29:39.276886 2760188864 net.cpp:150] Setting up bn2
I1201 09:29:39.276893 2760188864 net.cpp:157] Top shape: 64 50 10 30 (960000)
I1201 09:29:39.276901 2760188864 net.cpp:165] Memory required for data: 26509568
I1201 09:29:39.276916 2760188864 layer_factory.hpp:77] Creating layer Sigmoid2
I1201 09:29:39.276927 2760188864 net.cpp:100] Creating Layer Sigmoid2
I1201 09:29:39.276934 2760188864 net.cpp:434] Sigmoid2 <- bn2
I1201 09:29:39.276942 2760188864 net.cpp:408] Sigmoid2 -> Sigmoid2
I1201 09:29:39.276954 2760188864 net.cpp:150] Setting up Sigmoid2
I1201 09:29:39.276962 2760188864 net.cpp:157] Top shape: 64 50 10 30 (960000)
I1201 09:29:39.276969 2760188864 net.cpp:165] Memory required for data: 30349568
I1201 09:29:39.276976 2760188864 layer_factory.hpp:77] Creating layer pool2
I1201 09:29:39.276985 2760188864 net.cpp:100] Creating Layer pool2
I1201 09:29:39.276993 2760188864 net.cpp:434] pool2 <- Sigmoid2
I1201 09:29:39.277005 2760188864 net.cpp:408] pool2 -> pool2
I1201 09:29:39.277019 2760188864 net.cpp:150] Setting up pool2
I1201 09:29:39.277027 2760188864 net.cpp:157] Top shape: 64 50 5 15 (240000)
I1201 09:29:39.277039 2760188864 net.cpp:165] Memory required for data: 31309568
I1201 09:29:39.277045 2760188864 layer_factory.hpp:77] Creating layer ip1
I1201 09:29:39.277057 2760188864 net.cpp:100] Creating Layer ip1
I1201 09:29:39.277063 2760188864 net.cpp:434] ip1 <- pool2
I1201 09:29:39.277072 2760188864 net.cpp:408] ip1 -> ip1
I1201 09:29:39.278446 2760188864 net.cpp:150] Setting up ip1
I1201 09:29:39.278460 2760188864 net.cpp:157] Top shape: 64 19 (1216)
I1201 09:29:39.278470 2760188864 net.cpp:165] Memory required for data: 31314432
I1201 09:29:39.278479 2760188864 layer_factory.hpp:77] Creating layer loss
I1201 09:29:39.278537 2760188864 net.cpp:100] Creating Layer loss
I1201 09:29:39.278547 2760188864 net.cpp:434] loss <- ip1
I1201 09:29:39.278554 2760188864 net.cpp:434] loss <- label
I1201 09:29:39.278563 2760188864 net.cpp:408] loss -> loss
…
I1201 09:29:39.279175 2760188864 solver.cpp:181] Creating test net (#0) specified by net file: examples/mnist/lenet_train_math_test_batchnorm.prototxt
I1201 09:29:39.279255 2760188864 net.cpp:322] The NetState phase (1) differed from the phase (0) specified by a rule in layer math
I1201 09:29:39.279403 2760188864 net.cpp:58] Initializing net from parameters: 
name: "LeNet_batchnorm"
state {
  phase: TEST
}
layer {
  name: "math"
  type: "Data"
  top: "data"
  top: "label"
  include {
    phase: TEST
  }
  transform_param {
    scale: 0.00390625
  }
  data_param {
    source: "examples/imagenet/math_val_lmdb"
    batch_size: 100
    backend: LMDB
  }
}
layer {
  name: "conv1"
  type: "Convolution"
  bottom: "data"
  top: "conv1"
  param {
    lr_mult: 1
  }
  convolution_param {
    num_output: 20
    kernel_size: 5
    stride: 1
    weight_filler {
      type: "gaussian"
      std: 0.0001
    }
  }
}
layer {
  name: "pool1"
  type: "Pooling"
  bottom: "conv1"
  top: "pool1"
  pooling_param {
    pool: MAX
    kernel_size: 2
    stride: 2
  }
}
layer {
  name: "bn1"
  type: "BatchNorm"
  bottom: "pool1"
  top: "bn1"
}
layer {
  name: "Sigmoid1"
  type: "Sigmoid"
  bottom: "bn1"
  top: "Sigmoid1"
}
layer {
  name: "conv2"
  type: "Convolution"
  bottom: "Sigmoid1"
  top: "conv2"
  param {
    lr_mult: 1
  }
  convolution_param {
    num_output: 50
    kernel_size: 5
    stride: 1
    weight_filler {
      type: "gaussian"
      std: 0.01
    }
  }
}
layer {
  name: "bn2"
  type: "BatchNorm"
  bottom: "conv2"
  top: "bn2"
}
layer {
  name: "Sigmoid2"
  type: "Sigmoid"
  bottom: "bn2"
  top: "Sigmoid2"
}
layer {
  name: "pool2"
  type: "Pooling"
  bottom: "Sigmoid2"
  top: "pool2"
  pooling_param {
    pool: MAX
    kernel_size: 2
    stride: 2
  }
}
layer {
  name: "ip1"
  type: "InnerProduct"
  bottom: "pool2"
  top: "ip1"
  param {
    lr_mult: 1
  }
  param {
    lr_mult: 2
  }
  inner_product_param {
    num_output: 19
    weight_filler {
      type: "gaussian"
      std: 0.01
    }
    bias_filler {
      type: "constant"
    }
  }
}
layer {
  name: "accuracy"
  type: "Accuracy"
  bottom: "ip1"
  bottom: "label"
  top: "accuracy"
  include {
    phase: TEST
  }
}
layer {
  name: "loss"
  type: "SoftmaxWithLoss"
  bottom: "ip1"
  bottom: "label"
  top: "loss"
}
I1201 09:29:39.279611 2760188864 layer_factory.hpp:77] Creating layer math
I1201 09:29:39.279752 2760188864 net.cpp:100] Creating Layer math
I1201 09:29:39.279763 2760188864 net.cpp:408] math -> data
I1201 09:29:39.279777 2760188864 net.cpp:408] math -> label
I1201 09:29:39.279862 227774464 db_lmdb.cpp:35] Opened lmdb examples/imagenet/math_val_lmdb
I1201 09:29:39.279947 2760188864 data_layer.cpp:41] output data size: 100,3,32,72
I1201 09:29:39.285403 2760188864 net.cpp:150] Setting up math
I1201 09:29:39.285428 2760188864 net.cpp:157] Top shape: 100 3 32 72 (691200)
I1201 09:29:39.285439 2760188864 net.cpp:157] Top shape: 100 (100)
I1201 09:29:39.285445 2760188864 net.cpp:165] Memory required for data: 2765200
I1201 09:29:39.285451 2760188864 layer_factory.hpp:77] Creating layer label_math_1_split
I1201 09:29:39.285472 2760188864 net.cpp:100] Creating Layer label_math_1_split
I1201 09:29:39.285480 2760188864 net.cpp:434] label_math_1_split <- label
I1201 09:29:39.285490 2760188864 net.cpp:408] label_math_1_split -> label_math_1_split_0
I1201 09:29:39.285503 2760188864 net.cpp:408] label_math_1_split -> label_math_1_split_1
I1201 09:29:39.285517 2760188864 net.cpp:150] Setting up label_math_1_split
I1201 09:29:39.285524 2760188864 net.cpp:157] Top shape: 100 (100)
I1201 09:29:39.285532 2760188864 net.cpp:157] Top shape: 100 (100)
I1201 09:29:39.285540 2760188864 net.cpp:165] Memory required for data: 2766000
I1201 09:29:39.285548 2760188864 layer_factory.hpp:77] Creating layer conv1
I1201 09:29:39.285565 2760188864 net.cpp:100] Creating Layer conv1
I1201 09:29:39.285573 2760188864 net.cpp:434] conv1 <- data
I1201 09:29:39.285583 2760188864 net.cpp:408] conv1 -> conv1
I1201 09:29:39.285650 2760188864 net.cpp:150] Setting up conv1
I1201 09:29:39.285660 2760188864 net.cpp:157] Top shape: 100 20 28 68 (3808000)
I1201 09:29:39.285668 2760188864 net.cpp:165] Memory required for data: 17998000
I1201 09:29:39.285681 2760188864 layer_factory.hpp:77] Creating layer pool1
I1201 09:29:39.285694 2760188864 net.cpp:100] Creating Layer pool1
I1201 09:29:39.285702 2760188864 net.cpp:434] pool1 <- conv1
I1201 09:29:39.285712 2760188864 net.cpp:408] pool1 -> pool1
I1201 09:29:39.285727 2760188864 net.cpp:150] Setting up pool1
I1201 09:29:39.285734 2760188864 net.cpp:157] Top shape: 100 20 14 34 (952000)
I1201 09:29:39.285743 2760188864 net.cpp:165] Memory required for data: 21806000
I1201 09:29:39.285750 2760188864 layer_factory.hpp:77] Creating layer bn1
I1201 09:29:39.285760 2760188864 net.cpp:100] Creating Layer bn1
I1201 09:29:39.285781 2760188864 net.cpp:434] bn1 <- pool1
I1201 09:29:39.285794 2760188864 net.cpp:408] bn1 -> bn1
I1201 09:29:39.285818 2760188864 net.cpp:150] Setting up bn1
I1201 09:29:39.285826 2760188864 net.cpp:157] Top shape: 100 20 14 34 (952000)
I1201 09:29:39.285835 2760188864 net.cpp:165] Memory required for data: 25614000
I1201 09:29:39.285851 2760188864 layer_factory.hpp:77] Creating layer Sigmoid1
I1201 09:29:39.285861 2760188864 net.cpp:100] Creating Layer Sigmoid1
I1201 09:29:39.285868 2760188864 net.cpp:434] Sigmoid1 <- bn1
I1201 09:29:39.285876 2760188864 net.cpp:408] Sigmoid1 -> Sigmoid1
I1201 09:29:39.285887 2760188864 net.cpp:150] Setting up Sigmoid1
I1201 09:29:39.285894 2760188864 net.cpp:157] Top shape: 100 20 14 34 (952000)
I1201 09:29:39.285902 2760188864 net.cpp:165] Memory required for data: 29422000
I1201 09:29:39.285907 2760188864 layer_factory.hpp:77] Creating layer conv2
I1201 09:29:39.285918 2760188864 net.cpp:100] Creating Layer conv2
I1201 09:29:39.285923 2760188864 net.cpp:434] conv2 <- Sigmoid1
I1201 09:29:39.285928 2760188864 net.cpp:408] conv2 -> conv2
I1201 09:29:39.286253 2760188864 net.cpp:150] Setting up conv2
I1201 09:29:39.286259 2760188864 net.cpp:157] Top shape: 100 50 10 30 (1500000)
I1201 09:29:39.286263 2760188864 net.cpp:165] Memory required for data: 35422000
I1201 09:29:39.286268 2760188864 layer_factory.hpp:77] Creating layer bn2
I1201 09:29:39.286298 2760188864 net.cpp:100] Creating Layer bn2
I1201 09:29:39.286301 2760188864 net.cpp:434] bn2 <- conv2
I1201 09:29:39.286306 2760188864 net.cpp:408] bn2 -> bn2
I1201 09:29:39.286320 2760188864 net.cpp:150] Setting up bn2
I1201 09:29:39.286324 2760188864 net.cpp:157] Top shape: 100 50 10 30 (1500000)
I1201 09:29:39.286329 2760188864 net.cpp:165] Memory required for data: 41422000
I1201 09:29:39.286336 2760188864 layer_factory.hpp:77] Creating layer Sigmoid2
I1201 09:29:39.286342 2760188864 net.cpp:100] Creating Layer Sigmoid2
I1201 09:29:39.286346 2760188864 net.cpp:434] Sigmoid2 <- bn2
I1201 09:29:39.286351 2760188864 net.cpp:408] Sigmoid2 -> Sigmoid2
I1201 09:29:39.286356 2760188864 net.cpp:150] Setting up Sigmoid2
I1201 09:29:39.286360 2760188864 net.cpp:157] Top shape: 100 50 10 30 (1500000)
I1201 09:29:39.286365 2760188864 net.cpp:165] Memory required for data: 47422000
I1201 09:29:39.286368 2760188864 layer_factory.hpp:77] Creating layer pool2
I1201 09:29:39.286375 2760188864 net.cpp:100] Creating Layer pool2
I1201 09:29:39.286378 2760188864 net.cpp:434] pool2 <- Sigmoid2
I1201 09:29:39.286384 2760188864 net.cpp:408] pool2 -> pool2
I1201 09:29:39.286391 2760188864 net.cpp:150] Setting up pool2
I1201 09:29:39.286396 2760188864 net.cpp:157] Top shape: 100 50 5 15 (375000)
I1201 09:29:39.286399 2760188864 net.cpp:165] Memory required for data: 48922000
I1201 09:29:39.286402 2760188864 layer_factory.hpp:77] Creating layer ip1
I1201 09:29:39.286409 2760188864 net.cpp:100] Creating Layer ip1
I1201 09:29:39.286413 2760188864 net.cpp:434] ip1 <- pool2
I1201 09:29:39.286418 2760188864 net.cpp:408] ip1 -> ip1
I1201 09:29:39.288609 2760188864 net.cpp:150] Setting up ip1
I1201 09:29:39.288637 2760188864 net.cpp:157] Top shape: 100 19 (1900)
I1201 09:29:39.288647 2760188864 net.cpp:165] Memory required for data: 48929600
I1201 09:29:39.288658 2760188864 layer_factory.hpp:77] Creating layer ip1_ip1_0_split
I1201 09:29:39.288671 2760188864 net.cpp:100] Creating Layer ip1_ip1_0_split
I1201 09:29:39.288679 2760188864 net.cpp:434] ip1_ip1_0_split <- ip1
I1201 09:29:39.288694 2760188864 net.cpp:408] ip1_ip1_0_split -> ip1_ip1_0_split_0
I1201 09:29:39.288707 2760188864 net.cpp:408] ip1_ip1_0_split -> ip1_ip1_0_split_1
I1201 09:29:39.288722 2760188864 net.cpp:150] Setting up ip1_ip1_0_split
I1201 09:29:39.288727 2760188864 net.cpp:157] Top shape: 100 19 (1900)
I1201 09:29:39.288736 2760188864 net.cpp:157] Top shape: 100 19 (1900)
I1201 09:29:39.288744 2760188864 net.cpp:165] Memory required for data: 48944800
I1201 09:29:39.288751 2760188864 layer_factory.hpp:77] Creating layer accuracy
I1201 09:29:39.288761 2760188864 net.cpp:100] Creating Layer accuracy
I1201 09:29:39.288769 2760188864 net.cpp:434] accuracy <- ip1_ip1_0_split_0
I1201 09:29:39.288776 2760188864 net.cpp:434] accuracy <- label_math_1_split_0
I1201 09:29:39.288785 2760188864 net.cpp:408] accuracy -> accuracy
…
