caffe(10698,0x7fffa48523c0) malloc: *** malloc_zone_unregister() failed for 0x7fffa4848000
I1202 09:21:57.209472 2760188864 caffe.cpp:279] Use CPU.
I1202 09:21:57.214184 2760188864 net.cpp:58] Initializing net from parameters: 
name: "LeNet"
state {
  phase: TEST
  level: 0
  stage: ""
}
layer {
  name: "data"
  type: "Data"
  top: "data"
  top: "label"
  transform_param {
    mean_file: "examples/imagenet/math_mean.binaryproto"
  }
  data_param {
    source: "examples/imagenet/math_test_lmdb"
    batch_size: 100
    backend: LMDB
  }
}
layer {
  name: "conv1"
  type: "Convolution"
  bottom: "data"
  top: "conv1"
  param {
    lr_mult: 1
  }
  param {
    lr_mult: 2
  }
  convolution_param {
    num_output: 20
    kernel_size: 5
    stride: 1
    weight_filler {
      type: "xavier"
    }
    bias_filler {
      type: "constant"
    }
  }
}
layer {
  name: "pool1"
  type: "Pooling"
  bottom: "conv1"
  top: "pool1"
  pooling_param {
    pool: MAX
    kernel_size: 2
    stride: 2
  }
}
layer {
  name: "conv2"
  type: "Convolution"
  bottom: "pool1"
  top: "conv2"
  param {
    lr_mult: 1
  }
  param {
    lr_mult: 2
  }
  convolution_param {
    num_output: 50
    kernel_size: 5
    stride: 1
    weight_filler {
      type: "xavier"
    }
    bias_filler {
      type: "constant"
    }
  }
}
layer {
  name: "pool2"
  type: "Pooling"
  bottom: "conv2"
  top: "pool2"
  pooling_param {
    pool: MAX
    kernel_size: 2
    stride: 2
  }
}
layer {
  name: "ip1"
  type: "InnerProduct"
  bottom: "pool2"
  top: "ip1"
  param {
    lr_mult: 1
  }
  param {
    lr_mult: 2
  }
  inner_product_param {
    num_output: 500
    weight_filler {
      type: "xavier"
    }
    bias_filler {
      type: "constant"
    }
  }
}
layer {
  name: "relu1"
  type: "ReLU"
  bottom: "ip1"
  top: "ip1"
}
layer {
  name: "ip2"
  type: "InnerProduct"
  bottom: "ip1"
  top: "ip2"
  param {
    lr_mult: 1
  }
  param {
    lr_mult: 2
  }
  inner_product_param {
    num_output: 19
    weight_filler {
      type: "xavier"
    }
    bias_filler {
      type: "constant"
    }
  }
}
layer {
  name: "accuracy"
  type: "Accuracy"
  bottom: "ip2"
  bottom: "label"
  top: "accuracy"
}
layer {
  name: "loss"
  type: "SoftmaxWithLoss"
  bottom: "ip2"
  bottom: "label"
  top: "loss"
}
I1202 09:21:57.214547 2760188864 layer_factory.hpp:77] Creating layer data
I1202 09:21:57.221632 2760188864 net.cpp:100] Creating Layer data
I1202 09:21:57.221660 2760188864 net.cpp:408] data -> data
I1202 09:21:57.221683 2760188864 net.cpp:408] data -> label
I1202 09:21:57.221698 2760188864 data_transformer.cpp:25] Loading mean file from: examples/imagenet/math_mean.binaryproto
I1202 09:21:57.223176 230670336 db_lmdb.cpp:35] Opened lmdb examples/imagenet/math_test_lmdb
I1202 09:21:57.224391 2760188864 data_layer.cpp:41] output data size: 100,3,32,72
I1202 09:21:57.229910 2760188864 net.cpp:150] Setting up data
I1202 09:21:57.229943 2760188864 net.cpp:157] Top shape: 100 3 32 72 (691200)
I1202 09:21:57.229955 2760188864 net.cpp:157] Top shape: 100 (100)
I1202 09:21:57.229964 2760188864 net.cpp:165] Memory required for data: 2765200
I1202 09:21:57.229979 2760188864 layer_factory.hpp:77] Creating layer label_data_1_split
I1202 09:21:57.229997 2760188864 net.cpp:100] Creating Layer label_data_1_split
I1202 09:21:57.230005 2760188864 net.cpp:434] label_data_1_split <- label
I1202 09:21:57.230012 2760188864 net.cpp:408] label_data_1_split -> label_data_1_split_0
I1202 09:21:57.230026 2760188864 net.cpp:408] label_data_1_split -> label_data_1_split_1
I1202 09:21:57.230039 2760188864 net.cpp:150] Setting up label_data_1_split
I1202 09:21:57.230046 2760188864 net.cpp:157] Top shape: 100 (100)
I1202 09:21:57.230052 2760188864 net.cpp:157] Top shape: 100 (100)
I1202 09:21:57.230058 2760188864 net.cpp:165] Memory required for data: 2766000
I1202 09:21:57.230065 2760188864 layer_factory.hpp:77] Creating layer conv1
I1202 09:21:57.230083 2760188864 net.cpp:100] Creating Layer conv1
I1202 09:21:57.230090 2760188864 net.cpp:434] conv1 <- data
I1202 09:21:57.230099 2760188864 net.cpp:408] conv1 -> conv1
I1202 09:21:57.230216 2760188864 net.cpp:150] Setting up conv1
I1202 09:21:57.230222 2760188864 net.cpp:157] Top shape: 100 20 28 68 (3808000)
I1202 09:21:57.230231 2760188864 net.cpp:165] Memory required for data: 17998000
I1202 09:21:57.230273 2760188864 layer_factory.hpp:77] Creating layer pool1
I1202 09:21:57.230283 2760188864 net.cpp:100] Creating Layer pool1
I1202 09:21:57.230290 2760188864 net.cpp:434] pool1 <- conv1
I1202 09:21:57.230298 2760188864 net.cpp:408] pool1 -> pool1
I1202 09:21:57.230311 2760188864 net.cpp:150] Setting up pool1
I1202 09:21:57.230317 2760188864 net.cpp:157] Top shape: 100 20 14 34 (952000)
I1202 09:21:57.230325 2760188864 net.cpp:165] Memory required for data: 21806000
I1202 09:21:57.230331 2760188864 layer_factory.hpp:77] Creating layer conv2
I1202 09:21:57.230345 2760188864 net.cpp:100] Creating Layer conv2
I1202 09:21:57.230350 2760188864 net.cpp:434] conv2 <- pool1
I1202 09:21:57.230363 2760188864 net.cpp:408] conv2 -> conv2
I1202 09:21:57.230741 2760188864 net.cpp:150] Setting up conv2
I1202 09:21:57.230751 2760188864 net.cpp:157] Top shape: 100 50 10 30 (1500000)
I1202 09:21:57.230758 2760188864 net.cpp:165] Memory required for data: 27806000
I1202 09:21:57.230768 2760188864 layer_factory.hpp:77] Creating layer pool2
I1202 09:21:57.230780 2760188864 net.cpp:100] Creating Layer pool2
I1202 09:21:57.230787 2760188864 net.cpp:434] pool2 <- conv2
I1202 09:21:57.230795 2760188864 net.cpp:408] pool2 -> pool2
I1202 09:21:57.230808 2760188864 net.cpp:150] Setting up pool2
I1202 09:21:57.230813 2760188864 net.cpp:157] Top shape: 100 50 5 15 (375000)
I1202 09:21:57.230820 2760188864 net.cpp:165] Memory required for data: 29306000
I1202 09:21:57.230826 2760188864 layer_factory.hpp:77] Creating layer ip1
I1202 09:21:57.230836 2760188864 net.cpp:100] Creating Layer ip1
I1202 09:21:57.230842 2760188864 net.cpp:434] ip1 <- pool2
I1202 09:21:57.230850 2760188864 net.cpp:408] ip1 -> ip1
I1202 09:21:57.233968 231206912 blocking_queue.cpp:50] Waiting for data
I1202 09:21:57.256841 2760188864 net.cpp:150] Setting up ip1
I1202 09:21:57.256896 2760188864 net.cpp:157] Top shape: 100 500 (50000)
I1202 09:21:57.256912 2760188864 net.cpp:165] Memory required for data: 29506000
I1202 09:21:57.256935 2760188864 layer_factory.hpp:77] Creating layer relu1
I1202 09:21:57.256958 2760188864 net.cpp:100] Creating Layer relu1
I1202 09:21:57.256976 2760188864 net.cpp:434] relu1 <- ip1
I1202 09:21:57.256994 2760188864 net.cpp:395] relu1 -> ip1 (in-place)
I1202 09:21:57.257021 2760188864 net.cpp:150] Setting up relu1
I1202 09:21:57.257031 2760188864 net.cpp:157] Top shape: 100 500 (50000)
I1202 09:21:57.257047 2760188864 net.cpp:165] Memory required for data: 29706000
I1202 09:21:57.257058 2760188864 layer_factory.hpp:77] Creating layer ip2
I1202 09:21:57.257083 2760188864 net.cpp:100] Creating Layer ip2
I1202 09:21:57.257097 2760188864 net.cpp:434] ip2 <- ip1
I1202 09:21:57.257141 2760188864 net.cpp:408] ip2 -> ip2
I1202 09:21:57.257313 2760188864 net.cpp:150] Setting up ip2
I1202 09:21:57.257324 2760188864 net.cpp:157] Top shape: 100 19 (1900)
I1202 09:21:57.257331 2760188864 net.cpp:165] Memory required for data: 29713600
I1202 09:21:57.257340 2760188864 layer_factory.hpp:77] Creating layer ip2_ip2_0_split
I1202 09:21:57.257350 2760188864 net.cpp:100] Creating Layer ip2_ip2_0_split
I1202 09:21:57.257356 2760188864 net.cpp:434] ip2_ip2_0_split <- ip2
I1202 09:21:57.257364 2760188864 net.cpp:408] ip2_ip2_0_split -> ip2_ip2_0_split_0
I1202 09:21:57.257375 2760188864 net.cpp:408] ip2_ip2_0_split -> ip2_ip2_0_split_1
I1202 09:21:57.257391 2760188864 net.cpp:150] Setting up ip2_ip2_0_split
I1202 09:21:57.257398 2760188864 net.cpp:157] Top shape: 100 19 (1900)
I1202 09:21:57.257405 2760188864 net.cpp:157] Top shape: 100 19 (1900)
I1202 09:21:57.257411 2760188864 net.cpp:165] Memory required for data: 29728800
I1202 09:21:57.257417 2760188864 layer_factory.hpp:77] Creating layer accuracy
I1202 09:21:57.257426 2760188864 net.cpp:100] Creating Layer accuracy
I1202 09:21:57.257432 2760188864 net.cpp:434] accuracy <- ip2_ip2_0_split_0
I1202 09:21:57.257439 2760188864 net.cpp:434] accuracy <- label_data_1_split_0
I1202 09:21:57.257447 2760188864 net.cpp:408] accuracy -> accuracy
…
