…
I1202 09:07:32.624850 2760188864 net.cpp:322] The NetState phase (0) differed from the phase (1) specified by a rule in layer math
I1202 09:07:32.624881 2760188864 net.cpp:322] The NetState phase (0) differed from the phase (1) specified by a rule in layer accuracy
I1202 09:07:32.624892 2760188864 net.cpp:58] Initializing net from parameters: 
name: "LeNet"
state {
  phase: TRAIN
  level: 0
  stage: ""
}
layer {
  name: "math"
  type: "Data"
  top: "data"
  top: "label"
  include {
    phase: TRAIN
  }
  transform_param {
    scale: 0.00390625
  }
  data_param {
    source: "examples/imagenet/math_train_lmdb"
    batch_size: 64
    backend: LMDB
  }
}
layer {
  name: "conv1"
  type: "Convolution"
  bottom: "data"
  top: "conv1"
  param {
    lr_mult: 1
  }
  param {
    lr_mult: 2
  }
  convolution_param {
    num_output: 20
    kernel_size: 5
    stride: 1
    weight_filler {
      type: "xavier"
    }
    bias_filler {
      type: "constant"
    }
  }
}
layer {
  name: "pool1"
  type: "Pooling"
  bottom: "conv1"
  top: "pool1"
  pooling_param {
    pool: MAX
    kernel_size: 2
    stride: 2
  }
}
layer {
  name: "conv2"
  type: "Convolution"
  bottom: "pool1"
  top: "conv2"
  param {
    lr_mult: 1
  }
  param {
    lr_mult: 2
  }
  convolution_param {
    num_output: 50
    kernel_size: 5
    stride: 1
    weight_filler {
      type: "xavier"
    }
    bias_filler {
      type: "constant"
    }
  }
}
layer {
  name: "pool2"
  type: "Pooling"
  bottom: "conv2"
  top: "pool2"
  pooling_param {
    pool: MAX
    kernel_size: 2
    stride: 2
  }
}
layer {
  name: "ip1"
  type: "InnerProduct"
  bottom: "pool2"
  top: "ip1"
  param {
    lr_mult: 1
  }
  param {
    lr_mult: 2
  }
  inner_product_param {
    num_output: 500
    weight_filler {
      type: "xavier"
    }
    bias_filler {
      type: "constant"
    }
  }
}
layer {
  name: "relu1"
  type: "ReLU"
  bottom: "ip1"
  top: "ip1"
}
layer {
  name: "ip2"
  type: "InnerProduct"
  bottom: "ip1"
  top: "ip2"
  param {
    lr_mult: 1
  }
  param {
    lr_mult: 2
  }
  inner_product_param {
    num_output: 19
    weight_filler {
      type: "xavier"
    }
    bias_filler {
      type: "constant"
    }
  }
}
layer {
  name: "loss"
  type: "SoftmaxWithLoss"
  bottom: "ip2"
  bottom: "label"
  top: "loss"
}
I1202 09:07:32.625077 2760188864 layer_factory.hpp:77] Creating layer math
I1202 09:07:32.632043 2760188864 net.cpp:100] Creating Layer math
I1202 09:07:32.632071 2760188864 net.cpp:408] math -> data
I1202 09:07:32.632099 2760188864 net.cpp:408] math -> label
I1202 09:07:32.632299 145596416 db_lmdb.cpp:35] Opened lmdb examples/imagenet/math_train_lmdb
I1202 09:07:32.633071 2760188864 data_layer.cpp:41] output data size: 64,3,32,72
I1202 09:07:32.636991 2760188864 net.cpp:150] Setting up math
I1202 09:07:32.637022 2760188864 net.cpp:157] Top shape: 64 3 32 72 (442368)
I1202 09:07:32.637037 2760188864 net.cpp:157] Top shape: 64 (64)
I1202 09:07:32.637045 2760188864 net.cpp:165] Memory required for data: 1769728
I1202 09:07:32.637060 2760188864 layer_factory.hpp:77] Creating layer conv1
I1202 09:07:32.637081 2760188864 net.cpp:100] Creating Layer conv1
I1202 09:07:32.637090 2760188864 net.cpp:434] conv1 <- data
I1202 09:07:32.637100 2760188864 net.cpp:408] conv1 -> conv1
I1202 09:07:32.637493 2760188864 net.cpp:150] Setting up conv1
I1202 09:07:32.637507 2760188864 net.cpp:157] Top shape: 64 20 28 68 (2437120)
I1202 09:07:32.637518 2760188864 net.cpp:165] Memory required for data: 11518208
I1202 09:07:32.637639 2760188864 layer_factory.hpp:77] Creating layer pool1
I1202 09:07:32.637686 2760188864 net.cpp:100] Creating Layer pool1
I1202 09:07:32.637704 2760188864 net.cpp:434] pool1 <- conv1
I1202 09:07:32.637723 2760188864 net.cpp:408] pool1 -> pool1
I1202 09:07:32.637749 2760188864 net.cpp:150] Setting up pool1
I1202 09:07:32.637770 2760188864 net.cpp:157] Top shape: 64 20 14 34 (609280)
I1202 09:07:32.637789 2760188864 net.cpp:165] Memory required for data: 13955328
I1202 09:07:32.637805 2760188864 layer_factory.hpp:77] Creating layer conv2
I1202 09:07:32.637828 2760188864 net.cpp:100] Creating Layer conv2
I1202 09:07:32.637845 2760188864 net.cpp:434] conv2 <- pool1
I1202 09:07:32.637928 2760188864 net.cpp:408] conv2 -> conv2
I1202 09:07:32.638418 2760188864 net.cpp:150] Setting up conv2
I1202 09:07:32.638440 2760188864 net.cpp:157] Top shape: 64 50 10 30 (960000)
I1202 09:07:32.638459 2760188864 net.cpp:165] Memory required for data: 17795328
I1202 09:07:32.638480 2760188864 layer_factory.hpp:77] Creating layer pool2
I1202 09:07:32.638500 2760188864 net.cpp:100] Creating Layer pool2
I1202 09:07:32.638516 2760188864 net.cpp:434] pool2 <- conv2
I1202 09:07:32.638535 2760188864 net.cpp:408] pool2 -> pool2
I1202 09:07:32.638557 2760188864 net.cpp:150] Setting up pool2
I1202 09:07:32.638573 2760188864 net.cpp:157] Top shape: 64 50 5 15 (240000)
I1202 09:07:32.638592 2760188864 net.cpp:165] Memory required for data: 18755328
I1202 09:07:32.638607 2760188864 layer_factory.hpp:77] Creating layer ip1
I1202 09:07:32.638628 2760188864 net.cpp:100] Creating Layer ip1
I1202 09:07:32.638643 2760188864 net.cpp:434] ip1 <- pool2
I1202 09:07:32.638662 2760188864 net.cpp:408] ip1 -> ip1
I1202 09:07:32.664258 2760188864 net.cpp:150] Setting up ip1
I1202 09:07:32.664285 2760188864 net.cpp:157] Top shape: 64 500 (32000)
I1202 09:07:32.664297 2760188864 net.cpp:165] Memory required for data: 18883328
I1202 09:07:32.664312 2760188864 layer_factory.hpp:77] Creating layer relu1
I1202 09:07:32.664332 2760188864 net.cpp:100] Creating Layer relu1
I1202 09:07:32.664342 2760188864 net.cpp:434] relu1 <- ip1
I1202 09:07:32.664369 2760188864 net.cpp:395] relu1 -> ip1 (in-place)
I1202 09:07:32.664392 2760188864 net.cpp:150] Setting up relu1
I1202 09:07:32.664402 2760188864 net.cpp:157] Top shape: 64 500 (32000)
I1202 09:07:32.664409 2760188864 net.cpp:165] Memory required for data: 19011328
I1202 09:07:32.664424 2760188864 layer_factory.hpp:77] Creating layer ip2
I1202 09:07:32.664453 2760188864 net.cpp:100] Creating Layer ip2
I1202 09:07:32.664463 2760188864 net.cpp:434] ip2 <- ip1
I1202 09:07:32.664472 2760188864 net.cpp:408] ip2 -> ip2
I1202 09:07:32.664634 2760188864 net.cpp:150] Setting up ip2
I1202 09:07:32.664644 2760188864 net.cpp:157] Top shape: 64 19 (1216)
I1202 09:07:32.664652 2760188864 net.cpp:165] Memory required for data: 19016192
I1202 09:07:32.664661 2760188864 layer_factory.hpp:77] Creating layer loss
I1202 09:07:32.664677 2760188864 net.cpp:100] Creating Layer loss
I1202 09:07:32.664685 2760188864 net.cpp:434] loss <- ip2
I1202 09:07:32.664692 2760188864 net.cpp:434] loss <- label
I1202 09:07:32.664703 2760188864 net.cpp:408] loss -> loss
…
I1202 09:07:32.665211 2760188864 solver.cpp:181] Creating test net (#0) specified by net file: examples/mnist/lenet_train_math_test_withoutBN.prototxt
I1202 09:07:32.665249 2760188864 net.cpp:322] The NetState phase (1) differed from the phase (0) specified by a rule in layer math
I1202 09:07:32.665271 2760188864 net.cpp:58] Initializing net from parameters: 
name: "LeNet"
state {
  phase: TEST
}
layer {
  name: "math"
  type: "Data"
  top: "data"
  top: "label"
  include {
    phase: TEST
  }
  transform_param {
    scale: 0.00390625
  }
  data_param {
    source: "examples/imagenet/math_val_lmdb"
    batch_size: 100
    backend: LMDB
  }
}
layer {
  name: "conv1"
  type: "Convolution"
  bottom: "data"
  top: "conv1"
  param {
    lr_mult: 1
  }
  param {
    lr_mult: 2
  }
  convolution_param {
    num_output: 20
    kernel_size: 5
    stride: 1
    weight_filler {
      type: "xavier"
    }
    bias_filler {
      type: "constant"
    }
  }
}
layer {
  name: "pool1"
  type: "Pooling"
  bottom: "conv1"
  top: "pool1"
  pooling_param {
    pool: MAX
    kernel_size: 2
    stride: 2
  }
}
layer {
  name: "conv2"
  type: "Convolution"
  bottom: "pool1"
  top: "conv2"
  param {
    lr_mult: 1
  }
  param {
    lr_mult: 2
  }
  convolution_param {
    num_output: 50
    kernel_size: 5
    stride: 1
    weight_filler {
      type: "xavier"
    }
    bias_filler {
      type: "constant"
    }
  }
}
layer {
  name: "pool2"
  type: "Pooling"
  bottom: "conv2"
  top: "pool2"
  pooling_param {
    pool: MAX
    kernel_size: 2
    stride: 2
  }
}
layer {
  name: "ip1"
  type: "InnerProduct"
  bottom: "pool2"
  top: "ip1"
  param {
    lr_mult: 1
  }
  param {
    lr_mult: 2
  }
  inner_product_param {
    num_output: 500
    weight_filler {
      type: "xavier"
    }
    bias_filler {
      type: "constant"
    }
  }
}
layer {
  name: "relu1"
  type: "ReLU"
  bottom: "ip1"
  top: "ip1"
}
layer {
  name: "ip2"
  type: "InnerProduct"
  bottom: "ip1"
  top: "ip2"
  param {
    lr_mult: 1
  }
  param {
    lr_mult: 2
  }
  inner_product_param {
    num_output: 19
    weight_filler {
      type: "xavier"
    }
    bias_filler {
      type: "constant"
    }
  }
}
layer {
  name: "accuracy"
  type: "Accuracy"
  bottom: "ip2"
  bottom: "label"
  top: "accuracy"
  include {
    phase: TEST
  }
}
layer {
  name: "loss"
  type: "SoftmaxWithLoss"
  bottom: "ip2"
  bottom: "label"
  top: "loss"
}
I1202 09:07:32.665618 2760188864 layer_factory.hpp:77] Creating layer math
I1202 09:07:32.665786 2760188864 net.cpp:100] Creating Layer math
I1202 09:07:32.665817 2760188864 net.cpp:408] math -> data
I1202 09:07:32.665846 2760188864 net.cpp:408] math -> label
I1202 09:07:32.666213 146669568 db_lmdb.cpp:35] Opened lmdb examples/imagenet/math_val_lmdb
I1202 09:07:32.666370 2760188864 data_layer.cpp:41] output data size: 100,3,32,72
I1202 09:07:32.672977 2760188864 net.cpp:150] Setting up math
I1202 09:07:32.673048 2760188864 net.cpp:157] Top shape: 100 3 32 72 (691200)
I1202 09:07:32.673086 2760188864 net.cpp:157] Top shape: 100 (100)
I1202 09:07:32.673102 2760188864 net.cpp:165] Memory required for data: 2765200
I1202 09:07:32.673125 2760188864 layer_factory.hpp:77] Creating layer label_math_1_split
I1202 09:07:32.673159 2760188864 net.cpp:100] Creating Layer label_math_1_split
I1202 09:07:32.673169 2760188864 net.cpp:434] label_math_1_split <- label
I1202 09:07:32.673218 2760188864 net.cpp:408] label_math_1_split -> label_math_1_split_0
I1202 09:07:32.673243 2760188864 net.cpp:408] label_math_1_split -> label_math_1_split_1
I1202 09:07:32.673260 2760188864 net.cpp:150] Setting up label_math_1_split
I1202 09:07:32.673269 2760188864 net.cpp:157] Top shape: 100 (100)
I1202 09:07:32.673290 2760188864 net.cpp:157] Top shape: 100 (100)
I1202 09:07:32.673297 2760188864 net.cpp:165] Memory required for data: 2766000
I1202 09:07:32.673352 2760188864 layer_factory.hpp:77] Creating layer conv1
I1202 09:07:32.673390 2760188864 net.cpp:100] Creating Layer conv1
I1202 09:07:32.673400 2760188864 net.cpp:434] conv1 <- data
I1202 09:07:32.673430 2760188864 net.cpp:408] conv1 -> conv1
I1202 09:07:32.673511 2760188864 net.cpp:150] Setting up conv1
I1202 09:07:32.673521 2760188864 net.cpp:157] Top shape: 100 20 28 68 (3808000)
I1202 09:07:32.673530 2760188864 net.cpp:165] Memory required for data: 17998000
I1202 09:07:32.673563 2760188864 layer_factory.hpp:77] Creating layer pool1
I1202 09:07:32.673589 2760188864 net.cpp:100] Creating Layer pool1
I1202 09:07:32.673602 2760188864 net.cpp:434] pool1 <- conv1
I1202 09:07:32.673632 2760188864 net.cpp:408] pool1 -> pool1
I1202 09:07:32.673660 2760188864 net.cpp:150] Setting up pool1
I1202 09:07:32.673671 2760188864 net.cpp:157] Top shape: 100 20 14 34 (952000)
I1202 09:07:32.673691 2760188864 net.cpp:165] Memory required for data: 21806000
I1202 09:07:32.673702 2760188864 layer_factory.hpp:77] Creating layer conv2
I1202 09:07:32.673740 2760188864 net.cpp:100] Creating Layer conv2
I1202 09:07:32.673749 2760188864 net.cpp:434] conv2 <- pool1
I1202 09:07:32.673785 2760188864 net.cpp:408] conv2 -> conv2
I1202 09:07:32.674185 2760188864 net.cpp:150] Setting up conv2
I1202 09:07:32.674198 2760188864 net.cpp:157] Top shape: 100 50 10 30 (1500000)
I1202 09:07:32.674208 2760188864 net.cpp:165] Memory required for data: 27806000
I1202 09:07:32.674221 2760188864 layer_factory.hpp:77] Creating layer pool2
I1202 09:07:32.674257 2760188864 net.cpp:100] Creating Layer pool2
I1202 09:07:32.674266 2760188864 net.cpp:434] pool2 <- conv2
I1202 09:07:32.674293 2760188864 net.cpp:408] pool2 -> pool2
I1202 09:07:32.674314 2760188864 net.cpp:150] Setting up pool2
I1202 09:07:32.674345 2760188864 net.cpp:157] Top shape: 100 50 5 15 (375000)
I1202 09:07:32.674392 2760188864 net.cpp:165] Memory required for data: 29306000
I1202 09:07:32.674414 2760188864 layer_factory.hpp:77] Creating layer ip1
I1202 09:07:32.674443 2760188864 net.cpp:100] Creating Layer ip1
I1202 09:07:32.674450 2760188864 net.cpp:434] ip1 <- pool2
I1202 09:07:32.674561 2760188864 net.cpp:408] ip1 -> ip1
I1202 09:07:32.698333 2760188864 net.cpp:150] Setting up ip1
I1202 09:07:32.698356 2760188864 net.cpp:157] Top shape: 100 500 (50000)
I1202 09:07:32.698366 2760188864 net.cpp:165] Memory required for data: 29506000
I1202 09:07:32.698380 2760188864 layer_factory.hpp:77] Creating layer relu1
I1202 09:07:32.698393 2760188864 net.cpp:100] Creating Layer relu1
I1202 09:07:32.698400 2760188864 net.cpp:434] relu1 <- ip1
I1202 09:07:32.698407 2760188864 net.cpp:395] relu1 -> ip1 (in-place)
I1202 09:07:32.698426 2760188864 net.cpp:150] Setting up relu1
I1202 09:07:32.698438 2760188864 net.cpp:157] Top shape: 100 500 (50000)
I1202 09:07:32.698458 2760188864 net.cpp:165] Memory required for data: 29706000
I1202 09:07:32.698474 2760188864 layer_factory.hpp:77] Creating layer ip2
I1202 09:07:32.698490 2760188864 net.cpp:100] Creating Layer ip2
I1202 09:07:32.698506 2760188864 net.cpp:434] ip2 <- ip1
I1202 09:07:32.698524 2760188864 net.cpp:408] ip2 -> ip2
I1202 09:07:32.698699 2760188864 net.cpp:150] Setting up ip2
I1202 09:07:32.698717 2760188864 net.cpp:157] Top shape: 100 19 (1900)
I1202 09:07:32.698731 2760188864 net.cpp:165] Memory required for data: 29713600
I1202 09:07:32.698758 2760188864 layer_factory.hpp:77] Creating layer ip2_ip2_0_split
I1202 09:07:32.698777 2760188864 net.cpp:100] Creating Layer ip2_ip2_0_split
I1202 09:07:32.698789 2760188864 net.cpp:434] ip2_ip2_0_split <- ip2
I1202 09:07:32.698799 2760188864 net.cpp:408] ip2_ip2_0_split -> ip2_ip2_0_split_0
I1202 09:07:32.698817 2760188864 net.cpp:408] ip2_ip2_0_split -> ip2_ip2_0_split_1
I1202 09:07:32.698833 2760188864 net.cpp:150] Setting up ip2_ip2_0_split
I1202 09:07:32.698845 2760188864 net.cpp:157] Top shape: 100 19 (1900)
I1202 09:07:32.698859 2760188864 net.cpp:157] Top shape: 100 19 (1900)
I1202 09:07:32.698866 2760188864 net.cpp:165] Memory required for data: 29728800
I1202 09:07:32.698904 2760188864 layer_factory.hpp:77] Creating layer accuracy
I1202 09:07:32.698920 2760188864 net.cpp:100] Creating Layer accuracy
I1202 09:07:32.698936 2760188864 net.cpp:434] accuracy <- ip2_ip2_0_split_0
I1202 09:07:32.698956 2760188864 net.cpp:434] accuracy <- label_math_1_split_0
I1202 09:07:32.698974 2760188864 net.cpp:408] accuracy -> accuracy
…
