…
I1201 19:00:17.564611 2760188864 net.cpp:322] The NetState phase (0) differed from the phase (1) specified by a rule in layer accuracy
I1201 19:00:17.564621 2760188864 net.cpp:58] Initializing net from parameters: 
name: "LeNet"
state {
  phase: TRAIN
  level: 0
  stage: ""
}
layer {
  name: "math"
  type: "Data"
  top: "data"
  top: "label"
  include {
    phase: TRAIN
  }
  transform_param {
    mean_file: "examples/imagenet/math_mean.binaryproto"
  }
  data_param {
    source: "examples/imagenet/math_train_lmdb"
    batch_size: 64
    backend: LMDB
  }
}
layer {
  name: "conv1"
  type: "Convolution"
  bottom: "data"
  top: "conv1"
  param {
    lr_mult: 1
  }
  convolution_param {
    num_output: 20
    kernel_size: 5
    stride: 1
    weight_filler {
      type: "gaussian"
      std: 0.0001
    }
    bias_filler {
      type: "constant"
    }
  }
}
layer {
  name: "pool1"
  type: "Pooling"
  bottom: "conv1"
  top: "pool1"
  pooling_param {
    pool: MAX
    kernel_size: 2
    stride: 2
  }
}
layer {
  name: "bn1"
  type: "BatchNorm"
  bottom: "pool1"
  top: "bn1"
}
layer {
  name: "Sigmoid1"
  type: "Sigmoid"
  bottom: "bn1"
  top: "Sigmoid1"
}
layer {
  name: "conv2"
  type: "Convolution"
  bottom: "Sigmoid1"
  top: "conv2"
  param {
    lr_mult: 1
  }
  convolution_param {
    num_output: 50
    kernel_size: 5
    stride: 1
    weight_filler {
      type: "gaussian"
      std: 0.01
    }
    bias_filler {
      type: "constant"
    }
  }
}
layer {
  name: "bn2"
  type: "BatchNorm"
  bottom: "conv2"
  top: "bn2"
}
layer {
  name: "Sigmoid2"
  type: "Sigmoid"
  bottom: "bn2"
  top: "Sigmoid2"
}
layer {
  name: "pool2"
  type: "Pooling"
  bottom: "Sigmoid2"
  top: "pool2"
  pooling_param {
    pool: MAX
    kernel_size: 2
    stride: 2
  }
}
layer {
  name: "ip1"
  type: "InnerProduct"
  bottom: "pool2"
  top: "ip1"
  param {
    lr_mult: 1
  }
  param {
    lr_mult: 2
  }
  inner_product_param {
    num_output: 500
    weight_filler {
      type: "gaussian"
      std: 0.01
    }
    bias_filler {
      type: "constant"
    }
  }
}
layer {
  name: "ip2"
  type: "InnerProduct"
  bottom: "ip1"
  top: "ip2"
  param {
    lr_mult: 1
  }
  param {
    lr_mult: 2
  }
  inner_product_param {
    num_output: 19
    weight_filler {
      type: "gaussian"
      std: 0.01
    }
    bias_filler {
      type: "constant"
    }
  }
}
layer {
  name: "loss"
  type: "SoftmaxWithLoss"
  bottom: "ip2"
  bottom: "label"
  top: "loss"
}
I1201 19:00:17.564805 2760188864 layer_factory.hpp:77] Creating layer math
I1201 19:00:17.571280 2760188864 net.cpp:100] Creating Layer math
I1201 19:00:17.571352 2760188864 net.cpp:408] math -> data
I1201 19:00:17.571384 2760188864 net.cpp:408] math -> label
I1201 19:00:17.571414 2760188864 data_transformer.cpp:25] Loading mean file from: examples/imagenet/math_mean.binaryproto
I1201 19:00:17.571604 225595392 db_lmdb.cpp:35] Opened lmdb examples/imagenet/math_train_lmdb
I1201 19:00:17.571717 2760188864 data_layer.cpp:41] output data size: 64,3,32,72
I1201 19:00:17.575758 2760188864 net.cpp:150] Setting up math
I1201 19:00:17.575793 2760188864 net.cpp:157] Top shape: 64 3 32 72 (442368)
I1201 19:00:17.575882 2760188864 net.cpp:157] Top shape: 64 (64)
I1201 19:00:17.575896 2760188864 net.cpp:165] Memory required for data: 1769728
I1201 19:00:17.575932 2760188864 layer_factory.hpp:77] Creating layer conv1
I1201 19:00:17.575989 2760188864 net.cpp:100] Creating Layer conv1
I1201 19:00:17.575997 2760188864 net.cpp:434] conv1 <- data
I1201 19:00:17.576009 2760188864 net.cpp:408] conv1 -> conv1
I1201 19:00:17.576179 2760188864 net.cpp:150] Setting up conv1
I1201 19:00:17.576190 2760188864 net.cpp:157] Top shape: 64 20 28 68 (2437120)
I1201 19:00:17.576200 2760188864 net.cpp:165] Memory required for data: 11518208
I1201 19:00:17.576211 2760188864 layer_factory.hpp:77] Creating layer pool1
I1201 19:00:17.576225 2760188864 net.cpp:100] Creating Layer pool1
I1201 19:00:17.576231 2760188864 net.cpp:434] pool1 <- conv1
I1201 19:00:17.576239 2760188864 net.cpp:408] pool1 -> pool1
I1201 19:00:17.576253 2760188864 net.cpp:150] Setting up pool1
I1201 19:00:17.576261 2760188864 net.cpp:157] Top shape: 64 20 14 34 (609280)
I1201 19:00:17.576288 2760188864 net.cpp:165] Memory required for data: 13955328
I1201 19:00:17.576295 2760188864 layer_factory.hpp:77] Creating layer bn1
I1201 19:00:17.576303 2760188864 net.cpp:100] Creating Layer bn1
I1201 19:00:17.576310 2760188864 net.cpp:434] bn1 <- pool1
I1201 19:00:17.576318 2760188864 net.cpp:408] bn1 -> bn1
I1201 19:00:17.576352 2760188864 net.cpp:150] Setting up bn1
I1201 19:00:17.576360 2760188864 net.cpp:157] Top shape: 64 20 14 34 (609280)
I1201 19:00:17.576370 2760188864 net.cpp:165] Memory required for data: 16392448
I1201 19:00:17.576385 2760188864 layer_factory.hpp:77] Creating layer Sigmoid1
I1201 19:00:17.576398 2760188864 net.cpp:100] Creating Layer Sigmoid1
I1201 19:00:17.576406 2760188864 net.cpp:434] Sigmoid1 <- bn1
I1201 19:00:17.576436 2760188864 net.cpp:408] Sigmoid1 -> Sigmoid1
I1201 19:00:17.576452 2760188864 net.cpp:150] Setting up Sigmoid1
I1201 19:00:17.576457 2760188864 net.cpp:157] Top shape: 64 20 14 34 (609280)
I1201 19:00:17.576465 2760188864 net.cpp:165] Memory required for data: 18829568
I1201 19:00:17.576472 2760188864 layer_factory.hpp:77] Creating layer conv2
I1201 19:00:17.576485 2760188864 net.cpp:100] Creating Layer conv2
I1201 19:00:17.576493 2760188864 net.cpp:434] conv2 <- Sigmoid1
I1201 19:00:17.576501 2760188864 net.cpp:408] conv2 -> conv2
I1201 19:00:17.577035 2760188864 net.cpp:150] Setting up conv2
I1201 19:00:17.577051 2760188864 net.cpp:157] Top shape: 64 50 10 30 (960000)
I1201 19:00:17.577061 2760188864 net.cpp:165] Memory required for data: 22669568
I1201 19:00:17.577071 2760188864 layer_factory.hpp:77] Creating layer bn2
I1201 19:00:17.577083 2760188864 net.cpp:100] Creating Layer bn2
I1201 19:00:17.577090 2760188864 net.cpp:434] bn2 <- conv2
I1201 19:00:17.577100 2760188864 net.cpp:408] bn2 -> bn2
I1201 19:00:17.577124 2760188864 net.cpp:150] Setting up bn2
I1201 19:00:17.577172 2760188864 net.cpp:157] Top shape: 64 50 10 30 (960000)
I1201 19:00:17.577183 2760188864 net.cpp:165] Memory required for data: 26509568
I1201 19:00:17.577198 2760188864 layer_factory.hpp:77] Creating layer Sigmoid2
I1201 19:00:17.577208 2760188864 net.cpp:100] Creating Layer Sigmoid2
I1201 19:00:17.577214 2760188864 net.cpp:434] Sigmoid2 <- bn2
I1201 19:00:17.577224 2760188864 net.cpp:408] Sigmoid2 -> Sigmoid2
I1201 19:00:17.577237 2760188864 net.cpp:150] Setting up Sigmoid2
I1201 19:00:17.577244 2760188864 net.cpp:157] Top shape: 64 50 10 30 (960000)
I1201 19:00:17.577252 2760188864 net.cpp:165] Memory required for data: 30349568
I1201 19:00:17.577260 2760188864 layer_factory.hpp:77] Creating layer pool2
I1201 19:00:17.577270 2760188864 net.cpp:100] Creating Layer pool2
I1201 19:00:17.577275 2760188864 net.cpp:434] pool2 <- Sigmoid2
I1201 19:00:17.577316 2760188864 net.cpp:408] pool2 -> pool2
I1201 19:00:17.577332 2760188864 net.cpp:150] Setting up pool2
I1201 19:00:17.577338 2760188864 net.cpp:157] Top shape: 64 50 5 15 (240000)
I1201 19:00:17.577347 2760188864 net.cpp:165] Memory required for data: 31309568
I1201 19:00:17.577407 2760188864 layer_factory.hpp:77] Creating layer ip1
I1201 19:00:17.577440 2760188864 net.cpp:100] Creating Layer ip1
I1201 19:00:17.577447 2760188864 net.cpp:434] ip1 <- pool2
I1201 19:00:17.577461 2760188864 net.cpp:408] ip1 -> ip1
I1201 19:00:17.606263 2760188864 net.cpp:150] Setting up ip1
I1201 19:00:17.606292 2760188864 net.cpp:157] Top shape: 64 500 (32000)
I1201 19:00:17.606304 2760188864 net.cpp:165] Memory required for data: 31437568
I1201 19:00:17.606323 2760188864 layer_factory.hpp:77] Creating layer ip2
I1201 19:00:17.606340 2760188864 net.cpp:100] Creating Layer ip2
I1201 19:00:17.606361 2760188864 net.cpp:434] ip2 <- ip1
I1201 19:00:17.606384 2760188864 net.cpp:408] ip2 -> ip2
I1201 19:00:17.606648 2760188864 net.cpp:150] Setting up ip2
I1201 19:00:17.606662 2760188864 net.cpp:157] Top shape: 64 19 (1216)
I1201 19:00:17.606669 2760188864 net.cpp:165] Memory required for data: 31442432
I1201 19:00:17.606678 2760188864 layer_factory.hpp:77] Creating layer loss
I1201 19:00:17.606698 2760188864 net.cpp:100] Creating Layer loss
I1201 19:00:17.606705 2760188864 net.cpp:434] loss <- ip2
I1201 19:00:17.606736 2760188864 net.cpp:434] loss <- label
I1201 19:00:17.606755 2760188864 net.cpp:408] loss -> loss
…
I1201 19:00:17.607417 2760188864 solver.cpp:181] Creating test net (#0) specified by net file: examples/mnist/lenet_train_math_test_batchnorm.prototxt
I1201 19:00:17.607463 2760188864 net.cpp:322] The NetState phase (1) differed from the phase (0) specified by a rule in layer math
I1201 19:00:17.607482 2760188864 net.cpp:58] Initializing net from parameters: 
name: "LeNet"
state {
  phase: TEST
}
layer {
  name: "math"
  type: "Data"
  top: "data"
  top: "label"
  include {
    phase: TEST
  }
  transform_param {
    mean_file: "examples/imagenet/math_mean.binaryproto"
  }
  data_param {
    source: "examples/imagenet/math_val_lmdb"
    batch_size: 100
    backend: LMDB
  }
}
layer {
  name: "conv1"
  type: "Convolution"
  bottom: "data"
  top: "conv1"
  param {
    lr_mult: 1
  }
  convolution_param {
    num_output: 20
    kernel_size: 5
    stride: 1
    weight_filler {
      type: "gaussian"
      std: 0.0001
    }
    bias_filler {
      type: "constant"
    }
  }
}
layer {
  name: "pool1"
  type: "Pooling"
  bottom: "conv1"
  top: "pool1"
  pooling_param {
    pool: MAX
    kernel_size: 2
    stride: 2
  }
}
layer {
  name: "bn1"
  type: "BatchNorm"
  bottom: "pool1"
  top: "bn1"
}
layer {
  name: "Sigmoid1"
  type: "Sigmoid"
  bottom: "bn1"
  top: "Sigmoid1"
}
layer {
  name: "conv2"
  type: "Convolution"
  bottom: "Sigmoid1"
  top: "conv2"
  param {
    lr_mult: 1
  }
  convolution_param {
    num_output: 50
    kernel_size: 5
    stride: 1
    weight_filler {
      type: "gaussian"
      std: 0.01
    }
    bias_filler {
      type: "constant"
    }
  }
}
layer {
  name: "bn2"
  type: "BatchNorm"
  bottom: "conv2"
  top: "bn2"
}
layer {
  name: "Sigmoid2"
  type: "Sigmoid"
  bottom: "bn2"
  top: "Sigmoid2"
}
layer {
  name: "pool2"
  type: "Pooling"
  bottom: "Sigmoid2"
  top: "pool2"
  pooling_param {
    pool: MAX
    kernel_size: 2
    stride: 2
  }
}
layer {
  name: "ip1"
  type: "InnerProduct"
  bottom: "pool2"
  top: "ip1"
  param {
    lr_mult: 1
  }
  param {
    lr_mult: 2
  }
  inner_product_param {
    num_output: 500
    weight_filler {
      type: "gaussian"
      std: 0.01
    }
    bias_filler {
      type: "constant"
    }
  }
}
layer {
  name: "ip2"
  type: "InnerProduct"
  bottom: "ip1"
  top: "ip2"
  param {
    lr_mult: 1
  }
  param {
    lr_mult: 2
  }
  inner_product_param {
    num_output: 19
    weight_filler {
      type: "gaussian"
      std: 0.01
    }
    bias_filler {
      type: "constant"
    }
  }
}
layer {
  name: "accuracy"
  type: "Accuracy"
  bottom: "ip2"
  bottom: "label"
  top: "accuracy"
  include {
    phase: TEST
  }
}
layer {
  name: "loss"
  type: "SoftmaxWithLoss"
  bottom: "ip2"
  bottom: "label"
  top: "loss"
}
I1201 19:00:17.607734 2760188864 layer_factory.hpp:77] Creating layer math
I1201 19:00:17.607889 2760188864 net.cpp:100] Creating Layer math
I1201 19:00:17.607906 2760188864 net.cpp:408] math -> data
I1201 19:00:17.607923 2760188864 net.cpp:408] math -> label
I1201 19:00:17.607938 2760188864 data_transformer.cpp:25] Loading mean file from: examples/imagenet/math_mean.binaryproto
I1201 19:00:17.608000 226668544 db_lmdb.cpp:35] Opened lmdb examples/imagenet/math_val_lmdb
I1201 19:00:17.608105 2760188864 data_layer.cpp:41] output data size: 100,3,32,72
I1201 19:00:17.613792 2760188864 net.cpp:150] Setting up math
I1201 19:00:17.613826 2760188864 net.cpp:157] Top shape: 100 3 32 72 (691200)
I1201 19:00:17.613838 2760188864 net.cpp:157] Top shape: 100 (100)
I1201 19:00:17.613847 2760188864 net.cpp:165] Memory required for data: 2765200
I1201 19:00:17.613854 2760188864 layer_factory.hpp:77] Creating layer label_math_1_split
I1201 19:00:17.613874 2760188864 net.cpp:100] Creating Layer label_math_1_split
I1201 19:00:17.613884 2760188864 net.cpp:434] label_math_1_split <- label
I1201 19:00:17.613894 2760188864 net.cpp:408] label_math_1_split -> label_math_1_split_0
I1201 19:00:17.613909 2760188864 net.cpp:408] label_math_1_split -> label_math_1_split_1
I1201 19:00:17.613924 2760188864 net.cpp:150] Setting up label_math_1_split
I1201 19:00:17.613929 2760188864 net.cpp:157] Top shape: 100 (100)
I1201 19:00:17.613937 2760188864 net.cpp:157] Top shape: 100 (100)
I1201 19:00:17.613945 2760188864 net.cpp:165] Memory required for data: 2766000
I1201 19:00:17.613950 2760188864 layer_factory.hpp:77] Creating layer conv1
I1201 19:00:17.613965 2760188864 net.cpp:100] Creating Layer conv1
I1201 19:00:17.613971 2760188864 net.cpp:434] conv1 <- data
I1201 19:00:17.613981 2760188864 net.cpp:408] conv1 -> conv1
I1201 19:00:17.614051 2760188864 net.cpp:150] Setting up conv1
I1201 19:00:17.614059 2760188864 net.cpp:157] Top shape: 100 20 28 68 (3808000)
I1201 19:00:17.614068 2760188864 net.cpp:165] Memory required for data: 17998000
I1201 19:00:17.614078 2760188864 layer_factory.hpp:77] Creating layer pool1
I1201 19:00:17.614087 2760188864 net.cpp:100] Creating Layer pool1
I1201 19:00:17.614092 2760188864 net.cpp:434] pool1 <- conv1
I1201 19:00:17.614100 2760188864 net.cpp:408] pool1 -> pool1
I1201 19:00:17.614114 2760188864 net.cpp:150] Setting up pool1
I1201 19:00:17.614120 2760188864 net.cpp:157] Top shape: 100 20 14 34 (952000)
I1201 19:00:17.614127 2760188864 net.cpp:165] Memory required for data: 21806000
I1201 19:00:17.614166 2760188864 layer_factory.hpp:77] Creating layer bn1
I1201 19:00:17.614176 2760188864 net.cpp:100] Creating Layer bn1
I1201 19:00:17.614183 2760188864 net.cpp:434] bn1 <- pool1
I1201 19:00:17.614190 2760188864 net.cpp:408] bn1 -> bn1
I1201 19:00:17.614212 2760188864 net.cpp:150] Setting up bn1
I1201 19:00:17.614217 2760188864 net.cpp:157] Top shape: 100 20 14 34 (952000)
I1201 19:00:17.614224 2760188864 net.cpp:165] Memory required for data: 25614000
I1201 19:00:17.614236 2760188864 layer_factory.hpp:77] Creating layer Sigmoid1
I1201 19:00:17.614244 2760188864 net.cpp:100] Creating Layer Sigmoid1
I1201 19:00:17.614249 2760188864 net.cpp:434] Sigmoid1 <- bn1
I1201 19:00:17.614258 2760188864 net.cpp:408] Sigmoid1 -> Sigmoid1
I1201 19:00:17.614266 2760188864 net.cpp:150] Setting up Sigmoid1
I1201 19:00:17.614272 2760188864 net.cpp:157] Top shape: 100 20 14 34 (952000)
I1201 19:00:17.614279 2760188864 net.cpp:165] Memory required for data: 29422000
I1201 19:00:17.614285 2760188864 layer_factory.hpp:77] Creating layer conv2
I1201 19:00:17.614295 2760188864 net.cpp:100] Creating Layer conv2
I1201 19:00:17.614302 2760188864 net.cpp:434] conv2 <- Sigmoid1
I1201 19:00:17.614311 2760188864 net.cpp:408] conv2 -> conv2
I1201 19:00:17.614809 2760188864 net.cpp:150] Setting up conv2
I1201 19:00:17.614817 2760188864 net.cpp:157] Top shape: 100 50 10 30 (1500000)
I1201 19:00:17.614825 2760188864 net.cpp:165] Memory required for data: 35422000
I1201 19:00:17.614833 2760188864 layer_factory.hpp:77] Creating layer bn2
I1201 19:00:17.614841 2760188864 net.cpp:100] Creating Layer bn2
I1201 19:00:17.614847 2760188864 net.cpp:434] bn2 <- conv2
I1201 19:00:17.614855 2760188864 net.cpp:408] bn2 -> bn2
I1201 19:00:17.614877 2760188864 net.cpp:150] Setting up bn2
I1201 19:00:17.614883 2760188864 net.cpp:157] Top shape: 100 50 10 30 (1500000)
I1201 19:00:17.614890 2760188864 net.cpp:165] Memory required for data: 41422000
I1201 19:00:17.614902 2760188864 layer_factory.hpp:77] Creating layer Sigmoid2
I1201 19:00:17.614912 2760188864 net.cpp:100] Creating Layer Sigmoid2
I1201 19:00:17.614918 2760188864 net.cpp:434] Sigmoid2 <- bn2
I1201 19:00:17.614925 2760188864 net.cpp:408] Sigmoid2 -> Sigmoid2
I1201 19:00:17.614933 2760188864 net.cpp:150] Setting up Sigmoid2
I1201 19:00:17.614939 2760188864 net.cpp:157] Top shape: 100 50 10 30 (1500000)
I1201 19:00:17.614946 2760188864 net.cpp:165] Memory required for data: 47422000
I1201 19:00:17.614953 2760188864 layer_factory.hpp:77] Creating layer pool2
I1201 19:00:17.614961 2760188864 net.cpp:100] Creating Layer pool2
I1201 19:00:17.614966 2760188864 net.cpp:434] pool2 <- Sigmoid2
I1201 19:00:17.614974 2760188864 net.cpp:408] pool2 -> pool2
I1201 19:00:17.614984 2760188864 net.cpp:150] Setting up pool2
I1201 19:00:17.614989 2760188864 net.cpp:157] Top shape: 100 50 5 15 (375000)
I1201 19:00:17.614996 2760188864 net.cpp:165] Memory required for data: 48922000
I1201 19:00:17.615002 2760188864 layer_factory.hpp:77] Creating layer ip1
I1201 19:00:17.615011 2760188864 net.cpp:100] Creating Layer ip1
I1201 19:00:17.615017 2760188864 net.cpp:434] ip1 <- pool2
I1201 19:00:17.615025 2760188864 net.cpp:408] ip1 -> ip1
I1201 19:00:17.645238 2760188864 net.cpp:150] Setting up ip1
I1201 19:00:17.645259 2760188864 net.cpp:157] Top shape: 100 500 (50000)
I1201 19:00:17.645265 2760188864 net.cpp:165] Memory required for data: 49122000
I1201 19:00:17.645272 2760188864 layer_factory.hpp:77] Creating layer ip2
I1201 19:00:17.645287 2760188864 net.cpp:100] Creating Layer ip2
I1201 19:00:17.645292 2760188864 net.cpp:434] ip2 <- ip1
I1201 19:00:17.645298 2760188864 net.cpp:408] ip2 -> ip2
I1201 19:00:17.645421 2760188864 net.cpp:150] Setting up ip2
I1201 19:00:17.645426 2760188864 net.cpp:157] Top shape: 100 19 (1900)
I1201 19:00:17.645433 2760188864 net.cpp:165] Memory required for data: 49129600
I1201 19:00:17.645442 2760188864 layer_factory.hpp:77] Creating layer ip2_ip2_0_split
I1201 19:00:17.645453 2760188864 net.cpp:100] Creating Layer ip2_ip2_0_split
I1201 19:00:17.645459 2760188864 net.cpp:434] ip2_ip2_0_split <- ip2
I1201 19:00:17.645490 2760188864 net.cpp:408] ip2_ip2_0_split -> ip2_ip2_0_split_0
I1201 19:00:17.645503 2760188864 net.cpp:408] ip2_ip2_0_split -> ip2_ip2_0_split_1
I1201 19:00:17.645515 2760188864 net.cpp:150] Setting up ip2_ip2_0_split
I1201 19:00:17.645522 2760188864 net.cpp:157] Top shape: 100 19 (1900)
I1201 19:00:17.645529 2760188864 net.cpp:157] Top shape: 100 19 (1900)
I1201 19:00:17.645537 2760188864 net.cpp:165] Memory required for data: 49144800
I1201 19:00:17.645544 2760188864 layer_factory.hpp:77] Creating layer accuracy
I1201 19:00:17.645553 2760188864 net.cpp:100] Creating Layer accuracy
I1201 19:00:17.645560 2760188864 net.cpp:434] accuracy <- ip2_ip2_0_split_0
I1201 19:00:17.645563 2760188864 net.cpp:434] accuracy <- label_math_1_split_0
I1201 19:00:17.645568 2760188864 net.cpp:408] accuracy -> accuracy
…
