caffe(12274,0x7fffa48523c0) malloc: *** malloc_zone_unregister() failed for 0x7fffa4848000
I1202 16:02:17.858074 2760188864 caffe.cpp:279] Use CPU.
I1202 16:02:17.863929 2760188864 net.cpp:58] Initializing net from parameters: 
name: "LeNet"
state {
  phase: TEST
  level: 0
  stage: ""
}
layer {
  name: "data"
  type: "Data"
  top: "data"
  top: "label"
  transform_param {
    scale: 0.00390625
  }
  data_param {
    source: "examples/imagenet/math_test_lmdb"
    batch_size: 400
    backend: LMDB
  }
}
layer {
  name: "conv1"
  type: "Convolution"
  bottom: "data"
  top: "conv1"
  param {
    lr_mult: 1
  }
  param {
    lr_mult: 2
  }
  convolution_param {
    num_output: 20
    kernel_size: 5
    stride: 1
    weight_filler {
      type: "xavier"
    }
    bias_filler {
      type: "constant"
    }
  }
}
layer {
  name: "pool1"
  type: "Pooling"
  bottom: "conv1"
  top: "pool1"
  pooling_param {
    pool: MAX
    kernel_size: 2
    stride: 2
  }
}
layer {
  name: "conv2"
  type: "Convolution"
  bottom: "pool1"
  top: "conv2"
  param {
    lr_mult: 1
  }
  param {
    lr_mult: 2
  }
  convolution_param {
    num_output: 50
    kernel_size: 5
    stride: 1
    weight_filler {
      type: "xavier"
    }
    bias_filler {
      type: "constant"
    }
  }
}
layer {
  name: "pool2"
  type: "Pooling"
  bottom: "conv2"
  top: "pool2"
  pooling_param {
    pool: MAX
    kernel_size: 2
    stride: 2
  }
}
layer {
  name: "ip1"
  type: "InnerProduct"
  bottom: "pool2"
  top: "ip1"
  param {
    lr_mult: 1
  }
  param {
    lr_mult: 2
  }
  inner_product_param {
    num_output: 500
    weight_filler {
      type: "xavier"
    }
    bias_filler {
      type: "constant"
    }
  }
}
layer {
  name: "relu1"
  type: "ReLU"
  bottom: "ip1"
  top: "ip1"
}
layer {
  name: "ip2"
  type: "InnerProduct"
  bottom: "ip1"
  top: "ip2"
  param {
    lr_mult: 1
  }
  param {
    lr_mult: 2
  }
  inner_product_param {
    num_output: 19
    weight_filler {
      type: "xavier"
    }
    bias_filler {
      type: "constant"
    }
  }
}
layer {
  name: "accuracy"
  type: "Accuracy"
  bottom: "ip2"
  bottom: "label"
  top: "accuracy"
}
layer {
  name: "loss"
  type: "SoftmaxWithLoss"
  bottom: "ip2"
  bottom: "label"
  top: "loss"
}
I1202 16:02:17.864245 2760188864 layer_factory.hpp:77] Creating layer data
I1202 16:02:17.871543 2760188864 net.cpp:100] Creating Layer data
I1202 16:02:17.871575 2760188864 net.cpp:408] data -> data
I1202 16:02:17.871608 2760188864 net.cpp:408] data -> label
I1202 16:02:17.872056 239923200 db_lmdb.cpp:35] Opened lmdb examples/imagenet/math_test_lmdb
I1202 16:02:17.872236 2760188864 data_layer.cpp:41] output data size: 400,3,32,72
I1202 16:02:17.896337 2760188864 net.cpp:150] Setting up data
I1202 16:02:17.896379 2760188864 net.cpp:157] Top shape: 400 3 32 72 (2764800)
I1202 16:02:17.896392 2760188864 net.cpp:157] Top shape: 400 (400)
I1202 16:02:17.896400 2760188864 net.cpp:165] Memory required for data: 11060800
I1202 16:02:17.896414 2760188864 layer_factory.hpp:77] Creating layer label_data_1_split
I1202 16:02:17.896436 2760188864 net.cpp:100] Creating Layer label_data_1_split
I1202 16:02:17.896445 2760188864 net.cpp:434] label_data_1_split <- label
I1202 16:02:17.896456 2760188864 net.cpp:408] label_data_1_split -> label_data_1_split_0
I1202 16:02:17.896471 2760188864 net.cpp:408] label_data_1_split -> label_data_1_split_1
I1202 16:02:17.896486 2760188864 net.cpp:150] Setting up label_data_1_split
I1202 16:02:17.896492 2760188864 net.cpp:157] Top shape: 400 (400)
I1202 16:02:17.896497 2760188864 net.cpp:157] Top shape: 400 (400)
I1202 16:02:17.896502 2760188864 net.cpp:165] Memory required for data: 11064000
I1202 16:02:17.896508 2760188864 layer_factory.hpp:77] Creating layer conv1
I1202 16:02:17.896524 2760188864 net.cpp:100] Creating Layer conv1
I1202 16:02:17.896533 2760188864 net.cpp:434] conv1 <- data
I1202 16:02:17.896543 2760188864 net.cpp:408] conv1 -> conv1
I1202 16:02:17.896687 2760188864 net.cpp:150] Setting up conv1
I1202 16:02:17.896697 2760188864 net.cpp:157] Top shape: 400 20 28 68 (15232000)
I1202 16:02:17.896710 2760188864 net.cpp:165] Memory required for data: 71992000
I1202 16:02:17.896723 2760188864 layer_factory.hpp:77] Creating layer pool1
I1202 16:02:17.896733 2760188864 net.cpp:100] Creating Layer pool1
I1202 16:02:17.896800 2760188864 net.cpp:434] pool1 <- conv1
I1202 16:02:17.896811 2760188864 net.cpp:408] pool1 -> pool1
I1202 16:02:17.896824 2760188864 net.cpp:150] Setting up pool1
I1202 16:02:17.897430 2760188864 net.cpp:157] Top shape: 400 20 14 34 (3808000)
I1202 16:02:17.897444 2760188864 net.cpp:165] Memory required for data: 87224000
I1202 16:02:17.897454 2760188864 layer_factory.hpp:77] Creating layer conv2
I1202 16:02:17.897478 2760188864 net.cpp:100] Creating Layer conv2
I1202 16:02:17.897486 2760188864 net.cpp:434] conv2 <- pool1
I1202 16:02:17.897496 2760188864 net.cpp:408] conv2 -> conv2
I1202 16:02:17.898253 2760188864 net.cpp:150] Setting up conv2
I1202 16:02:17.898273 2760188864 net.cpp:157] Top shape: 400 50 10 30 (6000000)
I1202 16:02:17.898284 2760188864 net.cpp:165] Memory required for data: 111224000
I1202 16:02:17.898296 2760188864 layer_factory.hpp:77] Creating layer pool2
I1202 16:02:17.898308 2760188864 net.cpp:100] Creating Layer pool2
I1202 16:02:17.898314 2760188864 net.cpp:434] pool2 <- conv2
I1202 16:02:17.898321 2760188864 net.cpp:408] pool2 -> pool2
I1202 16:02:17.898334 2760188864 net.cpp:150] Setting up pool2
I1202 16:02:17.898340 2760188864 net.cpp:157] Top shape: 400 50 5 15 (1500000)
I1202 16:02:17.898347 2760188864 net.cpp:165] Memory required for data: 117224000
I1202 16:02:17.898352 2760188864 layer_factory.hpp:77] Creating layer ip1
I1202 16:02:17.898362 2760188864 net.cpp:100] Creating Layer ip1
I1202 16:02:17.898367 2760188864 net.cpp:434] ip1 <- pool2
I1202 16:02:17.898375 2760188864 net.cpp:408] ip1 -> ip1
I1202 16:02:17.923846 2760188864 net.cpp:150] Setting up ip1
I1202 16:02:17.923877 2760188864 net.cpp:157] Top shape: 400 500 (200000)
I1202 16:02:17.923887 2760188864 net.cpp:165] Memory required for data: 118024000
I1202 16:02:17.923902 2760188864 layer_factory.hpp:77] Creating layer relu1
I1202 16:02:17.924053 2760188864 net.cpp:100] Creating Layer relu1
I1202 16:02:17.924063 2760188864 net.cpp:434] relu1 <- ip1
I1202 16:02:17.924073 2760188864 net.cpp:395] relu1 -> ip1 (in-place)
I1202 16:02:17.924084 2760188864 net.cpp:150] Setting up relu1
I1202 16:02:17.924090 2760188864 net.cpp:157] Top shape: 400 500 (200000)
I1202 16:02:17.924098 2760188864 net.cpp:165] Memory required for data: 118824000
I1202 16:02:17.924105 2760188864 layer_factory.hpp:77] Creating layer ip2
I1202 16:02:17.924118 2760188864 net.cpp:100] Creating Layer ip2
I1202 16:02:17.924124 2760188864 net.cpp:434] ip2 <- ip1
I1202 16:02:17.924136 2760188864 net.cpp:408] ip2 -> ip2
I1202 16:02:17.924298 2760188864 net.cpp:150] Setting up ip2
I1202 16:02:17.924304 2760188864 net.cpp:157] Top shape: 400 19 (7600)
I1202 16:02:17.924312 2760188864 net.cpp:165] Memory required for data: 118854400
I1202 16:02:17.924320 2760188864 layer_factory.hpp:77] Creating layer ip2_ip2_0_split
I1202 16:02:17.924329 2760188864 net.cpp:100] Creating Layer ip2_ip2_0_split
I1202 16:02:17.924335 2760188864 net.cpp:434] ip2_ip2_0_split <- ip2
I1202 16:02:17.924343 2760188864 net.cpp:408] ip2_ip2_0_split -> ip2_ip2_0_split_0
I1202 16:02:17.924353 2760188864 net.cpp:408] ip2_ip2_0_split -> ip2_ip2_0_split_1
I1202 16:02:17.924365 2760188864 net.cpp:150] Setting up ip2_ip2_0_split
I1202 16:02:17.924371 2760188864 net.cpp:157] Top shape: 400 19 (7600)
I1202 16:02:17.924376 2760188864 net.cpp:157] Top shape: 400 19 (7600)
I1202 16:02:17.924383 2760188864 net.cpp:165] Memory required for data: 118915200
I1202 16:02:17.924389 2760188864 layer_factory.hpp:77] Creating layer accuracy
I1202 16:02:17.924401 2760188864 net.cpp:100] Creating Layer accuracy
I1202 16:02:17.924407 2760188864 net.cpp:434] accuracy <- ip2_ip2_0_split_0
I1202 16:02:17.924413 2760188864 net.cpp:434] accuracy <- label_data_1_split_0
I1202 16:02:17.924422 2760188864 net.cpp:408] accuracy -> accuracy
…
