…
I1202 14:24:55.888317 2760188864 net.cpp:322] The NetState phase (0) differed from the phase (1) specified by a rule in layer math
I1202 14:24:55.888345 2760188864 net.cpp:322] The NetState phase (0) differed from the phase (1) specified by a rule in layer accuracy
I1202 14:24:55.888355 2760188864 net.cpp:58] Initializing net from parameters: 
name: "LeNet"
state {
  phase: TRAIN
  level: 0
  stage: ""
}
layer {
  name: "math"
  type: "Data"
  top: "data"
  top: "label"
  include {
    phase: TRAIN
  }
  transform_param {
    scale: 0.00390625
  }
  data_param {
    source: "examples/imagenet/math_train_lmdb"
    batch_size: 64
    backend: LMDB
  }
}
layer {
  name: "conv1"
  type: "Convolution"
  bottom: "data"
  top: "conv1"
  param {
    lr_mult: 1
  }
  param {
    lr_mult: 2
  }
  convolution_param {
    num_output: 20
    kernel_size: 5
    stride: 1
    weight_filler {
      type: "xavier"
    }
    bias_filler {
      type: "constant"
    }
  }
}
layer {
  name: "pool1"
  type: "Pooling"
  bottom: "conv1"
  top: "pool1"
  pooling_param {
    pool: MAX
    kernel_size: 2
    stride: 2
  }
}
layer {
  name: "conv2"
  type: "Convolution"
  bottom: "pool1"
  top: "conv2"
  param {
    lr_mult: 1
  }
  param {
    lr_mult: 2
  }
  convolution_param {
    num_output: 50
    kernel_size: 5
    stride: 1
    weight_filler {
      type: "xavier"
    }
    bias_filler {
      type: "constant"
    }
  }
}
layer {
  name: "pool2"
  type: "Pooling"
  bottom: "conv2"
  top: "pool2"
  pooling_param {
    pool: MAX
    kernel_size: 2
    stride: 2
  }
}
layer {
  name: "ip1"
  type: "InnerProduct"
  bottom: "pool2"
  top: "ip1"
  param {
    lr_mult: 1
  }
  param {
    lr_mult: 2
  }
  inner_product_param {
    num_output: 500
    weight_filler {
      type: "xavier"
    }
    bias_filler {
      type: "constant"
    }
  }
}
layer {
  name: "relu1"
  type: "ReLU"
  bottom: "ip1"
  top: "ip1"
}
layer {
  name: "ip2"
  type: "InnerProduct"
  bottom: "ip1"
  top: "ip2"
  param {
    lr_mult: 1
  }
  param {
    lr_mult: 2
  }
  inner_product_param {
    num_output: 19
    weight_filler {
      type: "xavier"
    }
    bias_filler {
      type: "constant"
    }
  }
}
layer {
  name: "loss"
  type: "SoftmaxWithLoss"
  bottom: "ip2"
  bottom: "label"
  top: "loss"
}
I1202 14:24:55.888523 2760188864 layer_factory.hpp:77] Creating layer math
I1202 14:24:55.895618 2760188864 net.cpp:100] Creating Layer math
I1202 14:24:55.895648 2760188864 net.cpp:408] math -> data
I1202 14:24:55.895674 2760188864 net.cpp:408] math -> label
I1202 14:24:55.895810 249499648 db_lmdb.cpp:35] Opened lmdb examples/imagenet/math_train_lmdb
I1202 14:24:55.895949 2760188864 data_layer.cpp:41] output data size: 64,3,32,72
I1202 14:24:55.899695 2760188864 net.cpp:150] Setting up math
I1202 14:24:55.899730 2760188864 net.cpp:157] Top shape: 64 3 32 72 (442368)
I1202 14:24:55.899741 2760188864 net.cpp:157] Top shape: 64 (64)
I1202 14:24:55.899749 2760188864 net.cpp:165] Memory required for data: 1769728
I1202 14:24:55.899763 2760188864 layer_factory.hpp:77] Creating layer conv1
I1202 14:24:55.899791 2760188864 net.cpp:100] Creating Layer conv1
I1202 14:24:55.899801 2760188864 net.cpp:434] conv1 <- data
I1202 14:24:55.899811 2760188864 net.cpp:408] conv1 -> conv1
I1202 14:24:55.899945 2760188864 net.cpp:150] Setting up conv1
I1202 14:24:55.899953 2760188864 net.cpp:157] Top shape: 64 20 28 68 (2437120)
I1202 14:24:55.899961 2760188864 net.cpp:165] Memory required for data: 11518208
I1202 14:24:55.899978 2760188864 layer_factory.hpp:77] Creating layer pool1
I1202 14:24:55.900024 2760188864 net.cpp:100] Creating Layer pool1
I1202 14:24:55.900032 2760188864 net.cpp:434] pool1 <- conv1
I1202 14:24:55.900041 2760188864 net.cpp:408] pool1 -> pool1
I1202 14:24:55.900055 2760188864 net.cpp:150] Setting up pool1
I1202 14:24:55.900063 2760188864 net.cpp:157] Top shape: 64 20 14 34 (609280)
I1202 14:24:55.900073 2760188864 net.cpp:165] Memory required for data: 13955328
I1202 14:24:55.900079 2760188864 layer_factory.hpp:77] Creating layer conv2
I1202 14:24:55.900092 2760188864 net.cpp:100] Creating Layer conv2
I1202 14:24:55.900099 2760188864 net.cpp:434] conv2 <- pool1
I1202 14:24:55.900113 2760188864 net.cpp:408] conv2 -> conv2
I1202 14:24:55.900486 2760188864 net.cpp:150] Setting up conv2
I1202 14:24:55.900501 2760188864 net.cpp:157] Top shape: 64 50 10 30 (960000)
I1202 14:24:55.900511 2760188864 net.cpp:165] Memory required for data: 17795328
I1202 14:24:55.900521 2760188864 layer_factory.hpp:77] Creating layer pool2
I1202 14:24:55.900535 2760188864 net.cpp:100] Creating Layer pool2
I1202 14:24:55.900543 2760188864 net.cpp:434] pool2 <- conv2
I1202 14:24:55.900552 2760188864 net.cpp:408] pool2 -> pool2
I1202 14:24:55.900563 2760188864 net.cpp:150] Setting up pool2
I1202 14:24:55.900569 2760188864 net.cpp:157] Top shape: 64 50 5 15 (240000)
I1202 14:24:55.900578 2760188864 net.cpp:165] Memory required for data: 18755328
I1202 14:24:55.900583 2760188864 layer_factory.hpp:77] Creating layer ip1
I1202 14:24:55.900593 2760188864 net.cpp:100] Creating Layer ip1
I1202 14:24:55.900599 2760188864 net.cpp:434] ip1 <- pool2
I1202 14:24:55.900609 2760188864 net.cpp:408] ip1 -> ip1
I1202 14:24:55.919124 2760188864 net.cpp:150] Setting up ip1
I1202 14:24:55.919147 2760188864 net.cpp:157] Top shape: 64 500 (32000)
I1202 14:24:55.919157 2760188864 net.cpp:165] Memory required for data: 18883328
I1202 14:24:55.919167 2760188864 layer_factory.hpp:77] Creating layer relu1
I1202 14:24:55.919184 2760188864 net.cpp:100] Creating Layer relu1
I1202 14:24:55.919193 2760188864 net.cpp:434] relu1 <- ip1
I1202 14:24:55.919200 2760188864 net.cpp:395] relu1 -> ip1 (in-place)
I1202 14:24:55.919212 2760188864 net.cpp:150] Setting up relu1
I1202 14:24:55.919219 2760188864 net.cpp:157] Top shape: 64 500 (32000)
I1202 14:24:55.919226 2760188864 net.cpp:165] Memory required for data: 19011328
I1202 14:24:55.919232 2760188864 layer_factory.hpp:77] Creating layer ip2
I1202 14:24:55.919241 2760188864 net.cpp:100] Creating Layer ip2
I1202 14:24:55.919245 2760188864 net.cpp:434] ip2 <- ip1
I1202 14:24:55.919260 2760188864 net.cpp:408] ip2 -> ip2
I1202 14:24:55.919411 2760188864 net.cpp:150] Setting up ip2
I1202 14:24:55.919421 2760188864 net.cpp:157] Top shape: 64 19 (1216)
I1202 14:24:55.919430 2760188864 net.cpp:165] Memory required for data: 19016192
I1202 14:24:55.919437 2760188864 layer_factory.hpp:77] Creating layer loss
I1202 14:24:55.919452 2760188864 net.cpp:100] Creating Layer loss
I1202 14:24:55.919458 2760188864 net.cpp:434] loss <- ip2
I1202 14:24:55.919462 2760188864 net.cpp:434] loss <- label
I1202 14:24:55.919468 2760188864 net.cpp:408] loss -> loss
…
I1202 14:24:55.919879 2760188864 solver.cpp:181] Creating test net (#0) specified by net file: examples/mnist/lenet_train_math_test_withoutBN.prototxt
I1202 14:24:55.919905 2760188864 net.cpp:322] The NetState phase (1) differed from the phase (0) specified by a rule in layer math
I1202 14:24:55.919919 2760188864 net.cpp:58] Initializing net from parameters: 
name: "LeNet"
state {
  phase: TEST
}
layer {
  name: "math"
  type: "Data"
  top: "data"
  top: "label"
  include {
    phase: TEST
  }
  transform_param {
    scale: 0.00390625
  }
  data_param {
    source: "examples/imagenet/math_train2_lmdb"
    batch_size: 960
    backend: LMDB
  }
}
layer {
  name: "conv1"
  type: "Convolution"
  bottom: "data"
  top: "conv1"
  param {
    lr_mult: 1
  }
  param {
    lr_mult: 2
  }
  convolution_param {
    num_output: 20
    kernel_size: 5
    stride: 1
    weight_filler {
      type: "xavier"
    }
    bias_filler {
      type: "constant"
    }
  }
}
layer {
  name: "pool1"
  type: "Pooling"
  bottom: "conv1"
  top: "pool1"
  pooling_param {
    pool: MAX
    kernel_size: 2
    stride: 2
  }
}
layer {
  name: "conv2"
  type: "Convolution"
  bottom: "pool1"
  top: "conv2"
  param {
    lr_mult: 1
  }
  param {
    lr_mult: 2
  }
  convolution_param {
    num_output: 50
    kernel_size: 5
    stride: 1
    weight_filler {
      type: "xavier"
    }
    bias_filler {
      type: "constant"
    }
  }
}
layer {
  name: "pool2"
  type: "Pooling"
  bottom: "conv2"
  top: "pool2"
  pooling_param {
    pool: MAX
    kernel_size: 2
    stride: 2
  }
}
layer {
  name: "ip1"
  type: "InnerProduct"
  bottom: "pool2"
  top: "ip1"
  param {
    lr_mult: 1
  }
  param {
    lr_mult: 2
  }
  inner_product_param {
    num_output: 500
    weight_filler {
      type: "xavier"
    }
    bias_filler {
      type: "constant"
    }
  }
}
layer {
  name: "relu1"
  type: "ReLU"
  bottom: "ip1"
  top: "ip1"
}
layer {
  name: "ip2"
  type: "InnerProduct"
  bottom: "ip1"
  top: "ip2"
  param {
    lr_mult: 1
  }
  param {
    lr_mult: 2
  }
  inner_product_param {
    num_output: 19
    weight_filler {
      type: "xavier"
    }
    bias_filler {
      type: "constant"
    }
  }
}
layer {
  name: "accuracy"
  type: "Accuracy"
  bottom: "ip2"
  bottom: "label"
  top: "accuracy"
  include {
    phase: TEST
  }
}
layer {
  name: "loss"
  type: "SoftmaxWithLoss"
  bottom: "ip2"
  bottom: "label"
  top: "loss"
}
I1202 14:24:55.920064 2760188864 layer_factory.hpp:77] Creating layer math
I1202 14:24:55.920753 2760188864 net.cpp:100] Creating Layer math
I1202 14:24:55.920785 2760188864 net.cpp:408] math -> data
I1202 14:24:55.920814 2760188864 net.cpp:408] math -> label
I1202 14:24:55.920893 250572800 db_lmdb.cpp:35] Opened lmdb examples/imagenet/math_train2_lmdb
I1202 14:24:55.920950 2760188864 data_layer.cpp:41] output data size: 960,3,32,72
I1202 14:24:55.975801 2760188864 net.cpp:150] Setting up math
I1202 14:24:55.975920 2760188864 net.cpp:157] Top shape: 960 3 32 72 (6635520)
I1202 14:24:55.975960 2760188864 net.cpp:157] Top shape: 960 (960)
I1202 14:24:55.975986 2760188864 net.cpp:165] Memory required for data: 26545920
I1202 14:24:55.976012 2760188864 layer_factory.hpp:77] Creating layer label_math_1_split
I1202 14:24:55.976090 2760188864 net.cpp:100] Creating Layer label_math_1_split
I1202 14:24:55.976119 2760188864 net.cpp:434] label_math_1_split <- label
I1202 14:24:55.976148 2760188864 net.cpp:408] label_math_1_split -> label_math_1_split_0
I1202 14:24:55.976182 2760188864 net.cpp:408] label_math_1_split -> label_math_1_split_1
I1202 14:24:55.976205 2760188864 net.cpp:150] Setting up label_math_1_split
I1202 14:24:55.976256 2760188864 net.cpp:157] Top shape: 960 (960)
I1202 14:24:55.976294 2760188864 net.cpp:157] Top shape: 960 (960)
I1202 14:24:55.976302 2760188864 net.cpp:165] Memory required for data: 26553600
I1202 14:24:55.976358 2760188864 layer_factory.hpp:77] Creating layer conv1
I1202 14:24:55.976382 2760188864 net.cpp:100] Creating Layer conv1
I1202 14:24:55.976389 2760188864 net.cpp:434] conv1 <- data
I1202 14:24:55.976399 2760188864 net.cpp:408] conv1 -> conv1
I1202 14:24:55.976505 2760188864 net.cpp:150] Setting up conv1
I1202 14:24:55.976526 2760188864 net.cpp:157] Top shape: 960 20 28 68 (36556800)
I1202 14:24:55.976575 2760188864 net.cpp:165] Memory required for data: 172780800
I1202 14:24:55.976604 2760188864 layer_factory.hpp:77] Creating layer pool1
I1202 14:24:55.976646 2760188864 net.cpp:100] Creating Layer pool1
I1202 14:24:55.976657 2760188864 net.cpp:434] pool1 <- conv1
I1202 14:24:55.976688 2760188864 net.cpp:408] pool1 -> pool1
I1202 14:24:55.976724 2760188864 net.cpp:150] Setting up pool1
I1202 14:24:55.976732 2760188864 net.cpp:157] Top shape: 960 20 14 34 (9139200)
I1202 14:24:55.976799 2760188864 net.cpp:165] Memory required for data: 209337600
I1202 14:24:55.976861 2760188864 layer_factory.hpp:77] Creating layer conv2
I1202 14:24:55.976903 2760188864 net.cpp:100] Creating Layer conv2
I1202 14:24:55.976982 2760188864 net.cpp:434] conv2 <- pool1
I1202 14:24:55.977023 2760188864 net.cpp:408] conv2 -> conv2
I1202 14:24:55.977358 2760188864 net.cpp:150] Setting up conv2
I1202 14:24:55.977370 2760188864 net.cpp:157] Top shape: 960 50 10 30 (14400000)
I1202 14:24:55.977381 2760188864 net.cpp:165] Memory required for data: 266937600
I1202 14:24:55.977474 2760188864 layer_factory.hpp:77] Creating layer pool2
I1202 14:24:55.977511 2760188864 net.cpp:100] Creating Layer pool2
I1202 14:24:55.977537 2760188864 net.cpp:434] pool2 <- conv2
I1202 14:24:55.977562 2760188864 net.cpp:408] pool2 -> pool2
I1202 14:24:55.977615 2760188864 net.cpp:150] Setting up pool2
I1202 14:24:55.977628 2760188864 net.cpp:157] Top shape: 960 50 5 15 (3600000)
I1202 14:24:55.977660 2760188864 net.cpp:165] Memory required for data: 281337600
I1202 14:24:55.977682 2760188864 layer_factory.hpp:77] Creating layer ip1
I1202 14:24:55.977725 2760188864 net.cpp:100] Creating Layer ip1
I1202 14:24:55.977757 2760188864 net.cpp:434] ip1 <- pool2
I1202 14:24:55.977771 2760188864 net.cpp:408] ip1 -> ip1
I1202 14:24:56.004494 2760188864 net.cpp:150] Setting up ip1
I1202 14:24:56.004531 2760188864 net.cpp:157] Top shape: 960 500 (480000)
I1202 14:24:56.004549 2760188864 net.cpp:165] Memory required for data: 283257600
I1202 14:24:56.004566 2760188864 layer_factory.hpp:77] Creating layer relu1
I1202 14:24:56.004583 2760188864 net.cpp:100] Creating Layer relu1
I1202 14:24:56.004617 2760188864 net.cpp:434] relu1 <- ip1
I1202 14:24:56.004662 2760188864 net.cpp:395] relu1 -> ip1 (in-place)
I1202 14:24:56.004690 2760188864 net.cpp:150] Setting up relu1
I1202 14:24:56.004710 2760188864 net.cpp:157] Top shape: 960 500 (480000)
I1202 14:24:56.004747 2760188864 net.cpp:165] Memory required for data: 285177600
I1202 14:24:56.004765 2760188864 layer_factory.hpp:77] Creating layer ip2
I1202 14:24:56.004786 2760188864 net.cpp:100] Creating Layer ip2
I1202 14:24:56.004802 2760188864 net.cpp:434] ip2 <- ip1
I1202 14:24:56.004825 2760188864 net.cpp:408] ip2 -> ip2
I1202 14:24:56.005036 2760188864 net.cpp:150] Setting up ip2
I1202 14:24:56.005048 2760188864 net.cpp:157] Top shape: 960 19 (18240)
I1202 14:24:56.005055 2760188864 net.cpp:165] Memory required for data: 285250560
I1202 14:24:56.005064 2760188864 layer_factory.hpp:77] Creating layer ip2_ip2_0_split
I1202 14:24:56.005096 2760188864 net.cpp:100] Creating Layer ip2_ip2_0_split
I1202 14:24:56.005136 2760188864 net.cpp:434] ip2_ip2_0_split <- ip2
I1202 14:24:56.005151 2760188864 net.cpp:408] ip2_ip2_0_split -> ip2_ip2_0_split_0
I1202 14:24:56.005164 2760188864 net.cpp:408] ip2_ip2_0_split -> ip2_ip2_0_split_1
I1202 14:24:56.005189 2760188864 net.cpp:150] Setting up ip2_ip2_0_split
I1202 14:24:56.005198 2760188864 net.cpp:157] Top shape: 960 19 (18240)
I1202 14:24:56.005208 2760188864 net.cpp:157] Top shape: 960 19 (18240)
I1202 14:24:56.005214 2760188864 net.cpp:165] Memory required for data: 285396480
I1202 14:24:56.005247 2760188864 layer_factory.hpp:77] Creating layer accuracy
I1202 14:24:56.005259 2760188864 net.cpp:100] Creating Layer accuracy
I1202 14:24:56.005265 2760188864 net.cpp:434] accuracy <- ip2_ip2_0_split_0
I1202 14:24:56.005302 2760188864 net.cpp:434] accuracy <- label_math_1_split_0
I1202 14:24:56.005331 2760188864 net.cpp:408] accuracy -> accuracy
…
