…
I1202 15:45:04.854620 2760188864 net.cpp:322] The NetState phase (0) differed from the phase (1) specified by a rule in layer math
I1202 15:45:04.854646 2760188864 net.cpp:322] The NetState phase (0) differed from the phase (1) specified by a rule in layer accuracy
I1202 15:45:04.854656 2760188864 net.cpp:58] Initializing net from parameters: 
name: "LeNet"
state {
  phase: TRAIN
  level: 0
  stage: ""
}
layer {
  name: "math"
  type: "Data"
  top: "data"
  top: "label"
  include {
    phase: TRAIN
  }
  transform_param {
    scale: 0.00390625
  }
  data_param {
    source: "examples/imagenet/math_train_lmdb"
    batch_size: 64
    backend: LMDB
  }
}
layer {
  name: "conv1"
  type: "Convolution"
  bottom: "data"
  top: "conv1"
  param {
    lr_mult: 1
  }
  param {
    lr_mult: 2
  }
  convolution_param {
    num_output: 20
    kernel_size: 5
    stride: 1
    weight_filler {
      type: "xavier"
    }
    bias_filler {
      type: "constant"
    }
  }
}
layer {
  name: "pool1"
  type: "Pooling"
  bottom: "conv1"
  top: "pool1"
  pooling_param {
    pool: MAX
    kernel_size: 2
    stride: 2
  }
}
layer {
  name: "conv2"
  type: "Convolution"
  bottom: "pool1"
  top: "conv2"
  param {
    lr_mult: 1
  }
  param {
    lr_mult: 2
  }
  convolution_param {
    num_output: 50
    kernel_size: 5
    stride: 1
    weight_filler {
      type: "xavier"
    }
    bias_filler {
      type: "constant"
    }
  }
}
layer {
  name: "pool2"
  type: "Pooling"
  bottom: "conv2"
  top: "pool2"
  pooling_param {
    pool: MAX
    kernel_size: 2
    stride: 2
  }
}
layer {
  name: "ip1"
  type: "InnerProduct"
  bottom: "pool2"
  top: "ip1"
  param {
    lr_mult: 1
  }
  param {
    lr_mult: 2
  }
  inner_product_param {
    num_output: 500
    weight_filler {
      type: "xavier"
    }
    bias_filler {
      type: "constant"
    }
  }
}
layer {
  name: "relu1"
  type: "ReLU"
  bottom: "ip1"
  top: "ip1"
}
layer {
  name: "ip2"
  type: "InnerProduct"
  bottom: "ip1"
  top: "ip2"
  param {
    lr_mult: 1
  }
  param {
    lr_mult: 2
  }
  inner_product_param {
    num_output: 19
    weight_filler {
      type: "xavier"
    }
    bias_filler {
      type: "constant"
    }
  }
}
layer {
  name: "loss"
  type: "SoftmaxWithLoss"
  bottom: "ip2"
  bottom: "label"
  top: "loss"
}
I1202 15:45:04.854881 2760188864 layer_factory.hpp:77] Creating layer math
I1202 15:45:04.861742 2760188864 net.cpp:100] Creating Layer math
I1202 15:45:04.861775 2760188864 net.cpp:408] math -> data
I1202 15:45:04.861804 2760188864 net.cpp:408] math -> label
I1202 15:45:04.862049 48074752 db_lmdb.cpp:35] Opened lmdb examples/imagenet/math_train_lmdb
I1202 15:45:04.863517 2760188864 data_layer.cpp:41] output data size: 64,3,32,72
I1202 15:45:04.866976 2760188864 net.cpp:150] Setting up math
I1202 15:45:04.866997 2760188864 net.cpp:157] Top shape: 64 3 32 72 (442368)
I1202 15:45:04.867007 2760188864 net.cpp:157] Top shape: 64 (64)
I1202 15:45:04.867015 2760188864 net.cpp:165] Memory required for data: 1769728
I1202 15:45:04.867027 2760188864 layer_factory.hpp:77] Creating layer conv1
I1202 15:45:04.867050 2760188864 net.cpp:100] Creating Layer conv1
I1202 15:45:04.867058 2760188864 net.cpp:434] conv1 <- data
I1202 15:45:04.867066 2760188864 net.cpp:408] conv1 -> conv1
I1202 15:45:04.867197 2760188864 net.cpp:150] Setting up conv1
I1202 15:45:04.867207 2760188864 net.cpp:157] Top shape: 64 20 28 68 (2437120)
I1202 15:45:04.867214 2760188864 net.cpp:165] Memory required for data: 11518208
I1202 15:45:04.867225 2760188864 layer_factory.hpp:77] Creating layer pool1
I1202 15:45:04.867265 2760188864 net.cpp:100] Creating Layer pool1
I1202 15:45:04.867271 2760188864 net.cpp:434] pool1 <- conv1
I1202 15:45:04.867280 2760188864 net.cpp:408] pool1 -> pool1
I1202 15:45:04.867293 2760188864 net.cpp:150] Setting up pool1
I1202 15:45:04.867300 2760188864 net.cpp:157] Top shape: 64 20 14 34 (609280)
I1202 15:45:04.867306 2760188864 net.cpp:165] Memory required for data: 13955328
I1202 15:45:04.867312 2760188864 layer_factory.hpp:77] Creating layer conv2
I1202 15:45:04.867327 2760188864 net.cpp:100] Creating Layer conv2
I1202 15:45:04.867333 2760188864 net.cpp:434] conv2 <- pool1
I1202 15:45:04.867342 2760188864 net.cpp:408] conv2 -> conv2
I1202 15:45:04.867728 2760188864 net.cpp:150] Setting up conv2
I1202 15:45:04.867736 2760188864 net.cpp:157] Top shape: 64 50 10 30 (960000)
I1202 15:45:04.867744 2760188864 net.cpp:165] Memory required for data: 17795328
I1202 15:45:04.867754 2760188864 layer_factory.hpp:77] Creating layer pool2
I1202 15:45:04.867763 2760188864 net.cpp:100] Creating Layer pool2
I1202 15:45:04.867769 2760188864 net.cpp:434] pool2 <- conv2
I1202 15:45:04.867776 2760188864 net.cpp:408] pool2 -> pool2
I1202 15:45:04.867789 2760188864 net.cpp:150] Setting up pool2
I1202 15:45:04.867794 2760188864 net.cpp:157] Top shape: 64 50 5 15 (240000)
I1202 15:45:04.867801 2760188864 net.cpp:165] Memory required for data: 18755328
I1202 15:45:04.867807 2760188864 layer_factory.hpp:77] Creating layer ip1
I1202 15:45:04.867816 2760188864 net.cpp:100] Creating Layer ip1
I1202 15:45:04.867822 2760188864 net.cpp:434] ip1 <- pool2
I1202 15:45:04.867835 2760188864 net.cpp:408] ip1 -> ip1
I1202 15:45:04.888216 2760188864 net.cpp:150] Setting up ip1
I1202 15:45:04.888254 2760188864 net.cpp:157] Top shape: 64 500 (32000)
I1202 15:45:04.888268 2760188864 net.cpp:165] Memory required for data: 18883328
I1202 15:45:04.888286 2760188864 layer_factory.hpp:77] Creating layer relu1
I1202 15:45:04.888310 2760188864 net.cpp:100] Creating Layer relu1
I1202 15:45:04.888319 2760188864 net.cpp:434] relu1 <- ip1
I1202 15:45:04.888329 2760188864 net.cpp:395] relu1 -> ip1 (in-place)
I1202 15:45:04.888341 2760188864 net.cpp:150] Setting up relu1
I1202 15:45:04.888347 2760188864 net.cpp:157] Top shape: 64 500 (32000)
I1202 15:45:04.888355 2760188864 net.cpp:165] Memory required for data: 19011328
I1202 15:45:04.888360 2760188864 layer_factory.hpp:77] Creating layer ip2
I1202 15:45:04.888370 2760188864 net.cpp:100] Creating Layer ip2
I1202 15:45:04.888375 2760188864 net.cpp:434] ip2 <- ip1
I1202 15:45:04.888384 2760188864 net.cpp:408] ip2 -> ip2
I1202 15:45:04.888538 2760188864 net.cpp:150] Setting up ip2
I1202 15:45:04.888547 2760188864 net.cpp:157] Top shape: 64 19 (1216)
I1202 15:45:04.888555 2760188864 net.cpp:165] Memory required for data: 19016192
I1202 15:45:04.888562 2760188864 layer_factory.hpp:77] Creating layer loss
I1202 15:45:04.888581 2760188864 net.cpp:100] Creating Layer loss
I1202 15:45:04.888591 2760188864 net.cpp:434] loss <- ip2
I1202 15:45:04.888600 2760188864 net.cpp:434] loss <- label
I1202 15:45:04.888610 2760188864 net.cpp:408] loss -> loss
…
I1202 15:45:04.889088 2760188864 solver.cpp:181] Creating test net (#0) specified by net file: examples/mnist/lenet_train_math_test_withoutBN.prototxt
I1202 15:45:04.889127 2760188864 net.cpp:322] The NetState phase (1) differed from the phase (0) specified by a rule in layer math
I1202 15:45:04.889147 2760188864 net.cpp:58] Initializing net from parameters: 
name: "LeNet"
state {
  phase: TEST
}
layer {
  name: "math"
  type: "Data"
  top: "data"
  top: "label"
  include {
    phase: TEST
  }
  transform_param {
    scale: 0.00390625
  }
  data_param {
    source: "examples/imagenet/math_test_lmdb"
    batch_size: 400
    backend: LMDB
  }
}
layer {
  name: "conv1"
  type: "Convolution"
  bottom: "data"
  top: "conv1"
  param {
    lr_mult: 1
  }
  param {
    lr_mult: 2
  }
  convolution_param {
    num_output: 20
    kernel_size: 5
    stride: 1
    weight_filler {
      type: "xavier"
    }
    bias_filler {
      type: "constant"
    }
  }
}
layer {
  name: "pool1"
  type: "Pooling"
  bottom: "conv1"
  top: "pool1"
  pooling_param {
    pool: MAX
    kernel_size: 2
    stride: 2
  }
}
layer {
  name: "conv2"
  type: "Convolution"
  bottom: "pool1"
  top: "conv2"
  param {
    lr_mult: 1
  }
  param {
    lr_mult: 2
  }
  convolution_param {
    num_output: 50
    kernel_size: 5
    stride: 1
    weight_filler {
      type: "xavier"
    }
    bias_filler {
      type: "constant"
    }
  }
}
layer {
  name: "pool2"
  type: "Pooling"
  bottom: "conv2"
  top: "pool2"
  pooling_param {
    pool: MAX
    kernel_size: 2
    stride: 2
  }
}
layer {
  name: "ip1"
  type: "InnerProduct"
  bottom: "pool2"
  top: "ip1"
  param {
    lr_mult: 1
  }
  param {
    lr_mult: 2
  }
  inner_product_param {
    num_output: 500
    weight_filler {
      type: "xavier"
    }
    bias_filler {
      type: "constant"
    }
  }
}
layer {
  name: "relu1"
  type: "ReLU"
  bottom: "ip1"
  top: "ip1"
}
layer {
  name: "ip2"
  type: "InnerProduct"
  bottom: "ip1"
  top: "ip2"
  param {
    lr_mult: 1
  }
  param {
    lr_mult: 2
  }
  inner_product_param {
    num_output: 19
    weight_filler {
      type: "xavier"
    }
    bias_filler {
      type: "constant"
    }
  }
}
layer {
  name: "accuracy"
  type: "Accuracy"
  bottom: "ip2"
  bottom: "label"
  top: "accuracy"
  include {
    phase: TEST
  }
}
layer {
  name: "loss"
  type: "SoftmaxWithLoss"
  bottom: "ip2"
  bottom: "label"
  top: "loss"
}
I1202 15:45:04.889325 2760188864 layer_factory.hpp:77] Creating layer math
I1202 15:45:04.889736 2760188864 net.cpp:100] Creating Layer math
I1202 15:45:04.889750 2760188864 net.cpp:408] math -> data
I1202 15:45:04.889763 2760188864 net.cpp:408] math -> label
I1202 15:45:04.890694 49147904 db_lmdb.cpp:35] Opened lmdb examples/imagenet/math_test_lmdb
I1202 15:45:04.891312 2760188864 data_layer.cpp:41] output data size: 400,3,32,72
I1202 15:45:04.912768 2760188864 net.cpp:150] Setting up math
I1202 15:45:04.912807 2760188864 net.cpp:157] Top shape: 400 3 32 72 (2764800)
I1202 15:45:04.912839 2760188864 net.cpp:157] Top shape: 400 (400)
I1202 15:45:04.912869 2760188864 net.cpp:165] Memory required for data: 11060800
I1202 15:45:04.912883 2760188864 layer_factory.hpp:77] Creating layer label_math_1_split
I1202 15:45:04.912904 2760188864 net.cpp:100] Creating Layer label_math_1_split
I1202 15:45:04.912914 2760188864 net.cpp:434] label_math_1_split <- label
I1202 15:45:04.912922 2760188864 net.cpp:408] label_math_1_split -> label_math_1_split_0
I1202 15:45:04.912935 2760188864 net.cpp:408] label_math_1_split -> label_math_1_split_1
I1202 15:45:04.912947 2760188864 net.cpp:150] Setting up label_math_1_split
I1202 15:45:04.912953 2760188864 net.cpp:157] Top shape: 400 (400)
I1202 15:45:04.912959 2760188864 net.cpp:157] Top shape: 400 (400)
I1202 15:45:04.912966 2760188864 net.cpp:165] Memory required for data: 11064000
I1202 15:45:04.913033 2760188864 layer_factory.hpp:77] Creating layer conv1
I1202 15:45:04.913058 2760188864 net.cpp:100] Creating Layer conv1
I1202 15:45:04.913066 2760188864 net.cpp:434] conv1 <- data
I1202 15:45:04.913079 2760188864 net.cpp:408] conv1 -> conv1
I1202 15:45:04.913161 2760188864 net.cpp:150] Setting up conv1
I1202 15:45:04.913172 2760188864 net.cpp:157] Top shape: 400 20 28 68 (15232000)
I1202 15:45:04.913193 2760188864 net.cpp:165] Memory required for data: 71992000
I1202 15:45:04.913206 2760188864 layer_factory.hpp:77] Creating layer pool1
I1202 15:45:04.913215 2760188864 net.cpp:100] Creating Layer pool1
I1202 15:45:04.913221 2760188864 net.cpp:434] pool1 <- conv1
I1202 15:45:04.913230 2760188864 net.cpp:408] pool1 -> pool1
I1202 15:45:04.913244 2760188864 net.cpp:150] Setting up pool1
I1202 15:45:04.913250 2760188864 net.cpp:157] Top shape: 400 20 14 34 (3808000)
I1202 15:45:04.913259 2760188864 net.cpp:165] Memory required for data: 87224000
I1202 15:45:04.913287 2760188864 layer_factory.hpp:77] Creating layer conv2
I1202 15:45:04.913305 2760188864 net.cpp:100] Creating Layer conv2
I1202 15:45:04.913312 2760188864 net.cpp:434] conv2 <- pool1
I1202 15:45:04.913322 2760188864 net.cpp:408] conv2 -> conv2
I1202 15:45:04.913749 2760188864 net.cpp:150] Setting up conv2
I1202 15:45:04.913760 2760188864 net.cpp:157] Top shape: 400 50 10 30 (6000000)
I1202 15:45:04.913769 2760188864 net.cpp:165] Memory required for data: 111224000
I1202 15:45:04.913785 2760188864 layer_factory.hpp:77] Creating layer pool2
I1202 15:45:04.913796 2760188864 net.cpp:100] Creating Layer pool2
I1202 15:45:04.913805 2760188864 net.cpp:434] pool2 <- conv2
I1202 15:45:04.913815 2760188864 net.cpp:408] pool2 -> pool2
I1202 15:45:04.913853 2760188864 net.cpp:150] Setting up pool2
I1202 15:45:04.913863 2760188864 net.cpp:157] Top shape: 400 50 5 15 (1500000)
I1202 15:45:04.913872 2760188864 net.cpp:165] Memory required for data: 117224000
I1202 15:45:04.913878 2760188864 layer_factory.hpp:77] Creating layer ip1
I1202 15:45:04.913889 2760188864 net.cpp:100] Creating Layer ip1
I1202 15:45:04.913897 2760188864 net.cpp:434] ip1 <- pool2
I1202 15:45:04.913905 2760188864 net.cpp:408] ip1 -> ip1
I1202 15:45:04.948868 2760188864 net.cpp:150] Setting up ip1
I1202 15:45:04.948958 2760188864 net.cpp:157] Top shape: 400 500 (200000)
I1202 15:45:04.948990 2760188864 net.cpp:165] Memory required for data: 118024000
I1202 15:45:04.949031 2760188864 layer_factory.hpp:77] Creating layer relu1
I1202 15:45:04.949064 2760188864 net.cpp:100] Creating Layer relu1
I1202 15:45:04.949077 2760188864 net.cpp:434] relu1 <- ip1
I1202 15:45:04.949095 2760188864 net.cpp:395] relu1 -> ip1 (in-place)
I1202 15:45:04.949170 2760188864 net.cpp:150] Setting up relu1
I1202 15:45:04.949193 2760188864 net.cpp:157] Top shape: 400 500 (200000)
I1202 15:45:04.949209 2760188864 net.cpp:165] Memory required for data: 118824000
I1202 15:45:04.949218 2760188864 layer_factory.hpp:77] Creating layer ip2
I1202 15:45:04.949244 2760188864 net.cpp:100] Creating Layer ip2
I1202 15:45:04.949257 2760188864 net.cpp:434] ip2 <- ip1
I1202 15:45:04.949280 2760188864 net.cpp:408] ip2 -> ip2
I1202 15:45:04.949515 2760188864 net.cpp:150] Setting up ip2
I1202 15:45:04.949532 2760188864 net.cpp:157] Top shape: 400 19 (7600)
I1202 15:45:04.949542 2760188864 net.cpp:165] Memory required for data: 118854400
I1202 15:45:04.949555 2760188864 layer_factory.hpp:77] Creating layer ip2_ip2_0_split
I1202 15:45:04.949570 2760188864 net.cpp:100] Creating Layer ip2_ip2_0_split
I1202 15:45:04.949579 2760188864 net.cpp:434] ip2_ip2_0_split <- ip2
I1202 15:45:04.949596 2760188864 net.cpp:408] ip2_ip2_0_split -> ip2_ip2_0_split_0
I1202 15:45:04.949612 2760188864 net.cpp:408] ip2_ip2_0_split -> ip2_ip2_0_split_1
I1202 15:45:04.949630 2760188864 net.cpp:150] Setting up ip2_ip2_0_split
I1202 15:45:04.949637 2760188864 net.cpp:157] Top shape: 400 19 (7600)
I1202 15:45:04.949645 2760188864 net.cpp:157] Top shape: 400 19 (7600)
I1202 15:45:04.949653 2760188864 net.cpp:165] Memory required for data: 118915200
I1202 15:45:04.949726 2760188864 layer_factory.hpp:77] Creating layer accuracy
I1202 15:45:04.949743 2760188864 net.cpp:100] Creating Layer accuracy
I1202 15:45:04.949750 2760188864 net.cpp:434] accuracy <- ip2_ip2_0_split_0
I1202 15:45:04.949759 2760188864 net.cpp:434] accuracy <- label_math_1_split_0
I1202 15:45:04.949770 2760188864 net.cpp:408] accuracy -> accuracy
…
