…
I1202 15:26:16.935662 2760188864 net.cpp:322] The NetState phase (0) differed from the phase (1) specified by a rule in layer math
I1202 15:26:16.935688 2760188864 net.cpp:322] The NetState phase (0) differed from the phase (1) specified by a rule in layer accuracy
I1202 15:26:16.935700 2760188864 net.cpp:58] Initializing net from parameters: 
name: "LeNet"
state {
  phase: TRAIN
  level: 0
  stage: ""
}
layer {
  name: "math"
  type: "Data"
  top: "data"
  top: "label"
  include {
    phase: TRAIN
  }
  transform_param {
    scale: 0.00390625
  }
  data_param {
    source: "examples/imagenet/math_train_lmdb"
    batch_size: 64
    backend: LMDB
  }
}
layer {
  name: "conv1"
  type: "Convolution"
  bottom: "data"
  top: "conv1"
  param {
    lr_mult: 1
  }
  param {
    lr_mult: 2
  }
  convolution_param {
    num_output: 20
    kernel_size: 5
    stride: 1
    weight_filler {
      type: "xavier"
    }
    bias_filler {
      type: "constant"
    }
  }
}
layer {
  name: "pool1"
  type: "Pooling"
  bottom: "conv1"
  top: "pool1"
  pooling_param {
    pool: MAX
    kernel_size: 2
    stride: 2
  }
}
layer {
  name: "conv2"
  type: "Convolution"
  bottom: "pool1"
  top: "conv2"
  param {
    lr_mult: 1
  }
  param {
    lr_mult: 2
  }
  convolution_param {
    num_output: 50
    kernel_size: 5
    stride: 1
    weight_filler {
      type: "xavier"
    }
    bias_filler {
      type: "constant"
    }
  }
}
layer {
  name: "pool2"
  type: "Pooling"
  bottom: "conv2"
  top: "pool2"
  pooling_param {
    pool: MAX
    kernel_size: 2
    stride: 2
  }
}
layer {
  name: "ip1"
  type: "InnerProduct"
  bottom: "pool2"
  top: "ip1"
  param {
    lr_mult: 1
  }
  param {
    lr_mult: 2
  }
  inner_product_param {
    num_output: 500
    weight_filler {
      type: "xavier"
    }
    bias_filler {
      type: "constant"
    }
  }
}
layer {
  name: "relu1"
  type: "ReLU"
  bottom: "ip1"
  top: "ip1"
}
layer {
  name: "ip2"
  type: "InnerProduct"
  bottom: "ip1"
  top: "ip2"
  param {
    lr_mult: 1
  }
  param {
    lr_mult: 2
  }
  inner_product_param {
    num_output: 19
    weight_filler {
      type: "xavier"
    }
    bias_filler {
      type: "constant"
    }
  }
}
layer {
  name: "loss"
  type: "SoftmaxWithLoss"
  bottom: "ip2"
  bottom: "label"
  top: "loss"
}
I1202 15:26:16.935865 2760188864 layer_factory.hpp:77] Creating layer math
I1202 15:26:16.942976 2760188864 net.cpp:100] Creating Layer math
I1202 15:26:16.943003 2760188864 net.cpp:408] math -> data
I1202 15:26:16.943033 2760188864 net.cpp:408] math -> label
I1202 15:26:16.943353 23949312 db_lmdb.cpp:35] Opened lmdb examples/imagenet/math_train_lmdb
I1202 15:26:16.943805 2760188864 data_layer.cpp:41] output data size: 64,3,32,72
I1202 15:26:16.947494 2760188864 net.cpp:150] Setting up math
I1202 15:26:16.947523 2760188864 net.cpp:157] Top shape: 64 3 32 72 (442368)
I1202 15:26:16.947540 2760188864 net.cpp:157] Top shape: 64 (64)
I1202 15:26:16.947547 2760188864 net.cpp:165] Memory required for data: 1769728
I1202 15:26:16.947561 2760188864 layer_factory.hpp:77] Creating layer conv1
I1202 15:26:16.947585 2760188864 net.cpp:100] Creating Layer conv1
I1202 15:26:16.947593 2760188864 net.cpp:434] conv1 <- data
I1202 15:26:16.947604 2760188864 net.cpp:408] conv1 -> conv1
I1202 15:26:16.947849 2760188864 net.cpp:150] Setting up conv1
I1202 15:26:16.947860 2760188864 net.cpp:157] Top shape: 64 20 28 68 (2437120)
I1202 15:26:16.947868 2760188864 net.cpp:165] Memory required for data: 11518208
I1202 15:26:16.947882 2760188864 layer_factory.hpp:77] Creating layer pool1
I1202 15:26:16.947921 2760188864 net.cpp:100] Creating Layer pool1
I1202 15:26:16.947927 2760188864 net.cpp:434] pool1 <- conv1
I1202 15:26:16.947937 2760188864 net.cpp:408] pool1 -> pool1
I1202 15:26:16.947952 2760188864 net.cpp:150] Setting up pool1
I1202 15:26:16.947958 2760188864 net.cpp:157] Top shape: 64 20 14 34 (609280)
I1202 15:26:16.947965 2760188864 net.cpp:165] Memory required for data: 13955328
I1202 15:26:16.947971 2760188864 layer_factory.hpp:77] Creating layer conv2
I1202 15:26:16.947983 2760188864 net.cpp:100] Creating Layer conv2
I1202 15:26:16.947990 2760188864 net.cpp:434] conv2 <- pool1
I1202 15:26:16.947999 2760188864 net.cpp:408] conv2 -> conv2
I1202 15:26:16.948431 2760188864 net.cpp:150] Setting up conv2
I1202 15:26:16.948447 2760188864 net.cpp:157] Top shape: 64 50 10 30 (960000)
I1202 15:26:16.948458 2760188864 net.cpp:165] Memory required for data: 17795328
I1202 15:26:16.948513 2760188864 layer_factory.hpp:77] Creating layer pool2
I1202 15:26:16.948528 2760188864 net.cpp:100] Creating Layer pool2
I1202 15:26:16.948534 2760188864 net.cpp:434] pool2 <- conv2
I1202 15:26:16.948554 2760188864 net.cpp:408] pool2 -> pool2
I1202 15:26:16.948570 2760188864 net.cpp:150] Setting up pool2
I1202 15:26:16.948576 2760188864 net.cpp:157] Top shape: 64 50 5 15 (240000)
I1202 15:26:16.948611 2760188864 net.cpp:165] Memory required for data: 18755328
I1202 15:26:16.948619 2760188864 layer_factory.hpp:77] Creating layer ip1
I1202 15:26:16.948631 2760188864 net.cpp:100] Creating Layer ip1
I1202 15:26:16.948637 2760188864 net.cpp:434] ip1 <- pool2
I1202 15:26:16.948647 2760188864 net.cpp:408] ip1 -> ip1
I1202 15:26:16.969986 2760188864 net.cpp:150] Setting up ip1
I1202 15:26:16.970022 2760188864 net.cpp:157] Top shape: 64 500 (32000)
I1202 15:26:16.970036 2760188864 net.cpp:165] Memory required for data: 18883328
I1202 15:26:16.970072 2760188864 layer_factory.hpp:77] Creating layer relu1
I1202 15:26:16.970106 2760188864 net.cpp:100] Creating Layer relu1
I1202 15:26:16.970121 2760188864 net.cpp:434] relu1 <- ip1
I1202 15:26:16.970155 2760188864 net.cpp:395] relu1 -> ip1 (in-place)
I1202 15:26:16.970175 2760188864 net.cpp:150] Setting up relu1
I1202 15:26:16.970196 2760188864 net.cpp:157] Top shape: 64 500 (32000)
I1202 15:26:16.970216 2760188864 net.cpp:165] Memory required for data: 19011328
I1202 15:26:16.970234 2760188864 layer_factory.hpp:77] Creating layer ip2
I1202 15:26:16.970263 2760188864 net.cpp:100] Creating Layer ip2
I1202 15:26:16.970281 2760188864 net.cpp:434] ip2 <- ip1
I1202 15:26:16.970309 2760188864 net.cpp:408] ip2 -> ip2
I1202 15:26:16.970468 2760188864 net.cpp:150] Setting up ip2
I1202 15:26:16.970497 2760188864 net.cpp:157] Top shape: 64 19 (1216)
I1202 15:26:16.970530 2760188864 net.cpp:165] Memory required for data: 19016192
I1202 15:26:16.970551 2760188864 layer_factory.hpp:77] Creating layer loss
I1202 15:26:16.970577 2760188864 net.cpp:100] Creating Layer loss
I1202 15:26:16.970592 2760188864 net.cpp:434] loss <- ip2
I1202 15:26:16.970615 2760188864 net.cpp:434] loss <- label
I1202 15:26:16.970631 2760188864 net.cpp:408] loss -> loss
…
I1202 15:26:16.971395 2760188864 solver.cpp:181] Creating test net (#0) specified by net file: examples/mnist/lenet_train_math_test_withoutBN.prototxt
I1202 15:26:16.971449 2760188864 net.cpp:322] The NetState phase (1) differed from the phase (0) specified by a rule in layer math
I1202 15:26:16.971489 2760188864 net.cpp:58] Initializing net from parameters: 
name: "LeNet"
state {
  phase: TEST
}
layer {
  name: "math"
  type: "Data"
  top: "data"
  top: "label"
  include {
    phase: TEST
  }
  transform_param {
    scale: 0.00390625
  }
  data_param {
    source: "examples/imagenet/math_val_lmdb"
    batch_size: 320
    backend: LMDB
  }
}
layer {
  name: "conv1"
  type: "Convolution"
  bottom: "data"
  top: "conv1"
  param {
    lr_mult: 1
  }
  param {
    lr_mult: 2
  }
  convolution_param {
    num_output: 20
    kernel_size: 5
    stride: 1
    weight_filler {
      type: "xavier"
    }
    bias_filler {
      type: "constant"
    }
  }
}
layer {
  name: "pool1"
  type: "Pooling"
  bottom: "conv1"
  top: "pool1"
  pooling_param {
    pool: MAX
    kernel_size: 2
    stride: 2
  }
}
layer {
  name: "conv2"
  type: "Convolution"
  bottom: "pool1"
  top: "conv2"
  param {
    lr_mult: 1
  }
  param {
    lr_mult: 2
  }
  convolution_param {
    num_output: 50
    kernel_size: 5
    stride: 1
    weight_filler {
      type: "xavier"
    }
    bias_filler {
      type: "constant"
    }
  }
}
layer {
  name: "pool2"
  type: "Pooling"
  bottom: "conv2"
  top: "pool2"
  pooling_param {
    pool: MAX
    kernel_size: 2
    stride: 2
  }
}
layer {
  name: "ip1"
  type: "InnerProduct"
  bottom: "pool2"
  top: "ip1"
  param {
    lr_mult: 1
  }
  param {
    lr_mult: 2
  }
  inner_product_param {
    num_output: 500
    weight_filler {
      type: "xavier"
    }
    bias_filler {
      type: "constant"
    }
  }
}
layer {
  name: "relu1"
  type: "ReLU"
  bottom: "ip1"
  top: "ip1"
}
layer {
  name: "ip2"
  type: "InnerProduct"
  bottom: "ip1"
  top: "ip2"
  param {
    lr_mult: 1
  }
  param {
    lr_mult: 2
  }
  inner_product_param {
    num_output: 19
    weight_filler {
      type: "xavier"
    }
    bias_filler {
      type: "constant"
    }
  }
}
layer {
  name: "accuracy"
  type: "Accuracy"
  bottom: "ip2"
  bottom: "label"
  top: "accuracy"
  include {
    phase: TEST
  }
}
layer {
  name: "loss"
  type: "SoftmaxWithLoss"
  bottom: "ip2"
  bottom: "label"
  top: "loss"
}
I1202 15:26:16.971742 2760188864 layer_factory.hpp:77] Creating layer math
I1202 15:26:16.972134 2760188864 net.cpp:100] Creating Layer math
I1202 15:26:16.972168 2760188864 net.cpp:408] math -> data
I1202 15:26:16.972199 2760188864 net.cpp:408] math -> label
I1202 15:26:16.973389 25022464 db_lmdb.cpp:35] Opened lmdb examples/imagenet/math_val_lmdb
I1202 15:26:16.974023 2760188864 data_layer.cpp:41] output data size: 320,3,32,72
I1202 15:26:16.992413 2760188864 net.cpp:150] Setting up math
I1202 15:26:16.992542 2760188864 net.cpp:157] Top shape: 320 3 32 72 (2211840)
I1202 15:26:16.992838 2760188864 net.cpp:157] Top shape: 320 (320)
I1202 15:26:16.998211 2760188864 net.cpp:165] Memory required for data: 8848640
I1202 15:26:16.998268 2760188864 layer_factory.hpp:77] Creating layer label_math_1_split
I1202 15:26:16.998610 2760188864 net.cpp:100] Creating Layer label_math_1_split
I1202 15:26:16.998622 2760188864 net.cpp:434] label_math_1_split <- label
I1202 15:26:16.998633 2760188864 net.cpp:408] label_math_1_split -> label_math_1_split_0
I1202 15:26:16.998648 2760188864 net.cpp:408] label_math_1_split -> label_math_1_split_1
I1202 15:26:16.998662 2760188864 net.cpp:150] Setting up label_math_1_split
I1202 15:26:16.998668 2760188864 net.cpp:157] Top shape: 320 (320)
I1202 15:26:16.999058 2760188864 net.cpp:157] Top shape: 320 (320)
I1202 15:26:16.999081 2760188864 net.cpp:165] Memory required for data: 8851200
I1202 15:26:16.999418 2760188864 layer_factory.hpp:77] Creating layer conv1
I1202 15:26:16.999440 2760188864 net.cpp:100] Creating Layer conv1
I1202 15:26:16.999446 2760188864 net.cpp:434] conv1 <- data
I1202 15:26:16.999456 2760188864 net.cpp:408] conv1 -> conv1
I1202 15:26:16.999877 2760188864 net.cpp:150] Setting up conv1
I1202 15:26:16.999905 2760188864 net.cpp:157] Top shape: 320 20 28 68 (12185600)
I1202 15:26:17.000259 2760188864 net.cpp:165] Memory required for data: 57593600
I1202 15:26:17.000293 2760188864 layer_factory.hpp:77] Creating layer pool1
I1202 15:26:17.000314 2760188864 net.cpp:100] Creating Layer pool1
I1202 15:26:17.000494 2760188864 net.cpp:434] pool1 <- conv1
I1202 15:26:17.000573 2760188864 net.cpp:408] pool1 -> pool1
I1202 15:26:17.000592 2760188864 net.cpp:150] Setting up pool1
I1202 15:26:17.000598 2760188864 net.cpp:157] Top shape: 320 20 14 34 (3046400)
I1202 15:26:17.000607 2760188864 net.cpp:165] Memory required for data: 69779200
I1202 15:26:17.000613 2760188864 layer_factory.hpp:77] Creating layer conv2
I1202 15:26:17.000630 2760188864 net.cpp:100] Creating Layer conv2
I1202 15:26:17.000638 2760188864 net.cpp:434] conv2 <- pool1
I1202 15:26:17.001003 2760188864 net.cpp:408] conv2 -> conv2
I1202 15:26:17.001441 2760188864 net.cpp:150] Setting up conv2
I1202 15:26:17.001618 2760188864 net.cpp:157] Top shape: 320 50 10 30 (4800000)
I1202 15:26:17.001629 2760188864 net.cpp:165] Memory required for data: 88979200
I1202 15:26:17.001643 2760188864 layer_factory.hpp:77] Creating layer pool2
I1202 15:26:17.001657 2760188864 net.cpp:100] Creating Layer pool2
I1202 15:26:17.001663 2760188864 net.cpp:434] pool2 <- conv2
I1202 15:26:17.001672 2760188864 net.cpp:408] pool2 -> pool2
I1202 15:26:17.001684 2760188864 net.cpp:150] Setting up pool2
I1202 15:26:17.001690 2760188864 net.cpp:157] Top shape: 320 50 5 15 (1200000)
I1202 15:26:17.001698 2760188864 net.cpp:165] Memory required for data: 93779200
I1202 15:26:17.002023 2760188864 layer_factory.hpp:77] Creating layer ip1
I1202 15:26:17.002038 2760188864 net.cpp:100] Creating Layer ip1
I1202 15:26:17.002044 2760188864 net.cpp:434] ip1 <- pool2
I1202 15:26:17.002053 2760188864 net.cpp:408] ip1 -> ip1
I1202 15:26:17.027256 2760188864 net.cpp:150] Setting up ip1
I1202 15:26:17.027283 2760188864 net.cpp:157] Top shape: 320 500 (160000)
I1202 15:26:17.027289 2760188864 net.cpp:165] Memory required for data: 94419200
I1202 15:26:17.027356 2760188864 layer_factory.hpp:77] Creating layer relu1
I1202 15:26:17.027396 2760188864 net.cpp:100] Creating Layer relu1
I1202 15:26:17.027410 2760188864 net.cpp:434] relu1 <- ip1
I1202 15:26:17.027420 2760188864 net.cpp:395] relu1 -> ip1 (in-place)
I1202 15:26:17.027432 2760188864 net.cpp:150] Setting up relu1
I1202 15:26:17.027438 2760188864 net.cpp:157] Top shape: 320 500 (160000)
I1202 15:26:17.027465 2760188864 net.cpp:165] Memory required for data: 95059200
I1202 15:26:17.027482 2760188864 layer_factory.hpp:77] Creating layer ip2
I1202 15:26:17.027518 2760188864 net.cpp:100] Creating Layer ip2
I1202 15:26:17.027531 2760188864 net.cpp:434] ip2 <- ip1
I1202 15:26:17.027546 2760188864 net.cpp:408] ip2 -> ip2
I1202 15:26:17.027663 2760188864 net.cpp:150] Setting up ip2
I1202 15:26:17.027688 2760188864 net.cpp:157] Top shape: 320 19 (6080)
I1202 15:26:17.027705 2760188864 net.cpp:165] Memory required for data: 95083520
I1202 15:26:17.027731 2760188864 layer_factory.hpp:77] Creating layer ip2_ip2_0_split
I1202 15:26:17.027750 2760188864 net.cpp:100] Creating Layer ip2_ip2_0_split
I1202 15:26:17.027768 2760188864 net.cpp:434] ip2_ip2_0_split <- ip2
I1202 15:26:17.027794 2760188864 net.cpp:408] ip2_ip2_0_split -> ip2_ip2_0_split_0
I1202 15:26:17.027822 2760188864 net.cpp:408] ip2_ip2_0_split -> ip2_ip2_0_split_1
I1202 15:26:17.027847 2760188864 net.cpp:150] Setting up ip2_ip2_0_split
I1202 15:26:17.027863 2760188864 net.cpp:157] Top shape: 320 19 (6080)
I1202 15:26:17.027873 2760188864 net.cpp:157] Top shape: 320 19 (6080)
I1202 15:26:17.027878 2760188864 net.cpp:165] Memory required for data: 95132160
I1202 15:26:17.027910 2760188864 layer_factory.hpp:77] Creating layer accuracy
I1202 15:26:17.027918 2760188864 net.cpp:100] Creating Layer accuracy
I1202 15:26:17.027925 2760188864 net.cpp:434] accuracy <- ip2_ip2_0_split_0
I1202 15:26:17.027933 2760188864 net.cpp:434] accuracy <- label_math_1_split_0
I1202 15:26:17.027992 2760188864 net.cpp:408] accuracy -> accuracy
…
