…
I1202 00:58:53.965219 2760188864 upgrade_proto.cpp:77] Attempting to upgrade batch norm layers using deprecated params: examples/mnist/lenet_test.prototxt
I1202 00:58:53.965277 2760188864 upgrade_proto.cpp:80] Successfully upgraded batch norm layers using deprecated params.
I1202 00:58:53.965410 2760188864 net.cpp:58] Initializing net from parameters: 
name: "LeNet"
state {
  phase: TEST
  level: 0
  stage: ""
}
layer {
  name: "data"
  type: "Data"
  top: "data"
  top: "label"
  transform_param {
    mean_file: "examples/imagenet/math_mean.binaryproto"
  }
  data_param {
    source: "examples/imagenet/math_test_lmdb"
    batch_size: 100
    backend: LMDB
  }
}
layer {
  name: "conv1"
  type: "Convolution"
  bottom: "data"
  top: "conv1"
  param {
    lr_mult: 1
  }
  convolution_param {
    num_output: 20
    kernel_size: 5
    stride: 1
    weight_filler {
      type: "gaussian"
      std: 0.0001
    }
    bias_filler {
      type: "constant"
    }
  }
}
layer {
  name: "pool1"
  type: "Pooling"
  bottom: "conv1"
  top: "pool1"
  pooling_param {
    pool: MAX
    kernel_size: 2
    stride: 2
  }
}
layer {
  name: "bn1"
  type: "BatchNorm"
  bottom: "pool1"
  top: "bn1"
}
layer {
  name: "Sigmoid1"
  type: "Sigmoid"
  bottom: "bn1"
  top: "Sigmoid1"
}
layer {
  name: "conv2"
  type: "Convolution"
  bottom: "Sigmoid1"
  top: "conv2"
  param {
    lr_mult: 1
  }
  convolution_param {
    num_output: 50
    kernel_size: 5
    stride: 1
    weight_filler {
      type: "gaussian"
      std: 0.01
    }
    bias_filler {
      type: "constant"
    }
  }
}
layer {
  name: "bn2"
  type: "BatchNorm"
  bottom: "conv2"
  top: "bn2"
}
layer {
  name: "Sigmoid2"
  type: "Sigmoid"
  bottom: "bn2"
  top: "Sigmoid2"
}
layer {
  name: "pool2"
  type: "Pooling"
  bottom: "Sigmoid2"
  top: "pool2"
  pooling_param {
    pool: MAX
    kernel_size: 2
    stride: 2
  }
}
layer {
  name: "ip1"
  type: "InnerProduct"
  bottom: "pool2"
  top: "ip1"
  param {
    lr_mult: 1
  }
  param {
    lr_mult: 2
  }
  inner_product_param {
    num_output: 500
    weight_filler {
      type: "gaussian"
      std: 0.01
    }
    bias_filler {
      type: "constant"
    }
  }
}
layer {
  name: "ip2"
  type: "InnerProduct"
  bottom: "ip1"
  top: "ip2"
  param {
    lr_mult: 1
  }
  param {
    lr_mult: 2
  }
  inner_product_param {
    num_output: 19
    weight_filler {
      type: "gaussian"
      std: 0.01
    }
    bias_filler {
      type: "constant"
    }
  }
}
layer {
  name: "accuracy"
  type: "Accuracy"
  bottom: "ip2"
  bottom: "label"
  top: "accuracy"
}
layer {
  name: "loss"
  type: "SoftmaxWithLoss"
  bottom: "ip2"
  bottom: "label"
  top: "loss"
}
I1202 00:58:53.966038 2760188864 layer_factory.hpp:77] Creating layer data
I1202 00:58:53.973996 2760188864 net.cpp:100] Creating Layer data
I1202 00:58:53.974025 2760188864 net.cpp:408] data -> data
I1202 00:58:53.974053 2760188864 net.cpp:408] data -> label
I1202 00:58:53.974074 2760188864 data_transformer.cpp:25] Loading mean file from: examples/imagenet/math_mean.binaryproto
I1202 00:58:53.974182 100712448 db_lmdb.cpp:35] Opened lmdb examples/imagenet/math_test_lmdb
I1202 00:58:53.974299 2760188864 data_layer.cpp:41] output data size: 100,3,32,72
I1202 00:58:53.979388 2760188864 net.cpp:150] Setting up data
I1202 00:58:53.979414 2760188864 net.cpp:157] Top shape: 100 3 32 72 (691200)
I1202 00:58:53.979427 2760188864 net.cpp:157] Top shape: 100 (100)
I1202 00:58:53.979434 2760188864 net.cpp:165] Memory required for data: 2765200
I1202 00:58:53.979445 2760188864 layer_factory.hpp:77] Creating layer label_data_1_split
I1202 00:58:53.979462 2760188864 net.cpp:100] Creating Layer label_data_1_split
I1202 00:58:53.979470 2760188864 net.cpp:434] label_data_1_split <- label
I1202 00:58:53.979476 2760188864 net.cpp:408] label_data_1_split -> label_data_1_split_0
I1202 00:58:53.979488 2760188864 net.cpp:408] label_data_1_split -> label_data_1_split_1
I1202 00:58:53.979502 2760188864 net.cpp:150] Setting up label_data_1_split
I1202 00:58:53.979507 2760188864 net.cpp:157] Top shape: 100 (100)
I1202 00:58:53.979513 2760188864 net.cpp:157] Top shape: 100 (100)
I1202 00:58:53.979547 2760188864 net.cpp:165] Memory required for data: 2766000
I1202 00:58:53.979552 2760188864 layer_factory.hpp:77] Creating layer conv1
I1202 00:58:53.979567 2760188864 net.cpp:100] Creating Layer conv1
I1202 00:58:53.979573 2760188864 net.cpp:434] conv1 <- data
I1202 00:58:53.979580 2760188864 net.cpp:408] conv1 -> conv1
I1202 00:58:53.979691 2760188864 net.cpp:150] Setting up conv1
I1202 00:58:53.979696 2760188864 net.cpp:157] Top shape: 100 20 28 68 (3808000)
I1202 00:58:53.979703 2760188864 net.cpp:165] Memory required for data: 17998000
I1202 00:58:53.979714 2760188864 layer_factory.hpp:77] Creating layer pool1
I1202 00:58:53.979722 2760188864 net.cpp:100] Creating Layer pool1
I1202 00:58:53.979728 2760188864 net.cpp:434] pool1 <- conv1
I1202 00:58:53.979734 2760188864 net.cpp:408] pool1 -> pool1
I1202 00:58:53.979746 2760188864 net.cpp:150] Setting up pool1
I1202 00:58:53.979753 2760188864 net.cpp:157] Top shape: 100 20 14 34 (952000)
I1202 00:58:53.979758 2760188864 net.cpp:165] Memory required for data: 21806000
I1202 00:58:53.979764 2760188864 layer_factory.hpp:77] Creating layer bn1
I1202 00:58:53.979771 2760188864 net.cpp:100] Creating Layer bn1
I1202 00:58:53.979778 2760188864 net.cpp:434] bn1 <- pool1
I1202 00:58:53.979784 2760188864 net.cpp:408] bn1 -> bn1
I1202 00:58:53.979809 2760188864 net.cpp:150] Setting up bn1
I1202 00:58:53.979815 2760188864 net.cpp:157] Top shape: 100 20 14 34 (952000)
I1202 00:58:53.979822 2760188864 net.cpp:165] Memory required for data: 25614000
I1202 00:58:53.979835 2760188864 layer_factory.hpp:77] Creating layer Sigmoid1
I1202 00:58:53.979843 2760188864 net.cpp:100] Creating Layer Sigmoid1
I1202 00:58:53.979849 2760188864 net.cpp:434] Sigmoid1 <- bn1
I1202 00:58:53.979856 2760188864 net.cpp:408] Sigmoid1 -> Sigmoid1
I1202 00:58:53.979864 2760188864 net.cpp:150] Setting up Sigmoid1
I1202 00:58:53.979869 2760188864 net.cpp:157] Top shape: 100 20 14 34 (952000)
I1202 00:58:53.979876 2760188864 net.cpp:165] Memory required for data: 29422000
I1202 00:58:53.979907 2760188864 layer_factory.hpp:77] Creating layer conv2
I1202 00:58:53.979919 2760188864 net.cpp:100] Creating Layer conv2
I1202 00:58:53.979925 2760188864 net.cpp:434] conv2 <- Sigmoid1
I1202 00:58:53.979933 2760188864 net.cpp:408] conv2 -> conv2
I1202 00:58:53.980474 2760188864 net.cpp:150] Setting up conv2
I1202 00:58:53.980489 2760188864 net.cpp:157] Top shape: 100 50 10 30 (1500000)
I1202 00:58:53.980500 2760188864 net.cpp:165] Memory required for data: 35422000
I1202 00:58:53.980510 2760188864 layer_factory.hpp:77] Creating layer bn2
I1202 00:58:53.980520 2760188864 net.cpp:100] Creating Layer bn2
I1202 00:58:53.980526 2760188864 net.cpp:434] bn2 <- conv2
I1202 00:58:53.980535 2760188864 net.cpp:408] bn2 -> bn2
I1202 00:58:53.980559 2760188864 net.cpp:150] Setting up bn2
I1202 00:58:53.980568 2760188864 net.cpp:157] Top shape: 100 50 10 30 (1500000)
I1202 00:58:53.980577 2760188864 net.cpp:165] Memory required for data: 41422000
I1202 00:58:53.980592 2760188864 layer_factory.hpp:77] Creating layer Sigmoid2
I1202 00:58:53.980600 2760188864 net.cpp:100] Creating Layer Sigmoid2
I1202 00:58:53.980607 2760188864 net.cpp:434] Sigmoid2 <- bn2
I1202 00:58:53.980617 2760188864 net.cpp:408] Sigmoid2 -> Sigmoid2
I1202 00:58:53.980628 2760188864 net.cpp:150] Setting up Sigmoid2
I1202 00:58:53.980633 2760188864 net.cpp:157] Top shape: 100 50 10 30 (1500000)
I1202 00:58:53.980643 2760188864 net.cpp:165] Memory required for data: 47422000
I1202 00:58:53.980649 2760188864 layer_factory.hpp:77] Creating layer pool2
I1202 00:58:53.980657 2760188864 net.cpp:100] Creating Layer pool2
I1202 00:58:53.980664 2760188864 net.cpp:434] pool2 <- Sigmoid2
I1202 00:58:53.980669 2760188864 net.cpp:408] pool2 -> pool2
I1202 00:58:53.980681 2760188864 net.cpp:150] Setting up pool2
I1202 00:58:53.980686 2760188864 net.cpp:157] Top shape: 100 50 5 15 (375000)
I1202 00:58:53.980695 2760188864 net.cpp:165] Memory required for data: 48922000
I1202 00:58:53.980700 2760188864 layer_factory.hpp:77] Creating layer ip1
I1202 00:58:53.980729 2760188864 net.cpp:100] Creating Layer ip1
I1202 00:58:53.980736 2760188864 net.cpp:434] ip1 <- pool2
I1202 00:58:53.980743 2760188864 net.cpp:408] ip1 -> ip1
I1202 00:58:54.006494 2760188864 net.cpp:150] Setting up ip1
I1202 00:58:54.006516 2760188864 net.cpp:157] Top shape: 100 500 (50000)
I1202 00:58:54.006522 2760188864 net.cpp:165] Memory required for data: 49122000
I1202 00:58:54.006531 2760188864 layer_factory.hpp:77] Creating layer ip2
I1202 00:58:54.006541 2760188864 net.cpp:100] Creating Layer ip2
I1202 00:58:54.006546 2760188864 net.cpp:434] ip2 <- ip1
I1202 00:58:54.006552 2760188864 net.cpp:408] ip2 -> ip2
I1202 00:58:54.006760 2760188864 net.cpp:150] Setting up ip2
I1202 00:58:54.006772 2760188864 net.cpp:157] Top shape: 100 19 (1900)
I1202 00:58:54.006788 2760188864 net.cpp:165] Memory required for data: 49129600
I1202 00:58:54.006798 2760188864 layer_factory.hpp:77] Creating layer ip2_ip2_0_split
I1202 00:58:54.006808 2760188864 net.cpp:100] Creating Layer ip2_ip2_0_split
I1202 00:58:54.006814 2760188864 net.cpp:434] ip2_ip2_0_split <- ip2
I1202 00:58:54.006824 2760188864 net.cpp:408] ip2_ip2_0_split -> ip2_ip2_0_split_0
I1202 00:58:54.006835 2760188864 net.cpp:408] ip2_ip2_0_split -> ip2_ip2_0_split_1
I1202 00:58:54.006847 2760188864 net.cpp:150] Setting up ip2_ip2_0_split
I1202 00:58:54.006853 2760188864 net.cpp:157] Top shape: 100 19 (1900)
I1202 00:58:54.006860 2760188864 net.cpp:157] Top shape: 100 19 (1900)
I1202 00:58:54.006866 2760188864 net.cpp:165] Memory required for data: 49144800
I1202 00:58:54.006871 2760188864 layer_factory.hpp:77] Creating layer accuracy
I1202 00:58:54.006880 2760188864 net.cpp:100] Creating Layer accuracy
I1202 00:58:54.006886 2760188864 net.cpp:434] accuracy <- ip2_ip2_0_split_0
I1202 00:58:54.006894 2760188864 net.cpp:434] accuracy <- label_data_1_split_0
I1202 00:58:54.006903 2760188864 net.cpp:408] accuracy -> accuracy
…
