…
I1202 00:15:02.348094 2760188864 net.cpp:322] The NetState phase (0) differed from the phase (1) specified by a rule in layer accuracy
I1202 00:15:02.348104 2760188864 net.cpp:58] Initializing net from parameters: 
name: "LeNet"
state {
  phase: TRAIN
  level: 0
  stage: ""
}
layer {
  name: "math"
  type: "Data"
  top: "data"
  top: "label"
  include {
    phase: TRAIN
  }
  transform_param {
    mean_file: "examples/imagenet/math_mean.binaryproto"
  }
  data_param {
    source: "examples/imagenet/math_train_lmdb"
    batch_size: 64
    backend: LMDB
  }
}
layer {
  name: "conv1"
  type: "Convolution"
  bottom: "data"
  top: "conv1"
  param {
    lr_mult: 1
  }
  convolution_param {
    num_output: 20
    kernel_size: 5
    stride: 1
    weight_filler {
      type: "gaussian"
      std: 0.0001
    }
    bias_filler {
      type: "constant"
    }
  }
}
layer {
  name: "pool1"
  type: "Pooling"
  bottom: "conv1"
  top: "pool1"
  pooling_param {
    pool: MAX
    kernel_size: 2
    stride: 2
  }
}
layer {
  name: "bn1"
  type: "BatchNorm"
  bottom: "pool1"
  top: "bn1"
}
layer {
  name: "Sigmoid1"
  type: "Sigmoid"
  bottom: "bn1"
  top: "Sigmoid1"
}
layer {
  name: "conv2"
  type: "Convolution"
  bottom: "Sigmoid1"
  top: "conv2"
  param {
    lr_mult: 1
  }
  convolution_param {
    num_output: 50
    kernel_size: 5
    stride: 1
    weight_filler {
      type: "gaussian"
      std: 0.01
    }
    bias_filler {
      type: "constant"
    }
  }
}
layer {
  name: "bn2"
  type: "BatchNorm"
  bottom: "conv2"
  top: "bn2"
}
layer {
  name: "Sigmoid2"
  type: "Sigmoid"
  bottom: "bn2"
  top: "Sigmoid2"
}
layer {
  name: "pool2"
  type: "Pooling"
  bottom: "Sigmoid2"
  top: "pool2"
  pooling_param {
    pool: MAX
    kernel_size: 2
    stride: 2
  }
}
layer {
  name: "ip1"
  type: "InnerProduct"
  bottom: "pool2"
  top: "ip1"
  param {
    lr_mult: 1
  }
  param {
    lr_mult: 2
  }
  inner_product_param {
    num_output: 500
    weight_filler {
      type: "gaussian"
      std: 0.01
    }
    bias_filler {
      type: "constant"
    }
  }
}
layer {
  name: "ip2"
  type: "InnerProduct"
  bottom: "ip1"
  top: "ip2"
  param {
    lr_mult: 1
  }
  param {
    lr_mult: 2
  }
  inner_product_param {
    num_output: 19
    weight_filler {
      type: "gaussian"
      std: 0.01
    }
    bias_filler {
      type: "constant"
    }
  }
}
layer {
  name: "loss"
  type: "SoftmaxWithLoss"
  bottom: "ip2"
  bottom: "label"
  top: "loss"
}
I1202 00:15:02.348296 2760188864 layer_factory.hpp:77] Creating layer math
I1202 00:15:02.355160 2760188864 net.cpp:100] Creating Layer math
I1202 00:15:02.355186 2760188864 net.cpp:408] math -> data
I1202 00:15:02.355211 2760188864 net.cpp:408] math -> label
I1202 00:15:02.355232 2760188864 data_transformer.cpp:25] Loading mean file from: examples/imagenet/math_mean.binaryproto
I1202 00:15:02.355375 155762688 db_lmdb.cpp:35] Opened lmdb examples/imagenet/math_train_lmdb
I1202 00:15:02.357141 2760188864 data_layer.cpp:41] output data size: 64,3,32,72
I1202 00:15:02.366185 2760188864 net.cpp:150] Setting up math
I1202 00:15:02.366209 2760188864 net.cpp:157] Top shape: 64 3 32 72 (442368)
I1202 00:15:02.366256 2760188864 net.cpp:157] Top shape: 64 (64)
I1202 00:15:02.366264 2760188864 net.cpp:165] Memory required for data: 1769728
I1202 00:15:02.366277 2760188864 layer_factory.hpp:77] Creating layer conv1
I1202 00:15:02.366297 2760188864 net.cpp:100] Creating Layer conv1
I1202 00:15:02.366304 2760188864 net.cpp:434] conv1 <- data
I1202 00:15:02.366313 2760188864 net.cpp:408] conv1 -> conv1
I1202 00:15:02.366426 2760188864 net.cpp:150] Setting up conv1
I1202 00:15:02.366433 2760188864 net.cpp:157] Top shape: 64 20 28 68 (2437120)
I1202 00:15:02.366441 2760188864 net.cpp:165] Memory required for data: 11518208
I1202 00:15:02.366451 2760188864 layer_factory.hpp:77] Creating layer pool1
I1202 00:15:02.366461 2760188864 net.cpp:100] Creating Layer pool1
I1202 00:15:02.366466 2760188864 net.cpp:434] pool1 <- conv1
I1202 00:15:02.366472 2760188864 net.cpp:408] pool1 -> pool1
I1202 00:15:02.366484 2760188864 net.cpp:150] Setting up pool1
I1202 00:15:02.366490 2760188864 net.cpp:157] Top shape: 64 20 14 34 (609280)
I1202 00:15:02.366497 2760188864 net.cpp:165] Memory required for data: 13955328
I1202 00:15:02.366503 2760188864 layer_factory.hpp:77] Creating layer bn1
I1202 00:15:02.366509 2760188864 net.cpp:100] Creating Layer bn1
I1202 00:15:02.366514 2760188864 net.cpp:434] bn1 <- pool1
I1202 00:15:02.366521 2760188864 net.cpp:408] bn1 -> bn1
I1202 00:15:02.366551 2760188864 net.cpp:150] Setting up bn1
I1202 00:15:02.366557 2760188864 net.cpp:157] Top shape: 64 20 14 34 (609280)
I1202 00:15:02.366564 2760188864 net.cpp:165] Memory required for data: 16392448
I1202 00:15:02.366576 2760188864 layer_factory.hpp:77] Creating layer Sigmoid1
I1202 00:15:02.366586 2760188864 net.cpp:100] Creating Layer Sigmoid1
I1202 00:15:02.366591 2760188864 net.cpp:434] Sigmoid1 <- bn1
I1202 00:15:02.366598 2760188864 net.cpp:408] Sigmoid1 -> Sigmoid1
I1202 00:15:02.366607 2760188864 net.cpp:150] Setting up Sigmoid1
I1202 00:15:02.366613 2760188864 net.cpp:157] Top shape: 64 20 14 34 (609280)
I1202 00:15:02.366621 2760188864 net.cpp:165] Memory required for data: 18829568
I1202 00:15:02.366626 2760188864 layer_factory.hpp:77] Creating layer conv2
I1202 00:15:02.366636 2760188864 net.cpp:100] Creating Layer conv2
I1202 00:15:02.366641 2760188864 net.cpp:434] conv2 <- Sigmoid1
I1202 00:15:02.366649 2760188864 net.cpp:408] conv2 -> conv2
I1202 00:15:02.367147 2760188864 net.cpp:150] Setting up conv2
I1202 00:15:02.367156 2760188864 net.cpp:157] Top shape: 64 50 10 30 (960000)
I1202 00:15:02.367164 2760188864 net.cpp:165] Memory required for data: 22669568
I1202 00:15:02.367173 2760188864 layer_factory.hpp:77] Creating layer bn2
I1202 00:15:02.367182 2760188864 net.cpp:100] Creating Layer bn2
I1202 00:15:02.367188 2760188864 net.cpp:434] bn2 <- conv2
I1202 00:15:02.367195 2760188864 net.cpp:408] bn2 -> bn2
I1202 00:15:02.367218 2760188864 net.cpp:150] Setting up bn2
I1202 00:15:02.367224 2760188864 net.cpp:157] Top shape: 64 50 10 30 (960000)
I1202 00:15:02.367233 2760188864 net.cpp:165] Memory required for data: 26509568
I1202 00:15:02.367244 2760188864 layer_factory.hpp:77] Creating layer Sigmoid2
I1202 00:15:02.367252 2760188864 net.cpp:100] Creating Layer Sigmoid2
I1202 00:15:02.367259 2760188864 net.cpp:434] Sigmoid2 <- bn2
I1202 00:15:02.367266 2760188864 net.cpp:408] Sigmoid2 -> Sigmoid2
I1202 00:15:02.367277 2760188864 net.cpp:150] Setting up Sigmoid2
I1202 00:15:02.367285 2760188864 net.cpp:157] Top shape: 64 50 10 30 (960000)
I1202 00:15:02.367291 2760188864 net.cpp:165] Memory required for data: 30349568
I1202 00:15:02.367297 2760188864 layer_factory.hpp:77] Creating layer pool2
I1202 00:15:02.367306 2760188864 net.cpp:100] Creating Layer pool2
I1202 00:15:02.367312 2760188864 net.cpp:434] pool2 <- Sigmoid2
I1202 00:15:02.367321 2760188864 net.cpp:408] pool2 -> pool2
I1202 00:15:02.367332 2760188864 net.cpp:150] Setting up pool2
I1202 00:15:02.367338 2760188864 net.cpp:157] Top shape: 64 50 5 15 (240000)
I1202 00:15:02.367349 2760188864 net.cpp:165] Memory required for data: 31309568
I1202 00:15:02.367384 2760188864 layer_factory.hpp:77] Creating layer ip1
I1202 00:15:02.367398 2760188864 net.cpp:100] Creating Layer ip1
I1202 00:15:02.367404 2760188864 net.cpp:434] ip1 <- pool2
I1202 00:15:02.367413 2760188864 net.cpp:408] ip1 -> ip1
I1202 00:15:02.396968 2760188864 net.cpp:150] Setting up ip1
I1202 00:15:02.396989 2760188864 net.cpp:157] Top shape: 64 500 (32000)
I1202 00:15:02.396998 2760188864 net.cpp:165] Memory required for data: 31437568
I1202 00:15:02.397008 2760188864 layer_factory.hpp:77] Creating layer ip2
I1202 00:15:02.397022 2760188864 net.cpp:100] Creating Layer ip2
I1202 00:15:02.397027 2760188864 net.cpp:434] ip2 <- ip1
I1202 00:15:02.397035 2760188864 net.cpp:408] ip2 -> ip2
I1202 00:15:02.397244 2760188864 net.cpp:150] Setting up ip2
I1202 00:15:02.397256 2760188864 net.cpp:157] Top shape: 64 19 (1216)
I1202 00:15:02.397266 2760188864 net.cpp:165] Memory required for data: 31442432
I1202 00:15:02.397277 2760188864 layer_factory.hpp:77] Creating layer loss
I1202 00:15:02.397295 2760188864 net.cpp:100] Creating Layer loss
I1202 00:15:02.397305 2760188864 net.cpp:434] loss <- ip2
I1202 00:15:02.397311 2760188864 net.cpp:434] loss <- label
I1202 00:15:02.397328 2760188864 net.cpp:408] loss -> loss
…
I1202 00:15:02.397888 2760188864 solver.cpp:181] Creating test net (#0) specified by net file: examples/mnist/lenet_train_math_test_batchnorm.prototxt
I1202 00:15:02.397923 2760188864 net.cpp:322] The NetState phase (1) differed from the phase (0) specified by a rule in layer math
I1202 00:15:02.397943 2760188864 net.cpp:58] Initializing net from parameters: 
name: "LeNet"
state {
  phase: TEST
}
layer {
  name: "math"
  type: "Data"
  top: "data"
  top: "label"
  include {
    phase: TEST
  }
  transform_param {
    mean_file: "examples/imagenet/math_mean.binaryproto"
  }
  data_param {
    source: "examples/imagenet/math_val_lmdb"
    batch_size: 100
    backend: LMDB
  }
}
layer {
  name: "conv1"
  type: "Convolution"
  bottom: "data"
  top: "conv1"
  param {
    lr_mult: 1
  }
  convolution_param {
    num_output: 20
    kernel_size: 5
    stride: 1
    weight_filler {
      type: "gaussian"
      std: 0.0001
    }
    bias_filler {
      type: "constant"
    }
  }
}
layer {
  name: "pool1"
  type: "Pooling"
  bottom: "conv1"
  top: "pool1"
  pooling_param {
    pool: MAX
    kernel_size: 2
    stride: 2
  }
}
layer {
  name: "bn1"
  type: "BatchNorm"
  bottom: "pool1"
  top: "bn1"
}
layer {
  name: "Sigmoid1"
  type: "Sigmoid"
  bottom: "bn1"
  top: "Sigmoid1"
}
layer {
  name: "conv2"
  type: "Convolution"
  bottom: "Sigmoid1"
  top: "conv2"
  param {
    lr_mult: 1
  }
  convolution_param {
    num_output: 50
    kernel_size: 5
    stride: 1
    weight_filler {
      type: "gaussian"
      std: 0.01
    }
    bias_filler {
      type: "constant"
    }
  }
}
layer {
  name: "bn2"
  type: "BatchNorm"
  bottom: "conv2"
  top: "bn2"
}
layer {
  name: "Sigmoid2"
  type: "Sigmoid"
  bottom: "bn2"
  top: "Sigmoid2"
}
layer {
  name: "pool2"
  type: "Pooling"
  bottom: "Sigmoid2"
  top: "pool2"
  pooling_param {
    pool: MAX
    kernel_size: 2
    stride: 2
  }
}
layer {
  name: "ip1"
  type: "InnerProduct"
  bottom: "pool2"
  top: "ip1"
  param {
    lr_mult: 1
  }
  param {
    lr_mult: 2
  }
  inner_product_param {
    num_output: 500
    weight_filler {
      type: "gaussian"
      std: 0.01
    }
    bias_filler {
      type: "constant"
    }
  }
}
layer {
  name: "ip2"
  type: "InnerProduct"
  bottom: "ip1"
  top: "ip2"
  param {
    lr_mult: 1
  }
  param {
    lr_mult: 2
  }
  inner_product_param {
    num_output: 19
    weight_filler {
      type: "gaussian"
      std: 0.01
    }
    bias_filler {
      type: "constant"
    }
  }
}
layer {
  name: "accuracy"
  type: "Accuracy"
  bottom: "ip2"
  bottom: "label"
  top: "accuracy"
  include {
    phase: TEST
  }
}
layer {
  name: "loss"
  type: "SoftmaxWithLoss"
  bottom: "ip2"
  bottom: "label"
  top: "loss"
}
I1202 00:15:02.398166 2760188864 layer_factory.hpp:77] Creating layer math
I1202 00:15:02.398313 2760188864 net.cpp:100] Creating Layer math
I1202 00:15:02.398325 2760188864 net.cpp:408] math -> data
I1202 00:15:02.398339 2760188864 net.cpp:408] math -> label
I1202 00:15:02.398356 2760188864 data_transformer.cpp:25] Loading mean file from: examples/imagenet/math_mean.binaryproto
I1202 00:15:02.398411 156835840 db_lmdb.cpp:35] Opened lmdb examples/imagenet/math_val_lmdb
I1202 00:15:02.398495 2760188864 data_layer.cpp:41] output data size: 100,3,32,72
I1202 00:15:02.403797 2760188864 net.cpp:150] Setting up math
I1202 00:15:02.403818 2760188864 net.cpp:157] Top shape: 100 3 32 72 (691200)
I1202 00:15:02.403831 2760188864 net.cpp:157] Top shape: 100 (100)
I1202 00:15:02.403842 2760188864 net.cpp:165] Memory required for data: 2765200
I1202 00:15:02.403851 2760188864 layer_factory.hpp:77] Creating layer label_math_1_split
I1202 00:15:02.403873 2760188864 net.cpp:100] Creating Layer label_math_1_split
I1202 00:15:02.403918 2760188864 net.cpp:434] label_math_1_split <- label
I1202 00:15:02.403930 2760188864 net.cpp:408] label_math_1_split -> label_math_1_split_0
I1202 00:15:02.403941 2760188864 net.cpp:408] label_math_1_split -> label_math_1_split_1
I1202 00:15:02.403954 2760188864 net.cpp:150] Setting up label_math_1_split
I1202 00:15:02.403960 2760188864 net.cpp:157] Top shape: 100 (100)
I1202 00:15:02.403967 2760188864 net.cpp:157] Top shape: 100 (100)
I1202 00:15:02.403973 2760188864 net.cpp:165] Memory required for data: 2766000
I1202 00:15:02.403980 2760188864 layer_factory.hpp:77] Creating layer conv1
I1202 00:15:02.403995 2760188864 net.cpp:100] Creating Layer conv1
I1202 00:15:02.404001 2760188864 net.cpp:434] conv1 <- data
I1202 00:15:02.404016 2760188864 net.cpp:408] conv1 -> conv1
I1202 00:15:02.404117 2760188864 net.cpp:150] Setting up conv1
I1202 00:15:02.404129 2760188864 net.cpp:157] Top shape: 100 20 28 68 (3808000)
I1202 00:15:02.404136 2760188864 net.cpp:165] Memory required for data: 17998000
I1202 00:15:02.404150 2760188864 layer_factory.hpp:77] Creating layer pool1
I1202 00:15:02.404160 2760188864 net.cpp:100] Creating Layer pool1
I1202 00:15:02.404165 2760188864 net.cpp:434] pool1 <- conv1
I1202 00:15:02.404173 2760188864 net.cpp:408] pool1 -> pool1
I1202 00:15:02.404187 2760188864 net.cpp:150] Setting up pool1
I1202 00:15:02.404196 2760188864 net.cpp:157] Top shape: 100 20 14 34 (952000)
I1202 00:15:02.404204 2760188864 net.cpp:165] Memory required for data: 21806000
I1202 00:15:02.404264 2760188864 layer_factory.hpp:77] Creating layer bn1
I1202 00:15:02.404278 2760188864 net.cpp:100] Creating Layer bn1
I1202 00:15:02.404284 2760188864 net.cpp:434] bn1 <- pool1
I1202 00:15:02.404291 2760188864 net.cpp:408] bn1 -> bn1
I1202 00:15:02.404314 2760188864 net.cpp:150] Setting up bn1
I1202 00:15:02.404321 2760188864 net.cpp:157] Top shape: 100 20 14 34 (952000)
I1202 00:15:02.404328 2760188864 net.cpp:165] Memory required for data: 25614000
I1202 00:15:02.404348 2760188864 layer_factory.hpp:77] Creating layer Sigmoid1
I1202 00:15:02.404356 2760188864 net.cpp:100] Creating Layer Sigmoid1
I1202 00:15:02.404363 2760188864 net.cpp:434] Sigmoid1 <- bn1
I1202 00:15:02.404371 2760188864 net.cpp:408] Sigmoid1 -> Sigmoid1
I1202 00:15:02.404379 2760188864 net.cpp:150] Setting up Sigmoid1
I1202 00:15:02.404384 2760188864 net.cpp:157] Top shape: 100 20 14 34 (952000)
I1202 00:15:02.404392 2760188864 net.cpp:165] Memory required for data: 29422000
I1202 00:15:02.404398 2760188864 layer_factory.hpp:77] Creating layer conv2
I1202 00:15:02.404409 2760188864 net.cpp:100] Creating Layer conv2
I1202 00:15:02.404415 2760188864 net.cpp:434] conv2 <- Sigmoid1
I1202 00:15:02.404423 2760188864 net.cpp:408] conv2 -> conv2
I1202 00:15:02.404919 2760188864 net.cpp:150] Setting up conv2
I1202 00:15:02.404928 2760188864 net.cpp:157] Top shape: 100 50 10 30 (1500000)
I1202 00:15:02.404935 2760188864 net.cpp:165] Memory required for data: 35422000
I1202 00:15:02.404944 2760188864 layer_factory.hpp:77] Creating layer bn2
I1202 00:15:02.404953 2760188864 net.cpp:100] Creating Layer bn2
I1202 00:15:02.404958 2760188864 net.cpp:434] bn2 <- conv2
I1202 00:15:02.404973 2760188864 net.cpp:408] bn2 -> bn2
I1202 00:15:02.404996 2760188864 net.cpp:150] Setting up bn2
I1202 00:15:02.405004 2760188864 net.cpp:157] Top shape: 100 50 10 30 (1500000)
I1202 00:15:02.405011 2760188864 net.cpp:165] Memory required for data: 41422000
I1202 00:15:02.405026 2760188864 layer_factory.hpp:77] Creating layer Sigmoid2
I1202 00:15:02.405035 2760188864 net.cpp:100] Creating Layer Sigmoid2
I1202 00:15:02.405040 2760188864 net.cpp:434] Sigmoid2 <- bn2
I1202 00:15:02.405048 2760188864 net.cpp:408] Sigmoid2 -> Sigmoid2
I1202 00:15:02.405057 2760188864 net.cpp:150] Setting up Sigmoid2
I1202 00:15:02.405063 2760188864 net.cpp:157] Top shape: 100 50 10 30 (1500000)
I1202 00:15:02.405071 2760188864 net.cpp:165] Memory required for data: 47422000
I1202 00:15:02.405076 2760188864 layer_factory.hpp:77] Creating layer pool2
I1202 00:15:02.405084 2760188864 net.cpp:100] Creating Layer pool2
I1202 00:15:02.405091 2760188864 net.cpp:434] pool2 <- Sigmoid2
I1202 00:15:02.405100 2760188864 net.cpp:408] pool2 -> pool2
I1202 00:15:02.405112 2760188864 net.cpp:150] Setting up pool2
I1202 00:15:02.405118 2760188864 net.cpp:157] Top shape: 100 50 5 15 (375000)
I1202 00:15:02.405124 2760188864 net.cpp:165] Memory required for data: 48922000
I1202 00:15:02.405130 2760188864 layer_factory.hpp:77] Creating layer ip1
I1202 00:15:02.405141 2760188864 net.cpp:100] Creating Layer ip1
I1202 00:15:02.405148 2760188864 net.cpp:434] ip1 <- pool2
I1202 00:15:02.405155 2760188864 net.cpp:408] ip1 -> ip1
I1202 00:15:02.436631 2760188864 net.cpp:150] Setting up ip1
I1202 00:15:02.436684 2760188864 net.cpp:157] Top shape: 100 500 (50000)
I1202 00:15:02.436692 2760188864 net.cpp:165] Memory required for data: 49122000
I1202 00:15:02.436753 2760188864 layer_factory.hpp:77] Creating layer ip2
I1202 00:15:02.436796 2760188864 net.cpp:100] Creating Layer ip2
I1202 00:15:02.436861 2760188864 net.cpp:434] ip2 <- ip1
I1202 00:15:02.436869 2760188864 net.cpp:408] ip2 -> ip2
I1202 00:15:02.437069 2760188864 net.cpp:150] Setting up ip2
I1202 00:15:02.437081 2760188864 net.cpp:157] Top shape: 100 19 (1900)
I1202 00:15:02.437090 2760188864 net.cpp:165] Memory required for data: 49129600
I1202 00:15:02.437103 2760188864 layer_factory.hpp:77] Creating layer ip2_ip2_0_split
I1202 00:15:02.437119 2760188864 net.cpp:100] Creating Layer ip2_ip2_0_split
I1202 00:15:02.437213 2760188864 net.cpp:434] ip2_ip2_0_split <- ip2
I1202 00:15:02.437228 2760188864 net.cpp:408] ip2_ip2_0_split -> ip2_ip2_0_split_0
I1202 00:15:02.437243 2760188864 net.cpp:408] ip2_ip2_0_split -> ip2_ip2_0_split_1
I1202 00:15:02.437258 2760188864 net.cpp:150] Setting up ip2_ip2_0_split
I1202 00:15:02.437275 2760188864 net.cpp:157] Top shape: 100 19 (1900)
I1202 00:15:02.437290 2760188864 net.cpp:157] Top shape: 100 19 (1900)
I1202 00:15:02.437304 2760188864 net.cpp:165] Memory required for data: 49144800
I1202 00:15:02.437357 2760188864 layer_factory.hpp:77] Creating layer accuracy
I1202 00:15:02.437396 2760188864 net.cpp:100] Creating Layer accuracy
I1202 00:15:02.437404 2760188864 net.cpp:434] accuracy <- ip2_ip2_0_split_0
I1202 00:15:02.437415 2760188864 net.cpp:434] accuracy <- label_math_1_split_0
I1202 00:15:02.437427 2760188864 net.cpp:408] accuracy -> accuracy
…
